{"format": "graph-model", "generatedBy": "2.17.0", "convertedBy": "TensorFlow.js Converter v4.22.0", "signature": {"inputs": {"input_2": {"name": "input_2:0", "dtype": "DT_FLOAT", "tensorShape": {"dim": [{"size": "-1"}, {"size": "224"}, {"size": "224"}, {"size": "3"}]}}}, "outputs": {"segmentation": {"name": "Identity_1:0", "dtype": "DT_FLOAT", "tensorShape": {"dim": [{"size": "-1"}, {"size": "224"}, {"size": "224"}, {"size": "1"}]}}, "corners": {"name": "Identity:0", "dtype": "DT_FLOAT", "tensorShape": {"dim": [{"size": "-1"}, {"size": "224"}, {"size": "224"}, {"size": "4"}]}}}}, "modelTopology": {"node": [{"name": "StatefulPartitionedCall/Unetpp_16_16_32_64_128_256/corners/Conv2D/ReadVariableOp", "op": "Const", "attr": {"value": {"tensor": {"dtype": "DT_FLOAT", "tensorShape": {"dim": [{"size": "1"}, {"size": "1"}, {"size": "16"}, {"size": "4"}]}}}, "dtype": {"type": "DT_FLOAT"}}}, {"name": "StatefulPartitionedCall/Unetpp_16_16_32_64_128_256/corners/BiasAdd/ReadVariableOp", "op": "Const", "attr": {"value": {"tensor": {"dtype": "DT_FLOAT", "tensorShape": {"dim": [{"size": "4"}]}}}, "dtype": {"type": "DT_FLOAT"}}}, {"name": "StatefulPartitionedCall/Unetpp_16_16_32_64_128_256/up_1_0/strided_slice/stack", "op": "Const", "attr": {"value": {"tensor": {"dtype": "DT_INT32", "tensorShape": {"dim": [{"size": "1"}]}}}, "dtype": {"type": "DT_INT32"}}}, {"name": "StatefulPartitionedCall/Unetpp_16_16_32_64_128_256/up_1_0/strided_slice/stack_1", "op": "Const", "attr": {"value": {"tensor": {"dtype": "DT_INT32", "tensorShape": {"dim": [{"size": "1"}]}}}, "dtype": {"type": "DT_INT32"}}}, {"name": "StatefulPartitionedCall/Unetpp_16_16_32_64_128_256/up_1_0/strided_slice/stack_2", "op": "Const", "attr": {"value": {"tensor": {"dtype": "DT_INT32", "tensorShape": {"dim": [{"size": "1"}]}}}, "dtype": {"type": "DT_INT32"}}}, {"name": "StatefulPartitionedCall/Unetpp_16_16_32_64_128_256/up_1_0/stack/1", "op": "Const", "attr": {"value": {"tensor": {"dtype": "DT_INT32", "tensorShape": {}}}, "dtype": {"type": "DT_INT32"}}}, {"name": "StatefulPartitionedCall/Unetpp_16_16_32_64_128_256/up_1_0/stack/2", "op": "Const", "attr": {"value": {"tensor": {"dtype": "DT_INT32", "tensorShape": {}}}, "dtype": {"type": "DT_INT32"}}}, {"name": "StatefulPartitionedCall/Unetpp_16_16_32_64_128_256/up_1_0/stack/3", "op": "Const", "attr": {"value": {"tensor": {"dtype": "DT_INT32", "tensorShape": {}}}, "dtype": {"type": "DT_INT32"}}}, {"name": "StatefulPartitionedCall/Unetpp_16_16_32_64_128_256/up_1_0/conv2d_transpose/ReadVariableOp", "op": "Const", "attr": {"value": {"tensor": {"dtype": "DT_FLOAT", "tensorShape": {"dim": [{"size": "2"}, {"size": "2"}, {"size": "16"}, {"size": "16"}]}}}, "dtype": {"type": "DT_FLOAT"}}}, {"name": "StatefulPartitionedCall/Unetpp_16_16_32_64_128_256/up_1_0/BiasAdd/ReadVariableOp", "op": "Const", "attr": {"value": {"tensor": {"dtype": "DT_FLOAT", "tensorShape": {"dim": [{"size": "16"}]}}}, "dtype": {"type": "DT_FLOAT"}}}, {"name": "StatefulPartitionedCall/Unetpp_16_16_32_64_128_256/merge_0_1/concat/axis", "op": "Const", "attr": {"value": {"tensor": {"dtype": "DT_INT32", "tensorShape": {}}}, "dtype": {"type": "DT_INT32"}}}, {"name": "StatefulPartitionedCall/Unetpp_16_16_32_64_128_256/up_1_1/strided_slice/stack", "op": "Const", "attr": {"value": {"tensor": {"dtype": "DT_INT32", "tensorShape": {"dim": [{"size": "1"}]}}}, "dtype": {"type": "DT_INT32"}}}, {"name": "StatefulPartitionedCall/Unetpp_16_16_32_64_128_256/up_1_1/strided_slice/stack_1", "op": "Const", "attr": {"value": {"tensor": {"dtype": "DT_INT32", "tensorShape": {"dim": [{"size": "1"}]}}}, "dtype": {"type": "DT_INT32"}}}, {"name": "StatefulPartitionedCall/Unetpp_16_16_32_64_128_256/up_1_1/strided_slice/stack_2", "op": "Const", "attr": {"value": {"tensor": {"dtype": "DT_INT32", "tensorShape": {"dim": [{"size": "1"}]}}}, "dtype": {"type": "DT_INT32"}}}, {"name": "StatefulPartitionedCall/Unetpp_16_16_32_64_128_256/up_1_1/stack/1", "op": "Const", "attr": {"value": {"tensor": {"dtype": "DT_INT32", "tensorShape": {}}}, "dtype": {"type": "DT_INT32"}}}, {"name": "StatefulPartitionedCall/Unetpp_16_16_32_64_128_256/up_1_1/stack/2", "op": "Const", "attr": {"value": {"tensor": {"dtype": "DT_INT32", "tensorShape": {}}}, "dtype": {"type": "DT_INT32"}}}, {"name": "StatefulPartitionedCall/Unetpp_16_16_32_64_128_256/up_1_1/stack/3", "op": "Const", "attr": {"value": {"tensor": {"dtype": "DT_INT32", "tensorShape": {}}}, "dtype": {"type": "DT_INT32"}}}, {"name": "StatefulPartitionedCall/Unetpp_16_16_32_64_128_256/up_1_1/conv2d_transpose/ReadVariableOp", "op": "Const", "attr": {"value": {"tensor": {"dtype": "DT_FLOAT", "tensorShape": {"dim": [{"size": "2"}, {"size": "2"}, {"size": "16"}, {"size": "16"}]}}}, "dtype": {"type": "DT_FLOAT"}}}, {"name": "StatefulPartitionedCall/Unetpp_16_16_32_64_128_256/up_1_1/BiasAdd/ReadVariableOp", "op": "Const", "attr": {"value": {"tensor": {"dtype": "DT_FLOAT", "tensorShape": {"dim": [{"size": "16"}]}}}, "dtype": {"type": "DT_FLOAT"}}}, {"name": "StatefulPartitionedCall/Unetpp_16_16_32_64_128_256/merge_0_2/concat/axis", "op": "Const", "attr": {"value": {"tensor": {"dtype": "DT_INT32", "tensorShape": {}}}, "dtype": {"type": "DT_INT32"}}}, {"name": "StatefulPartitionedCall/Unetpp_16_16_32_64_128_256/up_1_2/strided_slice/stack", "op": "Const", "attr": {"value": {"tensor": {"dtype": "DT_INT32", "tensorShape": {"dim": [{"size": "1"}]}}}, "dtype": {"type": "DT_INT32"}}}, {"name": "StatefulPartitionedCall/Unetpp_16_16_32_64_128_256/up_1_2/strided_slice/stack_1", "op": "Const", "attr": {"value": {"tensor": {"dtype": "DT_INT32", "tensorShape": {"dim": [{"size": "1"}]}}}, "dtype": {"type": "DT_INT32"}}}, {"name": "StatefulPartitionedCall/Unetpp_16_16_32_64_128_256/up_1_2/strided_slice/stack_2", "op": "Const", "attr": {"value": {"tensor": {"dtype": "DT_INT32", "tensorShape": {"dim": [{"size": "1"}]}}}, "dtype": {"type": "DT_INT32"}}}, {"name": "StatefulPartitionedCall/Unetpp_16_16_32_64_128_256/up_1_2/stack/1", "op": "Const", "attr": {"value": {"tensor": {"dtype": "DT_INT32", "tensorShape": {}}}, "dtype": {"type": "DT_INT32"}}}, {"name": "StatefulPartitionedCall/Unetpp_16_16_32_64_128_256/up_1_2/stack/2", "op": "Const", "attr": {"value": {"tensor": {"dtype": "DT_INT32", "tensorShape": {}}}, "dtype": {"type": "DT_INT32"}}}, {"name": "StatefulPartitionedCall/Unetpp_16_16_32_64_128_256/up_1_2/stack/3", "op": "Const", "attr": {"value": {"tensor": {"dtype": "DT_INT32", "tensorShape": {}}}, "dtype": {"type": "DT_INT32"}}}, {"name": "StatefulPartitionedCall/Unetpp_16_16_32_64_128_256/up_1_2/conv2d_transpose/ReadVariableOp", "op": "Const", "attr": {"value": {"tensor": {"dtype": "DT_FLOAT", "tensorShape": {"dim": [{"size": "2"}, {"size": "2"}, {"size": "16"}, {"size": "16"}]}}}, "dtype": {"type": "DT_FLOAT"}}}, {"name": "StatefulPartitionedCall/Unetpp_16_16_32_64_128_256/up_1_2/BiasAdd/ReadVariableOp", "op": "Const", "attr": {"value": {"tensor": {"dtype": "DT_FLOAT", "tensorShape": {"dim": [{"size": "16"}]}}}, "dtype": {"type": "DT_FLOAT"}}}, {"name": "StatefulPartitionedCall/Unetpp_16_16_32_64_128_256/merge_0_3/concat/axis", "op": "Const", "attr": {"value": {"tensor": {"dtype": "DT_INT32", "tensorShape": {}}}, "dtype": {"type": "DT_INT32"}}}, {"name": "StatefulPartitionedCall/Unetpp_16_16_32_64_128_256/up_1_3/strided_slice/stack", "op": "Const", "attr": {"value": {"tensor": {"dtype": "DT_INT32", "tensorShape": {"dim": [{"size": "1"}]}}}, "dtype": {"type": "DT_INT32"}}}, {"name": "StatefulPartitionedCall/Unetpp_16_16_32_64_128_256/up_1_3/strided_slice/stack_1", "op": "Const", "attr": {"value": {"tensor": {"dtype": "DT_INT32", "tensorShape": {"dim": [{"size": "1"}]}}}, "dtype": {"type": "DT_INT32"}}}, {"name": "StatefulPartitionedCall/Unetpp_16_16_32_64_128_256/up_1_3/strided_slice/stack_2", "op": "Const", "attr": {"value": {"tensor": {"dtype": "DT_INT32", "tensorShape": {"dim": [{"size": "1"}]}}}, "dtype": {"type": "DT_INT32"}}}, {"name": "StatefulPartitionedCall/Unetpp_16_16_32_64_128_256/up_1_3/stack/1", "op": "Const", "attr": {"value": {"tensor": {"dtype": "DT_INT32", "tensorShape": {}}}, "dtype": {"type": "DT_INT32"}}}, {"name": "StatefulPartitionedCall/Unetpp_16_16_32_64_128_256/up_1_3/stack/2", "op": "Const", "attr": {"value": {"tensor": {"dtype": "DT_INT32", "tensorShape": {}}}, "dtype": {"type": "DT_INT32"}}}, {"name": "StatefulPartitionedCall/Unetpp_16_16_32_64_128_256/up_1_3/stack/3", "op": "Const", "attr": {"value": {"tensor": {"dtype": "DT_INT32", "tensorShape": {}}}, "dtype": {"type": "DT_INT32"}}}, {"name": "StatefulPartitionedCall/Unetpp_16_16_32_64_128_256/up_1_3/conv2d_transpose/ReadVariableOp", "op": "Const", "attr": {"value": {"tensor": {"dtype": "DT_FLOAT", "tensorShape": {"dim": [{"size": "2"}, {"size": "2"}, {"size": "16"}, {"size": "16"}]}}}, "dtype": {"type": "DT_FLOAT"}}}, {"name": "StatefulPartitionedCall/Unetpp_16_16_32_64_128_256/up_1_3/BiasAdd/ReadVariableOp", "op": "Const", "attr": {"value": {"tensor": {"dtype": "DT_FLOAT", "tensorShape": {"dim": [{"size": "16"}]}}}, "dtype": {"type": "DT_FLOAT"}}}, {"name": "StatefulPartitionedCall/Unetpp_16_16_32_64_128_256/merge_0_4/concat/axis", "op": "Const", "attr": {"value": {"tensor": {"dtype": "DT_INT32", "tensorShape": {}}}, "dtype": {"type": "DT_INT32"}}}, {"name": "StatefulPartitionedCall/Unetpp_16_16_32_64_128_256/up_1_4/strided_slice/stack", "op": "Const", "attr": {"value": {"tensor": {"dtype": "DT_INT32", "tensorShape": {"dim": [{"size": "1"}]}}}, "dtype": {"type": "DT_INT32"}}}, {"name": "StatefulPartitionedCall/Unetpp_16_16_32_64_128_256/up_1_4/strided_slice/stack_1", "op": "Const", "attr": {"value": {"tensor": {"dtype": "DT_INT32", "tensorShape": {"dim": [{"size": "1"}]}}}, "dtype": {"type": "DT_INT32"}}}, {"name": "StatefulPartitionedCall/Unetpp_16_16_32_64_128_256/up_1_4/strided_slice/stack_2", "op": "Const", "attr": {"value": {"tensor": {"dtype": "DT_INT32", "tensorShape": {"dim": [{"size": "1"}]}}}, "dtype": {"type": "DT_INT32"}}}, {"name": "StatefulPartitionedCall/Unetpp_16_16_32_64_128_256/up_1_4/stack/1", "op": "Const", "attr": {"value": {"tensor": {"dtype": "DT_INT32", "tensorShape": {}}}, "dtype": {"type": "DT_INT32"}}}, {"name": "StatefulPartitionedCall/Unetpp_16_16_32_64_128_256/up_1_4/stack/2", "op": "Const", "attr": {"value": {"tensor": {"dtype": "DT_INT32", "tensorShape": {}}}, "dtype": {"type": "DT_INT32"}}}, {"name": "StatefulPartitionedCall/Unetpp_16_16_32_64_128_256/up_1_4/stack/3", "op": "Const", "attr": {"value": {"tensor": {"dtype": "DT_INT32", "tensorShape": {}}}, "dtype": {"type": "DT_INT32"}}}, {"name": "StatefulPartitionedCall/Unetpp_16_16_32_64_128_256/up_1_4/conv2d_transpose/ReadVariableOp", "op": "Const", "attr": {"value": {"tensor": {"dtype": "DT_FLOAT", "tensorShape": {"dim": [{"size": "2"}, {"size": "2"}, {"size": "16"}, {"size": "16"}]}}}, "dtype": {"type": "DT_FLOAT"}}}, {"name": "StatefulPartitionedCall/Unetpp_16_16_32_64_128_256/up_2_0/strided_slice/stack", "op": "Const", "attr": {"value": {"tensor": {"dtype": "DT_INT32", "tensorShape": {"dim": [{"size": "1"}]}}}, "dtype": {"type": "DT_INT32"}}}, {"name": "StatefulPartitionedCall/Unetpp_16_16_32_64_128_256/up_2_0/strided_slice/stack_1", "op": "Const", "attr": {"value": {"tensor": {"dtype": "DT_INT32", "tensorShape": {"dim": [{"size": "1"}]}}}, "dtype": {"type": "DT_INT32"}}}, {"name": "StatefulPartitionedCall/Unetpp_16_16_32_64_128_256/up_2_0/strided_slice/stack_2", "op": "Const", "attr": {"value": {"tensor": {"dtype": "DT_INT32", "tensorShape": {"dim": [{"size": "1"}]}}}, "dtype": {"type": "DT_INT32"}}}, {"name": "StatefulPartitionedCall/Unetpp_16_16_32_64_128_256/up_2_0/stack/1", "op": "Const", "attr": {"value": {"tensor": {"dtype": "DT_INT32", "tensorShape": {}}}, "dtype": {"type": "DT_INT32"}}}, {"name": "StatefulPartitionedCall/Unetpp_16_16_32_64_128_256/up_2_0/stack/2", "op": "Const", "attr": {"value": {"tensor": {"dtype": "DT_INT32", "tensorShape": {}}}, "dtype": {"type": "DT_INT32"}}}, {"name": "StatefulPartitionedCall/Unetpp_16_16_32_64_128_256/up_2_0/stack/3", "op": "Const", "attr": {"value": {"tensor": {"dtype": "DT_INT32", "tensorShape": {}}}, "dtype": {"type": "DT_INT32"}}}, {"name": "StatefulPartitionedCall/Unetpp_16_16_32_64_128_256/up_2_0/conv2d_transpose/ReadVariableOp", "op": "Const", "attr": {"value": {"tensor": {"dtype": "DT_FLOAT", "tensorShape": {"dim": [{"size": "2"}, {"size": "2"}, {"size": "16"}, {"size": "32"}]}}}, "dtype": {"type": "DT_FLOAT"}}}, {"name": "StatefulPartitionedCall/Unetpp_16_16_32_64_128_256/up_2_0/BiasAdd/ReadVariableOp", "op": "Const", "attr": {"value": {"tensor": {"dtype": "DT_FLOAT", "tensorShape": {"dim": [{"size": "16"}]}}}, "dtype": {"type": "DT_FLOAT"}}}, {"name": "StatefulPartitionedCall/Unetpp_16_16_32_64_128_256/merge_1_1/concat/axis", "op": "Const", "attr": {"value": {"tensor": {"dtype": "DT_INT32", "tensorShape": {}}}, "dtype": {"type": "DT_INT32"}}}, {"name": "StatefulPartitionedCall/Unetpp_16_16_32_64_128_256/up_2_1/strided_slice/stack", "op": "Const", "attr": {"value": {"tensor": {"dtype": "DT_INT32", "tensorShape": {"dim": [{"size": "1"}]}}}, "dtype": {"type": "DT_INT32"}}}, {"name": "StatefulPartitionedCall/Unetpp_16_16_32_64_128_256/up_2_1/strided_slice/stack_1", "op": "Const", "attr": {"value": {"tensor": {"dtype": "DT_INT32", "tensorShape": {"dim": [{"size": "1"}]}}}, "dtype": {"type": "DT_INT32"}}}, {"name": "StatefulPartitionedCall/Unetpp_16_16_32_64_128_256/up_2_1/strided_slice/stack_2", "op": "Const", "attr": {"value": {"tensor": {"dtype": "DT_INT32", "tensorShape": {"dim": [{"size": "1"}]}}}, "dtype": {"type": "DT_INT32"}}}, {"name": "StatefulPartitionedCall/Unetpp_16_16_32_64_128_256/up_2_1/stack/1", "op": "Const", "attr": {"value": {"tensor": {"dtype": "DT_INT32", "tensorShape": {}}}, "dtype": {"type": "DT_INT32"}}}, {"name": "StatefulPartitionedCall/Unetpp_16_16_32_64_128_256/up_2_1/stack/2", "op": "Const", "attr": {"value": {"tensor": {"dtype": "DT_INT32", "tensorShape": {}}}, "dtype": {"type": "DT_INT32"}}}, {"name": "StatefulPartitionedCall/Unetpp_16_16_32_64_128_256/up_2_1/stack/3", "op": "Const", "attr": {"value": {"tensor": {"dtype": "DT_INT32", "tensorShape": {}}}, "dtype": {"type": "DT_INT32"}}}, {"name": "StatefulPartitionedCall/Unetpp_16_16_32_64_128_256/up_2_1/conv2d_transpose/ReadVariableOp", "op": "Const", "attr": {"value": {"tensor": {"dtype": "DT_FLOAT", "tensorShape": {"dim": [{"size": "2"}, {"size": "2"}, {"size": "16"}, {"size": "32"}]}}}, "dtype": {"type": "DT_FLOAT"}}}, {"name": "StatefulPartitionedCall/Unetpp_16_16_32_64_128_256/up_2_1/BiasAdd/ReadVariableOp", "op": "Const", "attr": {"value": {"tensor": {"dtype": "DT_FLOAT", "tensorShape": {"dim": [{"size": "16"}]}}}, "dtype": {"type": "DT_FLOAT"}}}, {"name": "StatefulPartitionedCall/Unetpp_16_16_32_64_128_256/merge_1_2/concat/axis", "op": "Const", "attr": {"value": {"tensor": {"dtype": "DT_INT32", "tensorShape": {}}}, "dtype": {"type": "DT_INT32"}}}, {"name": "StatefulPartitionedCall/Unetpp_16_16_32_64_128_256/up_2_2/strided_slice/stack", "op": "Const", "attr": {"value": {"tensor": {"dtype": "DT_INT32", "tensorShape": {"dim": [{"size": "1"}]}}}, "dtype": {"type": "DT_INT32"}}}, {"name": "StatefulPartitionedCall/Unetpp_16_16_32_64_128_256/up_2_2/strided_slice/stack_1", "op": "Const", "attr": {"value": {"tensor": {"dtype": "DT_INT32", "tensorShape": {"dim": [{"size": "1"}]}}}, "dtype": {"type": "DT_INT32"}}}, {"name": "StatefulPartitionedCall/Unetpp_16_16_32_64_128_256/up_2_2/strided_slice/stack_2", "op": "Const", "attr": {"value": {"tensor": {"dtype": "DT_INT32", "tensorShape": {"dim": [{"size": "1"}]}}}, "dtype": {"type": "DT_INT32"}}}, {"name": "StatefulPartitionedCall/Unetpp_16_16_32_64_128_256/up_2_2/stack/1", "op": "Const", "attr": {"value": {"tensor": {"dtype": "DT_INT32", "tensorShape": {}}}, "dtype": {"type": "DT_INT32"}}}, {"name": "StatefulPartitionedCall/Unetpp_16_16_32_64_128_256/up_2_2/stack/2", "op": "Const", "attr": {"value": {"tensor": {"dtype": "DT_INT32", "tensorShape": {}}}, "dtype": {"type": "DT_INT32"}}}, {"name": "StatefulPartitionedCall/Unetpp_16_16_32_64_128_256/up_2_2/stack/3", "op": "Const", "attr": {"value": {"tensor": {"dtype": "DT_INT32", "tensorShape": {}}}, "dtype": {"type": "DT_INT32"}}}, {"name": "StatefulPartitionedCall/Unetpp_16_16_32_64_128_256/up_2_2/conv2d_transpose/ReadVariableOp", "op": "Const", "attr": {"value": {"tensor": {"dtype": "DT_FLOAT", "tensorShape": {"dim": [{"size": "2"}, {"size": "2"}, {"size": "16"}, {"size": "32"}]}}}, "dtype": {"type": "DT_FLOAT"}}}, {"name": "StatefulPartitionedCall/Unetpp_16_16_32_64_128_256/up_2_2/BiasAdd/ReadVariableOp", "op": "Const", "attr": {"value": {"tensor": {"dtype": "DT_FLOAT", "tensorShape": {"dim": [{"size": "16"}]}}}, "dtype": {"type": "DT_FLOAT"}}}, {"name": "StatefulPartitionedCall/Unetpp_16_16_32_64_128_256/merge_1_3/concat/axis", "op": "Const", "attr": {"value": {"tensor": {"dtype": "DT_INT32", "tensorShape": {}}}, "dtype": {"type": "DT_INT32"}}}, {"name": "StatefulPartitionedCall/Unetpp_16_16_32_64_128_256/up_2_3/strided_slice/stack", "op": "Const", "attr": {"value": {"tensor": {"dtype": "DT_INT32", "tensorShape": {"dim": [{"size": "1"}]}}}, "dtype": {"type": "DT_INT32"}}}, {"name": "StatefulPartitionedCall/Unetpp_16_16_32_64_128_256/up_2_3/strided_slice/stack_1", "op": "Const", "attr": {"value": {"tensor": {"dtype": "DT_INT32", "tensorShape": {"dim": [{"size": "1"}]}}}, "dtype": {"type": "DT_INT32"}}}, {"name": "StatefulPartitionedCall/Unetpp_16_16_32_64_128_256/up_2_3/strided_slice/stack_2", "op": "Const", "attr": {"value": {"tensor": {"dtype": "DT_INT32", "tensorShape": {"dim": [{"size": "1"}]}}}, "dtype": {"type": "DT_INT32"}}}, {"name": "StatefulPartitionedCall/Unetpp_16_16_32_64_128_256/up_2_3/stack/1", "op": "Const", "attr": {"value": {"tensor": {"dtype": "DT_INT32", "tensorShape": {}}}, "dtype": {"type": "DT_INT32"}}}, {"name": "StatefulPartitionedCall/Unetpp_16_16_32_64_128_256/up_2_3/stack/2", "op": "Const", "attr": {"value": {"tensor": {"dtype": "DT_INT32", "tensorShape": {}}}, "dtype": {"type": "DT_INT32"}}}, {"name": "StatefulPartitionedCall/Unetpp_16_16_32_64_128_256/up_2_3/stack/3", "op": "Const", "attr": {"value": {"tensor": {"dtype": "DT_INT32", "tensorShape": {}}}, "dtype": {"type": "DT_INT32"}}}, {"name": "StatefulPartitionedCall/Unetpp_16_16_32_64_128_256/up_2_3/conv2d_transpose/ReadVariableOp", "op": "Const", "attr": {"value": {"tensor": {"dtype": "DT_FLOAT", "tensorShape": {"dim": [{"size": "2"}, {"size": "2"}, {"size": "16"}, {"size": "32"}]}}}, "dtype": {"type": "DT_FLOAT"}}}, {"name": "StatefulPartitionedCall/Unetpp_16_16_32_64_128_256/up_3_0/strided_slice/stack", "op": "Const", "attr": {"value": {"tensor": {"dtype": "DT_INT32", "tensorShape": {"dim": [{"size": "1"}]}}}, "dtype": {"type": "DT_INT32"}}}, {"name": "StatefulPartitionedCall/Unetpp_16_16_32_64_128_256/up_3_0/strided_slice/stack_1", "op": "Const", "attr": {"value": {"tensor": {"dtype": "DT_INT32", "tensorShape": {"dim": [{"size": "1"}]}}}, "dtype": {"type": "DT_INT32"}}}, {"name": "StatefulPartitionedCall/Unetpp_16_16_32_64_128_256/up_3_0/strided_slice/stack_2", "op": "Const", "attr": {"value": {"tensor": {"dtype": "DT_INT32", "tensorShape": {"dim": [{"size": "1"}]}}}, "dtype": {"type": "DT_INT32"}}}, {"name": "StatefulPartitionedCall/Unetpp_16_16_32_64_128_256/up_3_0/stack/1", "op": "Const", "attr": {"value": {"tensor": {"dtype": "DT_INT32", "tensorShape": {}}}, "dtype": {"type": "DT_INT32"}}}, {"name": "StatefulPartitionedCall/Unetpp_16_16_32_64_128_256/up_3_0/stack/2", "op": "Const", "attr": {"value": {"tensor": {"dtype": "DT_INT32", "tensorShape": {}}}, "dtype": {"type": "DT_INT32"}}}, {"name": "StatefulPartitionedCall/Unetpp_16_16_32_64_128_256/up_3_0/stack/3", "op": "Const", "attr": {"value": {"tensor": {"dtype": "DT_INT32", "tensorShape": {}}}, "dtype": {"type": "DT_INT32"}}}, {"name": "StatefulPartitionedCall/Unetpp_16_16_32_64_128_256/up_3_0/conv2d_transpose/ReadVariableOp", "op": "Const", "attr": {"value": {"tensor": {"dtype": "DT_FLOAT", "tensorShape": {"dim": [{"size": "2"}, {"size": "2"}, {"size": "32"}, {"size": "64"}]}}}, "dtype": {"type": "DT_FLOAT"}}}, {"name": "StatefulPartitionedCall/Unetpp_16_16_32_64_128_256/up_3_0/BiasAdd/ReadVariableOp", "op": "Const", "attr": {"value": {"tensor": {"dtype": "DT_FLOAT", "tensorShape": {"dim": [{"size": "32"}]}}}, "dtype": {"type": "DT_FLOAT"}}}, {"name": "StatefulPartitionedCall/Unetpp_16_16_32_64_128_256/merge_2_1/concat/axis", "op": "Const", "attr": {"value": {"tensor": {"dtype": "DT_INT32", "tensorShape": {}}}, "dtype": {"type": "DT_INT32"}}}, {"name": "StatefulPartitionedCall/Unetpp_16_16_32_64_128_256/up_3_1/strided_slice/stack", "op": "Const", "attr": {"value": {"tensor": {"dtype": "DT_INT32", "tensorShape": {"dim": [{"size": "1"}]}}}, "dtype": {"type": "DT_INT32"}}}, {"name": "StatefulPartitionedCall/Unetpp_16_16_32_64_128_256/up_3_1/strided_slice/stack_1", "op": "Const", "attr": {"value": {"tensor": {"dtype": "DT_INT32", "tensorShape": {"dim": [{"size": "1"}]}}}, "dtype": {"type": "DT_INT32"}}}, {"name": "StatefulPartitionedCall/Unetpp_16_16_32_64_128_256/up_3_1/strided_slice/stack_2", "op": "Const", "attr": {"value": {"tensor": {"dtype": "DT_INT32", "tensorShape": {"dim": [{"size": "1"}]}}}, "dtype": {"type": "DT_INT32"}}}, {"name": "StatefulPartitionedCall/Unetpp_16_16_32_64_128_256/up_3_1/stack/1", "op": "Const", "attr": {"value": {"tensor": {"dtype": "DT_INT32", "tensorShape": {}}}, "dtype": {"type": "DT_INT32"}}}, {"name": "StatefulPartitionedCall/Unetpp_16_16_32_64_128_256/up_3_1/stack/2", "op": "Const", "attr": {"value": {"tensor": {"dtype": "DT_INT32", "tensorShape": {}}}, "dtype": {"type": "DT_INT32"}}}, {"name": "StatefulPartitionedCall/Unetpp_16_16_32_64_128_256/up_3_1/stack/3", "op": "Const", "attr": {"value": {"tensor": {"dtype": "DT_INT32", "tensorShape": {}}}, "dtype": {"type": "DT_INT32"}}}, {"name": "StatefulPartitionedCall/Unetpp_16_16_32_64_128_256/up_3_1/conv2d_transpose/ReadVariableOp", "op": "Const", "attr": {"value": {"tensor": {"dtype": "DT_FLOAT", "tensorShape": {"dim": [{"size": "2"}, {"size": "2"}, {"size": "32"}, {"size": "64"}]}}}, "dtype": {"type": "DT_FLOAT"}}}, {"name": "StatefulPartitionedCall/Unetpp_16_16_32_64_128_256/up_3_1/BiasAdd/ReadVariableOp", "op": "Const", "attr": {"value": {"tensor": {"dtype": "DT_FLOAT", "tensorShape": {"dim": [{"size": "32"}]}}}, "dtype": {"type": "DT_FLOAT"}}}, {"name": "StatefulPartitionedCall/Unetpp_16_16_32_64_128_256/merge_2_2/concat/axis", "op": "Const", "attr": {"value": {"tensor": {"dtype": "DT_INT32", "tensorShape": {}}}, "dtype": {"type": "DT_INT32"}}}, {"name": "StatefulPartitionedCall/Unetpp_16_16_32_64_128_256/up_3_2/strided_slice/stack", "op": "Const", "attr": {"value": {"tensor": {"dtype": "DT_INT32", "tensorShape": {"dim": [{"size": "1"}]}}}, "dtype": {"type": "DT_INT32"}}}, {"name": "StatefulPartitionedCall/Unetpp_16_16_32_64_128_256/up_3_2/strided_slice/stack_1", "op": "Const", "attr": {"value": {"tensor": {"dtype": "DT_INT32", "tensorShape": {"dim": [{"size": "1"}]}}}, "dtype": {"type": "DT_INT32"}}}, {"name": "StatefulPartitionedCall/Unetpp_16_16_32_64_128_256/up_3_2/strided_slice/stack_2", "op": "Const", "attr": {"value": {"tensor": {"dtype": "DT_INT32", "tensorShape": {"dim": [{"size": "1"}]}}}, "dtype": {"type": "DT_INT32"}}}, {"name": "StatefulPartitionedCall/Unetpp_16_16_32_64_128_256/up_3_2/stack/1", "op": "Const", "attr": {"value": {"tensor": {"dtype": "DT_INT32", "tensorShape": {}}}, "dtype": {"type": "DT_INT32"}}}, {"name": "StatefulPartitionedCall/Unetpp_16_16_32_64_128_256/up_3_2/stack/2", "op": "Const", "attr": {"value": {"tensor": {"dtype": "DT_INT32", "tensorShape": {}}}, "dtype": {"type": "DT_INT32"}}}, {"name": "StatefulPartitionedCall/Unetpp_16_16_32_64_128_256/up_3_2/stack/3", "op": "Const", "attr": {"value": {"tensor": {"dtype": "DT_INT32", "tensorShape": {}}}, "dtype": {"type": "DT_INT32"}}}, {"name": "StatefulPartitionedCall/Unetpp_16_16_32_64_128_256/up_3_2/conv2d_transpose/ReadVariableOp", "op": "Const", "attr": {"value": {"tensor": {"dtype": "DT_FLOAT", "tensorShape": {"dim": [{"size": "2"}, {"size": "2"}, {"size": "32"}, {"size": "64"}]}}}, "dtype": {"type": "DT_FLOAT"}}}, {"name": "StatefulPartitionedCall/Unetpp_16_16_32_64_128_256/up_4_0/strided_slice/stack", "op": "Const", "attr": {"value": {"tensor": {"dtype": "DT_INT32", "tensorShape": {"dim": [{"size": "1"}]}}}, "dtype": {"type": "DT_INT32"}}}, {"name": "StatefulPartitionedCall/Unetpp_16_16_32_64_128_256/up_4_0/strided_slice/stack_1", "op": "Const", "attr": {"value": {"tensor": {"dtype": "DT_INT32", "tensorShape": {"dim": [{"size": "1"}]}}}, "dtype": {"type": "DT_INT32"}}}, {"name": "StatefulPartitionedCall/Unetpp_16_16_32_64_128_256/up_4_0/strided_slice/stack_2", "op": "Const", "attr": {"value": {"tensor": {"dtype": "DT_INT32", "tensorShape": {"dim": [{"size": "1"}]}}}, "dtype": {"type": "DT_INT32"}}}, {"name": "StatefulPartitionedCall/Unetpp_16_16_32_64_128_256/up_4_0/stack/1", "op": "Const", "attr": {"value": {"tensor": {"dtype": "DT_INT32", "tensorShape": {}}}, "dtype": {"type": "DT_INT32"}}}, {"name": "StatefulPartitionedCall/Unetpp_16_16_32_64_128_256/up_4_0/stack/2", "op": "Const", "attr": {"value": {"tensor": {"dtype": "DT_INT32", "tensorShape": {}}}, "dtype": {"type": "DT_INT32"}}}, {"name": "StatefulPartitionedCall/Unetpp_16_16_32_64_128_256/up_4_0/stack/3", "op": "Const", "attr": {"value": {"tensor": {"dtype": "DT_INT32", "tensorShape": {}}}, "dtype": {"type": "DT_INT32"}}}, {"name": "StatefulPartitionedCall/Unetpp_16_16_32_64_128_256/up_4_0/conv2d_transpose/ReadVariableOp", "op": "Const", "attr": {"value": {"tensor": {"dtype": "DT_FLOAT", "tensorShape": {"dim": [{"size": "2"}, {"size": "2"}, {"size": "64"}, {"size": "128"}]}}}, "dtype": {"type": "DT_FLOAT"}}}, {"name": "StatefulPartitionedCall/Unetpp_16_16_32_64_128_256/up_4_0/BiasAdd/ReadVariableOp", "op": "Const", "attr": {"value": {"tensor": {"dtype": "DT_FLOAT", "tensorShape": {"dim": [{"size": "64"}]}}}, "dtype": {"type": "DT_FLOAT"}}}, {"name": "StatefulPartitionedCall/Unetpp_16_16_32_64_128_256/merge_3_1/concat/axis", "op": "Const", "attr": {"value": {"tensor": {"dtype": "DT_INT32", "tensorShape": {}}}, "dtype": {"type": "DT_INT32"}}}, {"name": "StatefulPartitionedCall/Unetpp_16_16_32_64_128_256/up_4_1/strided_slice/stack", "op": "Const", "attr": {"value": {"tensor": {"dtype": "DT_INT32", "tensorShape": {"dim": [{"size": "1"}]}}}, "dtype": {"type": "DT_INT32"}}}, {"name": "StatefulPartitionedCall/Unetpp_16_16_32_64_128_256/up_4_1/strided_slice/stack_1", "op": "Const", "attr": {"value": {"tensor": {"dtype": "DT_INT32", "tensorShape": {"dim": [{"size": "1"}]}}}, "dtype": {"type": "DT_INT32"}}}, {"name": "StatefulPartitionedCall/Unetpp_16_16_32_64_128_256/up_4_1/strided_slice/stack_2", "op": "Const", "attr": {"value": {"tensor": {"dtype": "DT_INT32", "tensorShape": {"dim": [{"size": "1"}]}}}, "dtype": {"type": "DT_INT32"}}}, {"name": "StatefulPartitionedCall/Unetpp_16_16_32_64_128_256/up_4_1/stack/1", "op": "Const", "attr": {"value": {"tensor": {"dtype": "DT_INT32", "tensorShape": {}}}, "dtype": {"type": "DT_INT32"}}}, {"name": "StatefulPartitionedCall/Unetpp_16_16_32_64_128_256/up_4_1/stack/2", "op": "Const", "attr": {"value": {"tensor": {"dtype": "DT_INT32", "tensorShape": {}}}, "dtype": {"type": "DT_INT32"}}}, {"name": "StatefulPartitionedCall/Unetpp_16_16_32_64_128_256/up_4_1/stack/3", "op": "Const", "attr": {"value": {"tensor": {"dtype": "DT_INT32", "tensorShape": {}}}, "dtype": {"type": "DT_INT32"}}}, {"name": "StatefulPartitionedCall/Unetpp_16_16_32_64_128_256/up_4_1/conv2d_transpose/ReadVariableOp", "op": "Const", "attr": {"value": {"tensor": {"dtype": "DT_FLOAT", "tensorShape": {"dim": [{"size": "2"}, {"size": "2"}, {"size": "64"}, {"size": "128"}]}}}, "dtype": {"type": "DT_FLOAT"}}}, {"name": "StatefulPartitionedCall/Unetpp_16_16_32_64_128_256/up_5_0/strided_slice/stack", "op": "Const", "attr": {"value": {"tensor": {"dtype": "DT_INT32", "tensorShape": {"dim": [{"size": "1"}]}}}, "dtype": {"type": "DT_INT32"}}}, {"name": "StatefulPartitionedCall/Unetpp_16_16_32_64_128_256/up_5_0/strided_slice/stack_1", "op": "Const", "attr": {"value": {"tensor": {"dtype": "DT_INT32", "tensorShape": {"dim": [{"size": "1"}]}}}, "dtype": {"type": "DT_INT32"}}}, {"name": "StatefulPartitionedCall/Unetpp_16_16_32_64_128_256/up_5_0/strided_slice/stack_2", "op": "Const", "attr": {"value": {"tensor": {"dtype": "DT_INT32", "tensorShape": {"dim": [{"size": "1"}]}}}, "dtype": {"type": "DT_INT32"}}}, {"name": "StatefulPartitionedCall/Unetpp_16_16_32_64_128_256/up_5_0/stack/1", "op": "Const", "attr": {"value": {"tensor": {"dtype": "DT_INT32", "tensorShape": {}}}, "dtype": {"type": "DT_INT32"}}}, {"name": "StatefulPartitionedCall/Unetpp_16_16_32_64_128_256/up_5_0/stack/2", "op": "Const", "attr": {"value": {"tensor": {"dtype": "DT_INT32", "tensorShape": {}}}, "dtype": {"type": "DT_INT32"}}}, {"name": "StatefulPartitionedCall/Unetpp_16_16_32_64_128_256/up_5_0/stack/3", "op": "Const", "attr": {"value": {"tensor": {"dtype": "DT_INT32", "tensorShape": {}}}, "dtype": {"type": "DT_INT32"}}}, {"name": "StatefulPartitionedCall/Unetpp_16_16_32_64_128_256/up_5_0/conv2d_transpose/ReadVariableOp", "op": "Const", "attr": {"value": {"tensor": {"dtype": "DT_FLOAT", "tensorShape": {"dim": [{"size": "2"}, {"size": "2"}, {"size": "128"}, {"size": "256"}]}}}, "dtype": {"type": "DT_FLOAT"}}}, {"name": "StatefulPartitionedCall/Unetpp_16_16_32_64_128_256/up_5_0/BiasAdd/ReadVariableOp", "op": "Const", "attr": {"value": {"tensor": {"dtype": "DT_FLOAT", "tensorShape": {"dim": [{"size": "128"}]}}}, "dtype": {"type": "DT_FLOAT"}}}, {"name": "StatefulPartitionedCall/Unetpp_16_16_32_64_128_256/merge_4_1/concat/axis", "op": "Const", "attr": {"value": {"tensor": {"dtype": "DT_INT32", "tensorShape": {}}}, "dtype": {"type": "DT_INT32"}}}, {"name": "StatefulPartitionedCall/Unetpp_16_16_32_64_128_256/up_4_1/BiasAdd/ReadVariableOp", "op": "Const", "attr": {"value": {"tensor": {"dtype": "DT_FLOAT", "tensorShape": {"dim": [{"size": "64"}]}}}, "dtype": {"type": "DT_FLOAT"}}}, {"name": "StatefulPartitionedCall/Unetpp_16_16_32_64_128_256/merge_3_2/concat/axis", "op": "Const", "attr": {"value": {"tensor": {"dtype": "DT_INT32", "tensorShape": {}}}, "dtype": {"type": "DT_INT32"}}}, {"name": "StatefulPartitionedCall/Unetpp_16_16_32_64_128_256/up_3_2/BiasAdd/ReadVariableOp", "op": "Const", "attr": {"value": {"tensor": {"dtype": "DT_FLOAT", "tensorShape": {"dim": [{"size": "32"}]}}}, "dtype": {"type": "DT_FLOAT"}}}, {"name": "StatefulPartitionedCall/Unetpp_16_16_32_64_128_256/merge_2_3/concat/axis", "op": "Const", "attr": {"value": {"tensor": {"dtype": "DT_INT32", "tensorShape": {}}}, "dtype": {"type": "DT_INT32"}}}, {"name": "StatefulPartitionedCall/Unetpp_16_16_32_64_128_256/up_2_3/BiasAdd/ReadVariableOp", "op": "Const", "attr": {"value": {"tensor": {"dtype": "DT_FLOAT", "tensorShape": {"dim": [{"size": "16"}]}}}, "dtype": {"type": "DT_FLOAT"}}}, {"name": "StatefulPartitionedCall/Unetpp_16_16_32_64_128_256/merge_1_4/concat/axis", "op": "Const", "attr": {"value": {"tensor": {"dtype": "DT_INT32", "tensorShape": {}}}, "dtype": {"type": "DT_INT32"}}}, {"name": "StatefulPartitionedCall/Unetpp_16_16_32_64_128_256/up_1_4/BiasAdd/ReadVariableOp", "op": "Const", "attr": {"value": {"tensor": {"dtype": "DT_FLOAT", "tensorShape": {"dim": [{"size": "16"}]}}}, "dtype": {"type": "DT_FLOAT"}}}, {"name": "StatefulPartitionedCall/Unetpp_16_16_32_64_128_256/merge_0_5/concat/axis", "op": "Const", "attr": {"value": {"tensor": {"dtype": "DT_INT32", "tensorShape": {}}}, "dtype": {"type": "DT_INT32"}}}, {"name": "StatefulPartitionedCall/Unetpp_16_16_32_64_128_256/segmentation/Conv2D/ReadVariableOp", "op": "Const", "attr": {"value": {"tensor": {"dtype": "DT_FLOAT", "tensorShape": {"dim": [{"size": "1"}, {"size": "1"}, {"size": "16"}, {"size": "1"}]}}}, "dtype": {"type": "DT_FLOAT"}}}, {"name": "StatefulPartitionedCall/Unetpp_16_16_32_64_128_256/segmentation/BiasAdd/ReadVariableOp", "op": "Const", "attr": {"value": {"tensor": {"dtype": "DT_FLOAT", "tensorShape": {"dim": [{"size": "1"}]}}}, "dtype": {"type": "DT_FLOAT"}}}, {"name": "input_2", "op": "Placeholder", "attr": {"shape": {"shape": {"dim": [{"size": "-1"}, {"size": "224"}, {"size": "224"}, {"size": "3"}]}}, "dtype": {"type": "DT_FLOAT"}}}, {"name": "StatefulPartitionedCall/Unetpp_16_16_32_64_128_256/x_0_0_a_conv/Conv2D_weights", "op": "Const", "attr": {"value": {"tensor": {"dtype": "DT_FLOAT", "tensorShape": {"dim": [{"size": "3"}, {"size": "3"}, {"size": "3"}, {"size": "16"}]}}}, "dtype": {"type": "DT_FLOAT"}}}, {"name": "StatefulPartitionedCall/Unetpp_16_16_32_64_128_256/x_0_0_a_conv/Conv2D_bn_offset", "op": "Const", "attr": {"value": {"tensor": {"dtype": "DT_FLOAT", "tensorShape": {"dim": [{"size": "16"}]}}}, "dtype": {"type": "DT_FLOAT"}}}, {"name": "StatefulPartitionedCall/Unetpp_16_16_32_64_128_256/x_3_2_b_conv/Conv2D_bn_offset", "op": "Const", "attr": {"value": {"tensor": {"dtype": "DT_FLOAT", "tensorShape": {"dim": [{"size": "64"}]}}}, "dtype": {"type": "DT_FLOAT"}}}, {"name": "StatefulPartitionedCall/Unetpp_16_16_32_64_128_256/x_0_0_b_conv/Conv2D_weights", "op": "Const", "attr": {"value": {"tensor": {"dtype": "DT_FLOAT", "tensorShape": {"dim": [{"size": "3"}, {"size": "3"}, {"size": "16"}, {"size": "16"}]}}}, "dtype": {"type": "DT_FLOAT"}}}, {"name": "StatefulPartitionedCall/Unetpp_16_16_32_64_128_256/x_0_0_b_conv/Conv2D_bn_offset", "op": "Const", "attr": {"value": {"tensor": {"dtype": "DT_FLOAT", "tensorShape": {"dim": [{"size": "16"}]}}}, "dtype": {"type": "DT_FLOAT"}}}, {"name": "StatefulPartitionedCall/Unetpp_16_16_32_64_128_256/x_1_0_a_conv/Conv2D_weights", "op": "Const", "attr": {"value": {"tensor": {"dtype": "DT_FLOAT", "tensorShape": {"dim": [{"size": "3"}, {"size": "3"}, {"size": "16"}, {"size": "16"}]}}}, "dtype": {"type": "DT_FLOAT"}}}, {"name": "StatefulPartitionedCall/Unetpp_16_16_32_64_128_256/x_1_0_a_conv/Conv2D_bn_offset", "op": "Const", "attr": {"value": {"tensor": {"dtype": "DT_FLOAT", "tensorShape": {"dim": [{"size": "16"}]}}}, "dtype": {"type": "DT_FLOAT"}}}, {"name": "StatefulPartitionedCall/Unetpp_16_16_32_64_128_256/x_1_0_b_conv/Conv2D_weights", "op": "Const", "attr": {"value": {"tensor": {"dtype": "DT_FLOAT", "tensorShape": {"dim": [{"size": "3"}, {"size": "3"}, {"size": "16"}, {"size": "16"}]}}}, "dtype": {"type": "DT_FLOAT"}}}, {"name": "StatefulPartitionedCall/Unetpp_16_16_32_64_128_256/x_1_0_b_conv/Conv2D_bn_offset", "op": "Const", "attr": {"value": {"tensor": {"dtype": "DT_FLOAT", "tensorShape": {"dim": [{"size": "16"}]}}}, "dtype": {"type": "DT_FLOAT"}}}, {"name": "StatefulPartitionedCall/Unetpp_16_16_32_64_128_256/x_2_0_a_conv/Conv2D_weights", "op": "Const", "attr": {"value": {"tensor": {"dtype": "DT_FLOAT", "tensorShape": {"dim": [{"size": "3"}, {"size": "3"}, {"size": "16"}, {"size": "32"}]}}}, "dtype": {"type": "DT_FLOAT"}}}, {"name": "StatefulPartitionedCall/Unetpp_16_16_32_64_128_256/x_2_0_a_conv/Conv2D_bn_offset", "op": "Const", "attr": {"value": {"tensor": {"dtype": "DT_FLOAT", "tensorShape": {"dim": [{"size": "32"}]}}}, "dtype": {"type": "DT_FLOAT"}}}, {"name": "StatefulPartitionedCall/Unetpp_16_16_32_64_128_256/x_2_0_b_conv/Conv2D_weights", "op": "Const", "attr": {"value": {"tensor": {"dtype": "DT_FLOAT", "tensorShape": {"dim": [{"size": "3"}, {"size": "3"}, {"size": "32"}, {"size": "32"}]}}}, "dtype": {"type": "DT_FLOAT"}}}, {"name": "StatefulPartitionedCall/Unetpp_16_16_32_64_128_256/x_1_3_a_conv/Conv2D_weights", "op": "Const", "attr": {"value": {"tensor": {"dtype": "DT_FLOAT", "tensorShape": {"dim": [{"size": "3"}, {"size": "3"}, {"size": "64"}, {"size": "16"}]}}}, "dtype": {"type": "DT_FLOAT"}}}, {"name": "StatefulPartitionedCall/Unetpp_16_16_32_64_128_256/x_2_0_b_conv/Conv2D_bn_offset", "op": "Const", "attr": {"value": {"tensor": {"dtype": "DT_FLOAT", "tensorShape": {"dim": [{"size": "32"}]}}}, "dtype": {"type": "DT_FLOAT"}}}, {"name": "StatefulPartitionedCall/Unetpp_16_16_32_64_128_256/x_0_1_a_conv/Conv2D_weights", "op": "Const", "attr": {"value": {"tensor": {"dtype": "DT_FLOAT", "tensorShape": {"dim": [{"size": "3"}, {"size": "3"}, {"size": "32"}, {"size": "16"}]}}}, "dtype": {"type": "DT_FLOAT"}}}, {"name": "StatefulPartitionedCall/Unetpp_16_16_32_64_128_256/x_1_3_a_conv/Conv2D_bn_offset", "op": "Const", "attr": {"value": {"tensor": {"dtype": "DT_FLOAT", "tensorShape": {"dim": [{"size": "16"}]}}}, "dtype": {"type": "DT_FLOAT"}}}, {"name": "StatefulPartitionedCall/Unetpp_16_16_32_64_128_256/x_0_1_a_conv/Conv2D_bn_offset", "op": "Const", "attr": {"value": {"tensor": {"dtype": "DT_FLOAT", "tensorShape": {"dim": [{"size": "16"}]}}}, "dtype": {"type": "DT_FLOAT"}}}, {"name": "StatefulPartitionedCall/Unetpp_16_16_32_64_128_256/x_3_0_a_conv/Conv2D_weights", "op": "Const", "attr": {"value": {"tensor": {"dtype": "DT_FLOAT", "tensorShape": {"dim": [{"size": "3"}, {"size": "3"}, {"size": "32"}, {"size": "64"}]}}}, "dtype": {"type": "DT_FLOAT"}}}, {"name": "StatefulPartitionedCall/Unetpp_16_16_32_64_128_256/x_3_0_a_conv/Conv2D_bn_offset", "op": "Const", "attr": {"value": {"tensor": {"dtype": "DT_FLOAT", "tensorShape": {"dim": [{"size": "64"}]}}}, "dtype": {"type": "DT_FLOAT"}}}, {"name": "StatefulPartitionedCall/Unetpp_16_16_32_64_128_256/x_1_3_b_conv/Conv2D_weights", "op": "Const", "attr": {"value": {"tensor": {"dtype": "DT_FLOAT", "tensorShape": {"dim": [{"size": "3"}, {"size": "3"}, {"size": "16"}, {"size": "16"}]}}}, "dtype": {"type": "DT_FLOAT"}}}, {"name": "StatefulPartitionedCall/Unetpp_16_16_32_64_128_256/x_0_1_b_conv/Conv2D_weights", "op": "Const", "attr": {"value": {"tensor": {"dtype": "DT_FLOAT", "tensorShape": {"dim": [{"size": "3"}, {"size": "3"}, {"size": "16"}, {"size": "16"}]}}}, "dtype": {"type": "DT_FLOAT"}}}, {"name": "StatefulPartitionedCall/Unetpp_16_16_32_64_128_256/x_0_1_b_conv/Conv2D_bn_offset", "op": "Const", "attr": {"value": {"tensor": {"dtype": "DT_FLOAT", "tensorShape": {"dim": [{"size": "16"}]}}}, "dtype": {"type": "DT_FLOAT"}}}, {"name": "StatefulPartitionedCall/Unetpp_16_16_32_64_128_256/x_1_3_b_conv/Conv2D_bn_offset", "op": "Const", "attr": {"value": {"tensor": {"dtype": "DT_FLOAT", "tensorShape": {"dim": [{"size": "16"}]}}}, "dtype": {"type": "DT_FLOAT"}}}, {"name": "StatefulPartitionedCall/Unetpp_16_16_32_64_128_256/x_3_0_b_conv/Conv2D_weights", "op": "Const", "attr": {"value": {"tensor": {"dtype": "DT_FLOAT", "tensorShape": {"dim": [{"size": "3"}, {"size": "3"}, {"size": "64"}, {"size": "64"}]}}}, "dtype": {"type": "DT_FLOAT"}}}, {"name": "StatefulPartitionedCall/Unetpp_16_16_32_64_128_256/x_3_0_b_conv/Conv2D_bn_offset", "op": "Const", "attr": {"value": {"tensor": {"dtype": "DT_FLOAT", "tensorShape": {"dim": [{"size": "64"}]}}}, "dtype": {"type": "DT_FLOAT"}}}, {"name": "StatefulPartitionedCall/Unetpp_16_16_32_64_128_256/x_1_1_a_conv/Conv2D_weights", "op": "Const", "attr": {"value": {"tensor": {"dtype": "DT_FLOAT", "tensorShape": {"dim": [{"size": "3"}, {"size": "3"}, {"size": "32"}, {"size": "16"}]}}}, "dtype": {"type": "DT_FLOAT"}}}, {"name": "StatefulPartitionedCall/Unetpp_16_16_32_64_128_256/x_1_1_a_conv/Conv2D_bn_offset", "op": "Const", "attr": {"value": {"tensor": {"dtype": "DT_FLOAT", "tensorShape": {"dim": [{"size": "16"}]}}}, "dtype": {"type": "DT_FLOAT"}}}, {"name": "StatefulPartitionedCall/Unetpp_16_16_32_64_128_256/x_4_0_a_conv/Conv2D_weights", "op": "Const", "attr": {"value": {"tensor": {"dtype": "DT_FLOAT", "tensorShape": {"dim": [{"size": "3"}, {"size": "3"}, {"size": "64"}, {"size": "128"}]}}}, "dtype": {"type": "DT_FLOAT"}}}, {"name": "StatefulPartitionedCall/Unetpp_16_16_32_64_128_256/x_4_0_a_conv/Conv2D_bn_offset", "op": "Const", "attr": {"value": {"tensor": {"dtype": "DT_FLOAT", "tensorShape": {"dim": [{"size": "128"}]}}}, "dtype": {"type": "DT_FLOAT"}}}, {"name": "StatefulPartitionedCall/Unetpp_16_16_32_64_128_256/x_1_1_b_conv/Conv2D_weights", "op": "Const", "attr": {"value": {"tensor": {"dtype": "DT_FLOAT", "tensorShape": {"dim": [{"size": "3"}, {"size": "3"}, {"size": "16"}, {"size": "16"}]}}}, "dtype": {"type": "DT_FLOAT"}}}, {"name": "StatefulPartitionedCall/Unetpp_16_16_32_64_128_256/x_1_1_b_conv/Conv2D_bn_offset", "op": "Const", "attr": {"value": {"tensor": {"dtype": "DT_FLOAT", "tensorShape": {"dim": [{"size": "16"}]}}}, "dtype": {"type": "DT_FLOAT"}}}, {"name": "StatefulPartitionedCall/Unetpp_16_16_32_64_128_256/x_4_0_b_conv/Conv2D_weights", "op": "Const", "attr": {"value": {"tensor": {"dtype": "DT_FLOAT", "tensorShape": {"dim": [{"size": "3"}, {"size": "3"}, {"size": "128"}, {"size": "128"}]}}}, "dtype": {"type": "DT_FLOAT"}}}, {"name": "StatefulPartitionedCall/Unetpp_16_16_32_64_128_256/x_2_3_a_conv/Conv2D_weights", "op": "Const", "attr": {"value": {"tensor": {"dtype": "DT_FLOAT", "tensorShape": {"dim": [{"size": "3"}, {"size": "3"}, {"size": "128"}, {"size": "32"}]}}}, "dtype": {"type": "DT_FLOAT"}}}, {"name": "StatefulPartitionedCall/Unetpp_16_16_32_64_128_256/x_4_0_b_conv/Conv2D_bn_offset", "op": "Const", "attr": {"value": {"tensor": {"dtype": "DT_FLOAT", "tensorShape": {"dim": [{"size": "128"}]}}}, "dtype": {"type": "DT_FLOAT"}}}, {"name": "StatefulPartitionedCall/Unetpp_16_16_32_64_128_256/x_0_5_a_conv/Conv2D_weights", "op": "Const", "attr": {"value": {"tensor": {"dtype": "DT_FLOAT", "tensorShape": {"dim": [{"size": "3"}, {"size": "3"}, {"size": "96"}, {"size": "16"}]}}}, "dtype": {"type": "DT_FLOAT"}}}, {"name": "StatefulPartitionedCall/Unetpp_16_16_32_64_128_256/x_2_1_a_conv/Conv2D_weights", "op": "Const", "attr": {"value": {"tensor": {"dtype": "DT_FLOAT", "tensorShape": {"dim": [{"size": "3"}, {"size": "3"}, {"size": "64"}, {"size": "32"}]}}}, "dtype": {"type": "DT_FLOAT"}}}, {"name": "StatefulPartitionedCall/Unetpp_16_16_32_64_128_256/x_2_3_a_conv/Conv2D_bn_offset", "op": "Const", "attr": {"value": {"tensor": {"dtype": "DT_FLOAT", "tensorShape": {"dim": [{"size": "32"}]}}}, "dtype": {"type": "DT_FLOAT"}}}, {"name": "StatefulPartitionedCall/Unetpp_16_16_32_64_128_256/x_2_1_a_conv/Conv2D_bn_offset", "op": "Const", "attr": {"value": {"tensor": {"dtype": "DT_FLOAT", "tensorShape": {"dim": [{"size": "32"}]}}}, "dtype": {"type": "DT_FLOAT"}}}, {"name": "StatefulPartitionedCall/Unetpp_16_16_32_64_128_256/x_5_0_a_conv/Conv2D_weights", "op": "Const", "attr": {"value": {"tensor": {"dtype": "DT_FLOAT", "tensorShape": {"dim": [{"size": "3"}, {"size": "3"}, {"size": "128"}, {"size": "256"}]}}}, "dtype": {"type": "DT_FLOAT"}}}, {"name": "StatefulPartitionedCall/Unetpp_16_16_32_64_128_256/x_5_0_a_conv/Conv2D_bn_offset", "op": "Const", "attr": {"value": {"tensor": {"dtype": "DT_FLOAT", "tensorShape": {"dim": [{"size": "256"}]}}}, "dtype": {"type": "DT_FLOAT"}}}, {"name": "StatefulPartitionedCall/Unetpp_16_16_32_64_128_256/x_2_3_b_conv/Conv2D_weights", "op": "Const", "attr": {"value": {"tensor": {"dtype": "DT_FLOAT", "tensorShape": {"dim": [{"size": "3"}, {"size": "3"}, {"size": "32"}, {"size": "32"}]}}}, "dtype": {"type": "DT_FLOAT"}}}, {"name": "StatefulPartitionedCall/Unetpp_16_16_32_64_128_256/x_2_1_b_conv/Conv2D_weights", "op": "Const", "attr": {"value": {"tensor": {"dtype": "DT_FLOAT", "tensorShape": {"dim": [{"size": "3"}, {"size": "3"}, {"size": "32"}, {"size": "32"}]}}}, "dtype": {"type": "DT_FLOAT"}}}, {"name": "StatefulPartitionedCall/Unetpp_16_16_32_64_128_256/x_0_5_a_conv/Conv2D_bn_offset", "op": "Const", "attr": {"value": {"tensor": {"dtype": "DT_FLOAT", "tensorShape": {"dim": [{"size": "16"}]}}}, "dtype": {"type": "DT_FLOAT"}}}, {"name": "StatefulPartitionedCall/Unetpp_16_16_32_64_128_256/x_2_1_b_conv/Conv2D_bn_offset", "op": "Const", "attr": {"value": {"tensor": {"dtype": "DT_FLOAT", "tensorShape": {"dim": [{"size": "32"}]}}}, "dtype": {"type": "DT_FLOAT"}}}, {"name": "StatefulPartitionedCall/Unetpp_16_16_32_64_128_256/x_2_3_b_conv/Conv2D_bn_offset", "op": "Const", "attr": {"value": {"tensor": {"dtype": "DT_FLOAT", "tensorShape": {"dim": [{"size": "32"}]}}}, "dtype": {"type": "DT_FLOAT"}}}, {"name": "StatefulPartitionedCall/Unetpp_16_16_32_64_128_256/x_0_2_a_conv/Conv2D_weights", "op": "Const", "attr": {"value": {"tensor": {"dtype": "DT_FLOAT", "tensorShape": {"dim": [{"size": "3"}, {"size": "3"}, {"size": "48"}, {"size": "16"}]}}}, "dtype": {"type": "DT_FLOAT"}}}, {"name": "StatefulPartitionedCall/Unetpp_16_16_32_64_128_256/x_0_2_a_conv/Conv2D_bn_offset", "op": "Const", "attr": {"value": {"tensor": {"dtype": "DT_FLOAT", "tensorShape": {"dim": [{"size": "16"}]}}}, "dtype": {"type": "DT_FLOAT"}}}, {"name": "StatefulPartitionedCall/Unetpp_16_16_32_64_128_256/x_5_0_b_conv/Conv2D_weights", "op": "Const", "attr": {"value": {"tensor": {"dtype": "DT_FLOAT", "tensorShape": {"dim": [{"size": "3"}, {"size": "3"}, {"size": "256"}, {"size": "256"}]}}}, "dtype": {"type": "DT_FLOAT"}}}, {"name": "StatefulPartitionedCall/Unetpp_16_16_32_64_128_256/x_5_0_b_conv/Conv2D_bn_offset", "op": "Const", "attr": {"value": {"tensor": {"dtype": "DT_FLOAT", "tensorShape": {"dim": [{"size": "256"}]}}}, "dtype": {"type": "DT_FLOAT"}}}, {"name": "StatefulPartitionedCall/Unetpp_16_16_32_64_128_256/x_3_1_a_conv/Conv2D_weights", "op": "Const", "attr": {"value": {"tensor": {"dtype": "DT_FLOAT", "tensorShape": {"dim": [{"size": "3"}, {"size": "3"}, {"size": "128"}, {"size": "64"}]}}}, "dtype": {"type": "DT_FLOAT"}}}, {"name": "StatefulPartitionedCall/Unetpp_16_16_32_64_128_256/x_3_1_a_conv/Conv2D_bn_offset", "op": "Const", "attr": {"value": {"tensor": {"dtype": "DT_FLOAT", "tensorShape": {"dim": [{"size": "64"}]}}}, "dtype": {"type": "DT_FLOAT"}}}, {"name": "StatefulPartitionedCall/Unetpp_16_16_32_64_128_256/x_0_2_b_conv/Conv2D_weights", "op": "Const", "attr": {"value": {"tensor": {"dtype": "DT_FLOAT", "tensorShape": {"dim": [{"size": "3"}, {"size": "3"}, {"size": "16"}, {"size": "16"}]}}}, "dtype": {"type": "DT_FLOAT"}}}, {"name": "StatefulPartitionedCall/Unetpp_16_16_32_64_128_256/x_0_2_b_conv/Conv2D_bn_offset", "op": "Const", "attr": {"value": {"tensor": {"dtype": "DT_FLOAT", "tensorShape": {"dim": [{"size": "16"}]}}}, "dtype": {"type": "DT_FLOAT"}}}, {"name": "StatefulPartitionedCall/Unetpp_16_16_32_64_128_256/x_3_1_b_conv/Conv2D_weights", "op": "Const", "attr": {"value": {"tensor": {"dtype": "DT_FLOAT", "tensorShape": {"dim": [{"size": "3"}, {"size": "3"}, {"size": "64"}, {"size": "64"}]}}}, "dtype": {"type": "DT_FLOAT"}}}, {"name": "StatefulPartitionedCall/Unetpp_16_16_32_64_128_256/x_0_4_a_conv/Conv2D_weights", "op": "Const", "attr": {"value": {"tensor": {"dtype": "DT_FLOAT", "tensorShape": {"dim": [{"size": "3"}, {"size": "3"}, {"size": "80"}, {"size": "16"}]}}}, "dtype": {"type": "DT_FLOAT"}}}, {"name": "StatefulPartitionedCall/Unetpp_16_16_32_64_128_256/x_3_1_b_conv/Conv2D_bn_offset", "op": "Const", "attr": {"value": {"tensor": {"dtype": "DT_FLOAT", "tensorShape": {"dim": [{"size": "64"}]}}}, "dtype": {"type": "DT_FLOAT"}}}, {"name": "StatefulPartitionedCall/Unetpp_16_16_32_64_128_256/x_1_2_a_conv/Conv2D_weights", "op": "Const", "attr": {"value": {"tensor": {"dtype": "DT_FLOAT", "tensorShape": {"dim": [{"size": "3"}, {"size": "3"}, {"size": "48"}, {"size": "16"}]}}}, "dtype": {"type": "DT_FLOAT"}}}, {"name": "StatefulPartitionedCall/Unetpp_16_16_32_64_128_256/x_0_4_a_conv/Conv2D_bn_offset", "op": "Const", "attr": {"value": {"tensor": {"dtype": "DT_FLOAT", "tensorShape": {"dim": [{"size": "16"}]}}}, "dtype": {"type": "DT_FLOAT"}}}, {"name": "StatefulPartitionedCall/Unetpp_16_16_32_64_128_256/x_1_2_a_conv/Conv2D_bn_offset", "op": "Const", "attr": {"value": {"tensor": {"dtype": "DT_FLOAT", "tensorShape": {"dim": [{"size": "16"}]}}}, "dtype": {"type": "DT_FLOAT"}}}, {"name": "StatefulPartitionedCall/Unetpp_16_16_32_64_128_256/x_0_5_b_conv/Conv2D_weights", "op": "Const", "attr": {"value": {"tensor": {"dtype": "DT_FLOAT", "tensorShape": {"dim": [{"size": "3"}, {"size": "3"}, {"size": "16"}, {"size": "16"}]}}}, "dtype": {"type": "DT_FLOAT"}}}, {"name": "StatefulPartitionedCall/Unetpp_16_16_32_64_128_256/x_4_1_a_conv/Conv2D_weights", "op": "Const", "attr": {"value": {"tensor": {"dtype": "DT_FLOAT", "tensorShape": {"dim": [{"size": "3"}, {"size": "3"}, {"size": "256"}, {"size": "128"}]}}}, "dtype": {"type": "DT_FLOAT"}}}, {"name": "StatefulPartitionedCall/Unetpp_16_16_32_64_128_256/x_4_1_a_conv/Conv2D_bn_offset", "op": "Const", "attr": {"value": {"tensor": {"dtype": "DT_FLOAT", "tensorShape": {"dim": [{"size": "128"}]}}}, "dtype": {"type": "DT_FLOAT"}}}, {"name": "StatefulPartitionedCall/Unetpp_16_16_32_64_128_256/x_0_4_b_conv/Conv2D_weights", "op": "Const", "attr": {"value": {"tensor": {"dtype": "DT_FLOAT", "tensorShape": {"dim": [{"size": "3"}, {"size": "3"}, {"size": "16"}, {"size": "16"}]}}}, "dtype": {"type": "DT_FLOAT"}}}, {"name": "StatefulPartitionedCall/Unetpp_16_16_32_64_128_256/x_1_2_b_conv/Conv2D_weights", "op": "Const", "attr": {"value": {"tensor": {"dtype": "DT_FLOAT", "tensorShape": {"dim": [{"size": "3"}, {"size": "3"}, {"size": "16"}, {"size": "16"}]}}}, "dtype": {"type": "DT_FLOAT"}}}, {"name": "StatefulPartitionedCall/Unetpp_16_16_32_64_128_256/x_1_2_b_conv/Conv2D_bn_offset", "op": "Const", "attr": {"value": {"tensor": {"dtype": "DT_FLOAT", "tensorShape": {"dim": [{"size": "16"}]}}}, "dtype": {"type": "DT_FLOAT"}}}, {"name": "StatefulPartitionedCall/Unetpp_16_16_32_64_128_256/x_0_4_b_conv/Conv2D_bn_offset", "op": "Const", "attr": {"value": {"tensor": {"dtype": "DT_FLOAT", "tensorShape": {"dim": [{"size": "16"}]}}}, "dtype": {"type": "DT_FLOAT"}}}, {"name": "StatefulPartitionedCall/Unetpp_16_16_32_64_128_256/x_4_1_b_conv/Conv2D_weights", "op": "Const", "attr": {"value": {"tensor": {"dtype": "DT_FLOAT", "tensorShape": {"dim": [{"size": "3"}, {"size": "3"}, {"size": "128"}, {"size": "128"}]}}}, "dtype": {"type": "DT_FLOAT"}}}, {"name": "StatefulPartitionedCall/Unetpp_16_16_32_64_128_256/x_0_5_b_conv/Conv2D_bn_offset", "op": "Const", "attr": {"value": {"tensor": {"dtype": "DT_FLOAT", "tensorShape": {"dim": [{"size": "16"}]}}}, "dtype": {"type": "DT_FLOAT"}}}, {"name": "StatefulPartitionedCall/Unetpp_16_16_32_64_128_256/x_4_1_b_conv/Conv2D_bn_offset", "op": "Const", "attr": {"value": {"tensor": {"dtype": "DT_FLOAT", "tensorShape": {"dim": [{"size": "128"}]}}}, "dtype": {"type": "DT_FLOAT"}}}, {"name": "StatefulPartitionedCall/Unetpp_16_16_32_64_128_256/x_2_2_a_conv/Conv2D_weights", "op": "Const", "attr": {"value": {"tensor": {"dtype": "DT_FLOAT", "tensorShape": {"dim": [{"size": "3"}, {"size": "3"}, {"size": "96"}, {"size": "32"}]}}}, "dtype": {"type": "DT_FLOAT"}}}, {"name": "StatefulPartitionedCall/Unetpp_16_16_32_64_128_256/x_1_4_a_conv/Conv2D_weights", "op": "Const", "attr": {"value": {"tensor": {"dtype": "DT_FLOAT", "tensorShape": {"dim": [{"size": "3"}, {"size": "3"}, {"size": "80"}, {"size": "16"}]}}}, "dtype": {"type": "DT_FLOAT"}}}, {"name": "StatefulPartitionedCall/Unetpp_16_16_32_64_128_256/x_2_2_a_conv/Conv2D_bn_offset", "op": "Const", "attr": {"value": {"tensor": {"dtype": "DT_FLOAT", "tensorShape": {"dim": [{"size": "32"}]}}}, "dtype": {"type": "DT_FLOAT"}}}, {"name": "StatefulPartitionedCall/Unetpp_16_16_32_64_128_256/x_2_2_b_conv/Conv2D_weights", "op": "Const", "attr": {"value": {"tensor": {"dtype": "DT_FLOAT", "tensorShape": {"dim": [{"size": "3"}, {"size": "3"}, {"size": "32"}, {"size": "32"}]}}}, "dtype": {"type": "DT_FLOAT"}}}, {"name": "StatefulPartitionedCall/Unetpp_16_16_32_64_128_256/x_1_4_a_conv/Conv2D_bn_offset", "op": "Const", "attr": {"value": {"tensor": {"dtype": "DT_FLOAT", "tensorShape": {"dim": [{"size": "16"}]}}}, "dtype": {"type": "DT_FLOAT"}}}, {"name": "StatefulPartitionedCall/Unetpp_16_16_32_64_128_256/x_2_2_b_conv/Conv2D_bn_offset", "op": "Const", "attr": {"value": {"tensor": {"dtype": "DT_FLOAT", "tensorShape": {"dim": [{"size": "32"}]}}}, "dtype": {"type": "DT_FLOAT"}}}, {"name": "StatefulPartitionedCall/Unetpp_16_16_32_64_128_256/x_0_3_a_conv/Conv2D_weights", "op": "Const", "attr": {"value": {"tensor": {"dtype": "DT_FLOAT", "tensorShape": {"dim": [{"size": "3"}, {"size": "3"}, {"size": "64"}, {"size": "16"}]}}}, "dtype": {"type": "DT_FLOAT"}}}, {"name": "StatefulPartitionedCall/Unetpp_16_16_32_64_128_256/x_0_3_a_conv/Conv2D_bn_offset", "op": "Const", "attr": {"value": {"tensor": {"dtype": "DT_FLOAT", "tensorShape": {"dim": [{"size": "16"}]}}}, "dtype": {"type": "DT_FLOAT"}}}, {"name": "StatefulPartitionedCall/Unetpp_16_16_32_64_128_256/x_1_4_b_conv/Conv2D_weights", "op": "Const", "attr": {"value": {"tensor": {"dtype": "DT_FLOAT", "tensorShape": {"dim": [{"size": "3"}, {"size": "3"}, {"size": "16"}, {"size": "16"}]}}}, "dtype": {"type": "DT_FLOAT"}}}, {"name": "StatefulPartitionedCall/Unetpp_16_16_32_64_128_256/x_3_2_a_conv/Conv2D_weights", "op": "Const", "attr": {"value": {"tensor": {"dtype": "DT_FLOAT", "tensorShape": {"dim": [{"size": "3"}, {"size": "3"}, {"size": "192"}, {"size": "64"}]}}}, "dtype": {"type": "DT_FLOAT"}}}, {"name": "StatefulPartitionedCall/Unetpp_16_16_32_64_128_256/x_3_2_a_conv/Conv2D_bn_offset", "op": "Const", "attr": {"value": {"tensor": {"dtype": "DT_FLOAT", "tensorShape": {"dim": [{"size": "64"}]}}}, "dtype": {"type": "DT_FLOAT"}}}, {"name": "StatefulPartitionedCall/Unetpp_16_16_32_64_128_256/x_1_4_b_conv/Conv2D_bn_offset", "op": "Const", "attr": {"value": {"tensor": {"dtype": "DT_FLOAT", "tensorShape": {"dim": [{"size": "16"}]}}}, "dtype": {"type": "DT_FLOAT"}}}, {"name": "StatefulPartitionedCall/Unetpp_16_16_32_64_128_256/x_0_3_b_conv/Conv2D_weights", "op": "Const", "attr": {"value": {"tensor": {"dtype": "DT_FLOAT", "tensorShape": {"dim": [{"size": "3"}, {"size": "3"}, {"size": "16"}, {"size": "16"}]}}}, "dtype": {"type": "DT_FLOAT"}}}, {"name": "StatefulPartitionedCall/Unetpp_16_16_32_64_128_256/x_0_3_b_conv/Conv2D_bn_offset", "op": "Const", "attr": {"value": {"tensor": {"dtype": "DT_FLOAT", "tensorShape": {"dim": [{"size": "16"}]}}}, "dtype": {"type": "DT_FLOAT"}}}, {"name": "StatefulPartitionedCall/Unetpp_16_16_32_64_128_256/x_3_2_b_conv/Conv2D_weights", "op": "Const", "attr": {"value": {"tensor": {"dtype": "DT_FLOAT", "tensorShape": {"dim": [{"size": "3"}, {"size": "3"}, {"size": "64"}, {"size": "64"}]}}}, "dtype": {"type": "DT_FLOAT"}}}, {"name": "StatefulPartitionedCall/Unetpp_16_16_32_64_128_256/x_0_0_a_act/Relu", "op": "_FusedConv2D", "input": ["input_2", "StatefulPartitionedCall/Unetpp_16_16_32_64_128_256/x_0_0_a_conv/Conv2D_weights", "StatefulPartitionedCall/Unetpp_16_16_32_64_128_256/x_0_0_a_conv/Conv2D_bn_offset"], "device": "/device:CPU:0", "attr": {"num_host_args": {"i": "0"}, "data_format": {"s": "TkhXQw=="}, "filter_format": {"s": "SFdJTw=="}, "_input_shapes": {"list": {"shape": [{"dim": [{"size": "-2"}, {"size": "224"}, {"size": "224"}, {"size": "-28"}]}, {"dim": [{"size": "3"}, {"size": "3"}, {"size": "3"}, {"size": "16"}]}]}}, "strides": {"list": {"i": ["1", "1", "1", "1"]}}, "num_args": {"i": "1"}, "fused_ops": {"list": {"s": ["Qmlhc0FkZA==", "UmVsdQ=="]}}, "TArgs": {"list": {"type": ["DT_FLOAT"]}}, "padding": {"s": "U0FNRQ=="}, "use_cudnn_on_gpu": {"b": true}, "leakyrelu_alpha": {"f": 0.2}, "epsilon": {"f": 0.0}, "T": {"type": "DT_FLOAT"}, "explicit_paddings": {"list": {}}, "dilations": {"list": {"i": ["1", "1", "1", "1"]}}}}, {"name": "StatefulPartitionedCall/Unetpp_16_16_32_64_128_256/x_0_0_b_act/Relu", "op": "_FusedConv2D", "input": ["StatefulPartitionedCall/Unetpp_16_16_32_64_128_256/x_0_0_a_act/Relu", "StatefulPartitionedCall/Unetpp_16_16_32_64_128_256/x_0_0_b_conv/Conv2D_weights", "StatefulPartitionedCall/Unetpp_16_16_32_64_128_256/x_0_0_b_conv/Conv2D_bn_offset"], "device": "/device:CPU:0", "attr": {"num_host_args": {"i": "0"}, "data_format": {"s": "TkhXQw=="}, "filter_format": {"s": "SFdJTw=="}, "_input_shapes": {"list": {"shape": [{"dim": [{"size": "-2"}, {"size": "224"}, {"size": "224"}, {"size": "16"}]}, {"dim": [{"size": "3"}, {"size": "3"}, {"size": "16"}, {"size": "16"}]}]}}, "strides": {"list": {"i": ["1", "1", "1", "1"]}}, "num_args": {"i": "1"}, "fused_ops": {"list": {"s": ["Qmlhc0FkZA==", "UmVsdQ=="]}}, "TArgs": {"list": {"type": ["DT_FLOAT"]}}, "padding": {"s": "U0FNRQ=="}, "use_cudnn_on_gpu": {"b": true}, "leakyrelu_alpha": {"f": 0.2}, "epsilon": {"f": 0.0}, "T": {"type": "DT_FLOAT"}, "explicit_paddings": {"list": {}}, "dilations": {"list": {"i": ["1", "1", "1", "1"]}}}}, {"name": "StatefulPartitionedCall/Unetpp_16_16_32_64_128_256/maxpool/MaxPool", "op": "MaxPool", "input": ["StatefulPartitionedCall/Unetpp_16_16_32_64_128_256/x_0_0_b_act/Relu"], "attr": {"ksize": {"list": {"i": ["1", "2", "2", "1"]}}, "data_format": {"s": "TkhXQw=="}, "T": {"type": "DT_FLOAT"}, "explicit_paddings": {"list": {}}, "padding": {"s": "U0FNRQ=="}, "strides": {"list": {"i": ["1", "2", "2", "1"]}}}}, {"name": "StatefulPartitionedCall/Unetpp_16_16_32_64_128_256/x_1_0_a_act/Relu", "op": "_FusedConv2D", "input": ["StatefulPartitionedCall/Unetpp_16_16_32_64_128_256/maxpool/MaxPool", "StatefulPartitionedCall/Unetpp_16_16_32_64_128_256/x_1_0_a_conv/Conv2D_weights", "StatefulPartitionedCall/Unetpp_16_16_32_64_128_256/x_1_0_a_conv/Conv2D_bn_offset"], "device": "/device:CPU:0", "attr": {"num_host_args": {"i": "0"}, "data_format": {"s": "TkhXQw=="}, "filter_format": {"s": "SFdJTw=="}, "_input_shapes": {"list": {"shape": [{"dim": [{"size": "-2"}, {"size": "112"}, {"size": "112"}, {"size": "16"}]}, {"dim": [{"size": "3"}, {"size": "3"}, {"size": "16"}, {"size": "16"}]}]}}, "strides": {"list": {"i": ["1", "1", "1", "1"]}}, "num_args": {"i": "1"}, "fused_ops": {"list": {"s": ["Qmlhc0FkZA==", "UmVsdQ=="]}}, "TArgs": {"list": {"type": ["DT_FLOAT"]}}, "padding": {"s": "U0FNRQ=="}, "use_cudnn_on_gpu": {"b": true}, "leakyrelu_alpha": {"f": 0.2}, "epsilon": {"f": 0.0}, "T": {"type": "DT_FLOAT"}, "explicit_paddings": {"list": {}}, "dilations": {"list": {"i": ["1", "1", "1", "1"]}}}}, {"name": "StatefulPartitionedCall/Unetpp_16_16_32_64_128_256/x_1_0_b_act/Relu", "op": "_FusedConv2D", "input": ["StatefulPartitionedCall/Unetpp_16_16_32_64_128_256/x_1_0_a_act/Relu", "StatefulPartitionedCall/Unetpp_16_16_32_64_128_256/x_1_0_b_conv/Conv2D_weights", "StatefulPartitionedCall/Unetpp_16_16_32_64_128_256/x_1_0_b_conv/Conv2D_bn_offset"], "device": "/device:CPU:0", "attr": {"num_host_args": {"i": "0"}, "data_format": {"s": "TkhXQw=="}, "filter_format": {"s": "SFdJTw=="}, "_input_shapes": {"list": {"shape": [{"dim": [{"size": "-2"}, {"size": "112"}, {"size": "112"}, {"size": "16"}]}, {"dim": [{"size": "3"}, {"size": "3"}, {"size": "16"}, {"size": "16"}]}]}}, "strides": {"list": {"i": ["1", "1", "1", "1"]}}, "num_args": {"i": "1"}, "fused_ops": {"list": {"s": ["Qmlhc0FkZA==", "UmVsdQ=="]}}, "TArgs": {"list": {"type": ["DT_FLOAT"]}}, "padding": {"s": "U0FNRQ=="}, "use_cudnn_on_gpu": {"b": true}, "leakyrelu_alpha": {"f": 0.2}, "epsilon": {"f": 0.0}, "T": {"type": "DT_FLOAT"}, "explicit_paddings": {"list": {}}, "dilations": {"list": {"i": ["1", "1", "1", "1"]}}}}, {"name": "StatefulPartitionedCall/Unetpp_16_16_32_64_128_256/up_1_0/Shape", "op": "Shape", "input": ["StatefulPartitionedCall/Unetpp_16_16_32_64_128_256/x_1_0_b_act/Relu"], "attr": {"T": {"type": "DT_FLOAT"}, "out_type": {"type": "DT_INT32"}}, "experimentalType": {"typeId": "TFT_PRODUCT", "args": [{"typeId": "TFT_SHAPE_TENSOR", "args": [{"typeId": "TFT_INT32"}]}]}}, {"name": "StatefulPartitionedCall/Unetpp_16_16_32_64_128_256/maxpool/MaxPool_1", "op": "MaxPool", "input": ["StatefulPartitionedCall/Unetpp_16_16_32_64_128_256/x_1_0_b_act/Relu"], "attr": {"ksize": {"list": {"i": ["1", "2", "2", "1"]}}, "data_format": {"s": "TkhXQw=="}, "T": {"type": "DT_FLOAT"}, "explicit_paddings": {"list": {}}, "padding": {"s": "U0FNRQ=="}, "strides": {"list": {"i": ["1", "2", "2", "1"]}}}}, {"name": "StatefulPartitionedCall/Unetpp_16_16_32_64_128_256/up_1_0/strided_slice", "op": "StridedSlice", "input": ["StatefulPartitionedCall/Unetpp_16_16_32_64_128_256/up_1_0/Shape", "StatefulPartitionedCall/Unetpp_16_16_32_64_128_256/up_1_0/strided_slice/stack", "StatefulPartitionedCall/Unetpp_16_16_32_64_128_256/up_1_0/strided_slice/stack_1", "StatefulPartitionedCall/Unetpp_16_16_32_64_128_256/up_1_0/strided_slice/stack_2"], "attr": {"shrink_axis_mask": {"i": "1"}, "Index": {"type": "DT_INT32"}, "new_axis_mask": {"i": "0"}, "begin_mask": {"i": "0"}, "end_mask": {"i": "0"}, "T": {"type": "DT_INT32"}, "ellipsis_mask": {"i": "0"}}}, {"name": "StatefulPartitionedCall/Unetpp_16_16_32_64_128_256/x_2_0_a_act/Relu", "op": "_FusedConv2D", "input": ["StatefulPartitionedCall/Unetpp_16_16_32_64_128_256/maxpool/MaxPool_1", "StatefulPartitionedCall/Unetpp_16_16_32_64_128_256/x_2_0_a_conv/Conv2D_weights", "StatefulPartitionedCall/Unetpp_16_16_32_64_128_256/x_2_0_a_conv/Conv2D_bn_offset"], "device": "/device:CPU:0", "attr": {"num_host_args": {"i": "0"}, "_input_shapes": {"list": {"shape": [{"dim": [{"size": "-2"}, {"size": "56"}, {"size": "56"}, {"size": "16"}]}, {"dim": [{"size": "3"}, {"size": "3"}, {"size": "16"}, {"size": "32"}]}]}}, "filter_format": {"s": "SFdJTw=="}, "data_format": {"s": "TkhXQw=="}, "strides": {"list": {"i": ["1", "1", "1", "1"]}}, "num_args": {"i": "1"}, "fused_ops": {"list": {"s": ["Qmlhc0FkZA==", "UmVsdQ=="]}}, "TArgs": {"list": {"type": ["DT_FLOAT"]}}, "padding": {"s": "U0FNRQ=="}, "use_cudnn_on_gpu": {"b": true}, "leakyrelu_alpha": {"f": 0.2}, "epsilon": {"f": 0.0}, "T": {"type": "DT_FLOAT"}, "explicit_paddings": {"list": {}}, "dilations": {"list": {"i": ["1", "1", "1", "1"]}}}}, {"name": "StatefulPartitionedCall/Unetpp_16_16_32_64_128_256/up_1_0/stack", "op": "Pack", "input": ["StatefulPartitionedCall/Unetpp_16_16_32_64_128_256/up_1_0/strided_slice", "StatefulPartitionedCall/Unetpp_16_16_32_64_128_256/up_1_0/stack/1", "StatefulPartitionedCall/Unetpp_16_16_32_64_128_256/up_1_0/stack/2", "StatefulPartitionedCall/Unetpp_16_16_32_64_128_256/up_1_0/stack/3"], "attr": {"N": {"i": "4"}, "axis": {"i": "0"}, "T": {"type": "DT_INT32"}}}, {"name": "StatefulPartitionedCall/Unetpp_16_16_32_64_128_256/x_2_0_b_act/Relu", "op": "_FusedConv2D", "input": ["StatefulPartitionedCall/Unetpp_16_16_32_64_128_256/x_2_0_a_act/Relu", "StatefulPartitionedCall/Unetpp_16_16_32_64_128_256/x_2_0_b_conv/Conv2D_weights", "StatefulPartitionedCall/Unetpp_16_16_32_64_128_256/x_2_0_b_conv/Conv2D_bn_offset"], "device": "/device:CPU:0", "attr": {"num_host_args": {"i": "0"}, "data_format": {"s": "TkhXQw=="}, "filter_format": {"s": "SFdJTw=="}, "_input_shapes": {"list": {"shape": [{"dim": [{"size": "-2"}, {"size": "56"}, {"size": "56"}, {"size": "32"}]}, {"dim": [{"size": "3"}, {"size": "3"}, {"size": "32"}, {"size": "32"}]}]}}, "strides": {"list": {"i": ["1", "1", "1", "1"]}}, "num_args": {"i": "1"}, "fused_ops": {"list": {"s": ["Qmlhc0FkZA==", "UmVsdQ=="]}}, "TArgs": {"list": {"type": ["DT_FLOAT"]}}, "padding": {"s": "U0FNRQ=="}, "use_cudnn_on_gpu": {"b": true}, "leakyrelu_alpha": {"f": 0.2}, "epsilon": {"f": 0.0}, "T": {"type": "DT_FLOAT"}, "explicit_paddings": {"list": {}}, "dilations": {"list": {"i": ["1", "1", "1", "1"]}}}}, {"name": "StatefulPartitionedCall/Unetpp_16_16_32_64_128_256/up_1_0/conv2d_transpose", "op": "Conv2DBackpropInput", "input": ["StatefulPartitionedCall/Unetpp_16_16_32_64_128_256/up_1_0/stack", "StatefulPartitionedCall/Unetpp_16_16_32_64_128_256/up_1_0/conv2d_transpose/ReadVariableOp", "StatefulPartitionedCall/Unetpp_16_16_32_64_128_256/x_1_0_b_act/Relu"], "attr": {"padding": {"s": "U0FNRQ=="}, "data_format": {"s": "TkhXQw=="}, "strides": {"list": {"i": ["1", "2", "2", "1"]}}, "use_cudnn_on_gpu": {"b": true}, "T": {"type": "DT_FLOAT"}, "explicit_paddings": {"list": {}}, "dilations": {"list": {"i": ["1", "1", "1", "1"]}}}}, {"name": "StatefulPartitionedCall/Unetpp_16_16_32_64_128_256/up_2_0/Shape", "op": "Shape", "input": ["StatefulPartitionedCall/Unetpp_16_16_32_64_128_256/x_2_0_b_act/Relu"], "attr": {"T": {"type": "DT_FLOAT"}, "out_type": {"type": "DT_INT32"}}, "experimentalType": {"typeId": "TFT_PRODUCT", "args": [{"typeId": "TFT_SHAPE_TENSOR", "args": [{"typeId": "TFT_INT32"}]}]}}, {"name": "StatefulPartitionedCall/Unetpp_16_16_32_64_128_256/maxpool/MaxPool_2", "op": "MaxPool", "input": ["StatefulPartitionedCall/Unetpp_16_16_32_64_128_256/x_2_0_b_act/Relu"], "attr": {"padding": {"s": "U0FNRQ=="}, "data_format": {"s": "TkhXQw=="}, "T": {"type": "DT_FLOAT"}, "explicit_paddings": {"list": {}}, "ksize": {"list": {"i": ["1", "2", "2", "1"]}}, "strides": {"list": {"i": ["1", "2", "2", "1"]}}}}, {"name": "StatefulPartitionedCall/Unetpp_16_16_32_64_128_256/up_1_0/BiasAdd", "op": "BiasAdd", "input": ["StatefulPartitionedCall/Unetpp_16_16_32_64_128_256/up_1_0/conv2d_transpose", "StatefulPartitionedCall/Unetpp_16_16_32_64_128_256/up_1_0/BiasAdd/ReadVariableOp"], "attr": {"_input_shapes": {"list": {"shape": [{"dim": [{"size": "-2"}, {"size": "224"}, {"size": "224"}, {"size": "16"}]}, {"dim": [{"size": "16"}]}]}}, "T": {"type": "DT_FLOAT"}, "data_format": {"s": "TkhXQw=="}}}, {"name": "StatefulPartitionedCall/Unetpp_16_16_32_64_128_256/up_2_0/strided_slice", "op": "StridedSlice", "input": ["StatefulPartitionedCall/Unetpp_16_16_32_64_128_256/up_2_0/Shape", "StatefulPartitionedCall/Unetpp_16_16_32_64_128_256/up_2_0/strided_slice/stack", "StatefulPartitionedCall/Unetpp_16_16_32_64_128_256/up_2_0/strided_slice/stack_1", "StatefulPartitionedCall/Unetpp_16_16_32_64_128_256/up_2_0/strided_slice/stack_2"], "attr": {"shrink_axis_mask": {"i": "1"}, "new_axis_mask": {"i": "0"}, "Index": {"type": "DT_INT32"}, "begin_mask": {"i": "0"}, "T": {"type": "DT_INT32"}, "end_mask": {"i": "0"}, "ellipsis_mask": {"i": "0"}}}, {"name": "StatefulPartitionedCall/Unetpp_16_16_32_64_128_256/x_3_0_a_act/Relu", "op": "_FusedConv2D", "input": ["StatefulPartitionedCall/Unetpp_16_16_32_64_128_256/maxpool/MaxPool_2", "StatefulPartitionedCall/Unetpp_16_16_32_64_128_256/x_3_0_a_conv/Conv2D_weights", "StatefulPartitionedCall/Unetpp_16_16_32_64_128_256/x_3_0_a_conv/Conv2D_bn_offset"], "device": "/device:CPU:0", "attr": {"num_host_args": {"i": "0"}, "_input_shapes": {"list": {"shape": [{"dim": [{"size": "-2"}, {"size": "28"}, {"size": "28"}, {"size": "32"}]}, {"dim": [{"size": "3"}, {"size": "3"}, {"size": "32"}, {"size": "64"}]}]}}, "filter_format": {"s": "SFdJTw=="}, "data_format": {"s": "TkhXQw=="}, "fused_ops": {"list": {"s": ["Qmlhc0FkZA==", "UmVsdQ=="]}}, "num_args": {"i": "1"}, "strides": {"list": {"i": ["1", "1", "1", "1"]}}, "TArgs": {"list": {"type": ["DT_FLOAT"]}}, "padding": {"s": "U0FNRQ=="}, "use_cudnn_on_gpu": {"b": true}, "leakyrelu_alpha": {"f": 0.2}, "epsilon": {"f": 0.0}, "T": {"type": "DT_FLOAT"}, "explicit_paddings": {"list": {}}, "dilations": {"list": {"i": ["1", "1", "1", "1"]}}}}, {"name": "StatefulPartitionedCall/Unetpp_16_16_32_64_128_256/merge_0_1/concat", "op": "ConcatV2", "input": ["StatefulPartitionedCall/Unetpp_16_16_32_64_128_256/x_0_0_b_act/Relu", "StatefulPartitionedCall/Unetpp_16_16_32_64_128_256/up_1_0/BiasAdd", "StatefulPartitionedCall/Unetpp_16_16_32_64_128_256/merge_0_1/concat/axis"], "attr": {"N": {"i": "2"}, "Tidx": {"type": "DT_INT32"}, "T": {"type": "DT_FLOAT"}}}, {"name": "StatefulPartitionedCall/Unetpp_16_16_32_64_128_256/up_2_0/stack", "op": "Pack", "input": ["StatefulPartitionedCall/Unetpp_16_16_32_64_128_256/up_2_0/strided_slice", "StatefulPartitionedCall/Unetpp_16_16_32_64_128_256/up_2_0/stack/1", "StatefulPartitionedCall/Unetpp_16_16_32_64_128_256/up_2_0/stack/2", "StatefulPartitionedCall/Unetpp_16_16_32_64_128_256/up_2_0/stack/3"], "attr": {"N": {"i": "4"}, "axis": {"i": "0"}, "T": {"type": "DT_INT32"}}}, {"name": "StatefulPartitionedCall/Unetpp_16_16_32_64_128_256/x_3_0_b_act/Relu", "op": "_FusedConv2D", "input": ["StatefulPartitionedCall/Unetpp_16_16_32_64_128_256/x_3_0_a_act/Relu", "StatefulPartitionedCall/Unetpp_16_16_32_64_128_256/x_3_0_b_conv/Conv2D_weights", "StatefulPartitionedCall/Unetpp_16_16_32_64_128_256/x_3_0_b_conv/Conv2D_bn_offset"], "device": "/device:CPU:0", "attr": {"num_host_args": {"i": "0"}, "data_format": {"s": "TkhXQw=="}, "filter_format": {"s": "SFdJTw=="}, "_input_shapes": {"list": {"shape": [{"dim": [{"size": "-2"}, {"size": "28"}, {"size": "28"}, {"size": "64"}]}, {"dim": [{"size": "3"}, {"size": "3"}, {"size": "64"}, {"size": "64"}]}]}}, "strides": {"list": {"i": ["1", "1", "1", "1"]}}, "num_args": {"i": "1"}, "fused_ops": {"list": {"s": ["Qmlhc0FkZA==", "UmVsdQ=="]}}, "TArgs": {"list": {"type": ["DT_FLOAT"]}}, "padding": {"s": "U0FNRQ=="}, "use_cudnn_on_gpu": {"b": true}, "leakyrelu_alpha": {"f": 0.2}, "epsilon": {"f": 0.0}, "T": {"type": "DT_FLOAT"}, "explicit_paddings": {"list": {}}, "dilations": {"list": {"i": ["1", "1", "1", "1"]}}}}, {"name": "StatefulPartitionedCall/Unetpp_16_16_32_64_128_256/x_0_1_a_act/Relu", "op": "_FusedConv2D", "input": ["StatefulPartitionedCall/Unetpp_16_16_32_64_128_256/merge_0_1/concat", "StatefulPartitionedCall/Unetpp_16_16_32_64_128_256/x_0_1_a_conv/Conv2D_weights", "StatefulPartitionedCall/Unetpp_16_16_32_64_128_256/x_0_1_a_conv/Conv2D_bn_offset"], "device": "/device:CPU:0", "attr": {"num_host_args": {"i": "0"}, "data_format": {"s": "TkhXQw=="}, "filter_format": {"s": "SFdJTw=="}, "_input_shapes": {"list": {"shape": [{"dim": [{"size": "-2"}, {"size": "224"}, {"size": "224"}, {"size": "32"}]}, {"dim": [{"size": "3"}, {"size": "3"}, {"size": "32"}, {"size": "16"}]}]}}, "strides": {"list": {"i": ["1", "1", "1", "1"]}}, "num_args": {"i": "1"}, "fused_ops": {"list": {"s": ["Qmlhc0FkZA==", "UmVsdQ=="]}}, "TArgs": {"list": {"type": ["DT_FLOAT"]}}, "padding": {"s": "U0FNRQ=="}, "use_cudnn_on_gpu": {"b": true}, "leakyrelu_alpha": {"f": 0.2}, "epsilon": {"f": 0.0}, "T": {"type": "DT_FLOAT"}, "explicit_paddings": {"list": {}}, "dilations": {"list": {"i": ["1", "1", "1", "1"]}}}}, {"name": "StatefulPartitionedCall/Unetpp_16_16_32_64_128_256/up_2_0/conv2d_transpose", "op": "Conv2DBackpropInput", "input": ["StatefulPartitionedCall/Unetpp_16_16_32_64_128_256/up_2_0/stack", "StatefulPartitionedCall/Unetpp_16_16_32_64_128_256/up_2_0/conv2d_transpose/ReadVariableOp", "StatefulPartitionedCall/Unetpp_16_16_32_64_128_256/x_2_0_b_act/Relu"], "attr": {"padding": {"s": "U0FNRQ=="}, "data_format": {"s": "TkhXQw=="}, "strides": {"list": {"i": ["1", "2", "2", "1"]}}, "use_cudnn_on_gpu": {"b": true}, "T": {"type": "DT_FLOAT"}, "explicit_paddings": {"list": {}}, "dilations": {"list": {"i": ["1", "1", "1", "1"]}}}}, {"name": "StatefulPartitionedCall/Unetpp_16_16_32_64_128_256/up_3_0/Shape", "op": "Shape", "input": ["StatefulPartitionedCall/Unetpp_16_16_32_64_128_256/x_3_0_b_act/Relu"], "attr": {"T": {"type": "DT_FLOAT"}, "out_type": {"type": "DT_INT32"}}, "experimentalType": {"typeId": "TFT_PRODUCT", "args": [{"typeId": "TFT_SHAPE_TENSOR", "args": [{"typeId": "TFT_INT32"}]}]}}, {"name": "StatefulPartitionedCall/Unetpp_16_16_32_64_128_256/maxpool/MaxPool_3", "op": "MaxPool", "input": ["StatefulPartitionedCall/Unetpp_16_16_32_64_128_256/x_3_0_b_act/Relu"], "attr": {"padding": {"s": "U0FNRQ=="}, "data_format": {"s": "TkhXQw=="}, "T": {"type": "DT_FLOAT"}, "explicit_paddings": {"list": {}}, "ksize": {"list": {"i": ["1", "2", "2", "1"]}}, "strides": {"list": {"i": ["1", "2", "2", "1"]}}}}, {"name": "StatefulPartitionedCall/Unetpp_16_16_32_64_128_256/x_0_1_b_act/Relu", "op": "_FusedConv2D", "input": ["StatefulPartitionedCall/Unetpp_16_16_32_64_128_256/x_0_1_a_act/Relu", "StatefulPartitionedCall/Unetpp_16_16_32_64_128_256/x_0_1_b_conv/Conv2D_weights", "StatefulPartitionedCall/Unetpp_16_16_32_64_128_256/x_0_1_b_conv/Conv2D_bn_offset"], "device": "/device:CPU:0", "attr": {"num_host_args": {"i": "0"}, "data_format": {"s": "TkhXQw=="}, "filter_format": {"s": "SFdJTw=="}, "_input_shapes": {"list": {"shape": [{"dim": [{"size": "-2"}, {"size": "224"}, {"size": "224"}, {"size": "16"}]}, {"dim": [{"size": "3"}, {"size": "3"}, {"size": "16"}, {"size": "16"}]}]}}, "strides": {"list": {"i": ["1", "1", "1", "1"]}}, "num_args": {"i": "1"}, "fused_ops": {"list": {"s": ["Qmlhc0FkZA==", "UmVsdQ=="]}}, "TArgs": {"list": {"type": ["DT_FLOAT"]}}, "padding": {"s": "U0FNRQ=="}, "use_cudnn_on_gpu": {"b": true}, "leakyrelu_alpha": {"f": 0.2}, "epsilon": {"f": 0.0}, "T": {"type": "DT_FLOAT"}, "explicit_paddings": {"list": {}}, "dilations": {"list": {"i": ["1", "1", "1", "1"]}}}}, {"name": "StatefulPartitionedCall/Unetpp_16_16_32_64_128_256/up_2_0/BiasAdd", "op": "BiasAdd", "input": ["StatefulPartitionedCall/Unetpp_16_16_32_64_128_256/up_2_0/conv2d_transpose", "StatefulPartitionedCall/Unetpp_16_16_32_64_128_256/up_2_0/BiasAdd/ReadVariableOp"], "attr": {"_input_shapes": {"list": {"shape": [{"dim": [{"size": "-2"}, {"size": "112"}, {"size": "112"}, {"size": "16"}]}, {"dim": [{"size": "16"}]}]}}, "T": {"type": "DT_FLOAT"}, "data_format": {"s": "TkhXQw=="}}}, {"name": "StatefulPartitionedCall/Unetpp_16_16_32_64_128_256/up_3_0/strided_slice", "op": "StridedSlice", "input": ["StatefulPartitionedCall/Unetpp_16_16_32_64_128_256/up_3_0/Shape", "StatefulPartitionedCall/Unetpp_16_16_32_64_128_256/up_3_0/strided_slice/stack", "StatefulPartitionedCall/Unetpp_16_16_32_64_128_256/up_3_0/strided_slice/stack_1", "StatefulPartitionedCall/Unetpp_16_16_32_64_128_256/up_3_0/strided_slice/stack_2"], "attr": {"shrink_axis_mask": {"i": "1"}, "new_axis_mask": {"i": "0"}, "Index": {"type": "DT_INT32"}, "begin_mask": {"i": "0"}, "end_mask": {"i": "0"}, "T": {"type": "DT_INT32"}, "ellipsis_mask": {"i": "0"}}}, {"name": "StatefulPartitionedCall/Unetpp_16_16_32_64_128_256/x_4_0_a_act/Relu", "op": "_FusedConv2D", "input": ["StatefulPartitionedCall/Unetpp_16_16_32_64_128_256/maxpool/MaxPool_3", "StatefulPartitionedCall/Unetpp_16_16_32_64_128_256/x_4_0_a_conv/Conv2D_weights", "StatefulPartitionedCall/Unetpp_16_16_32_64_128_256/x_4_0_a_conv/Conv2D_bn_offset"], "device": "/device:CPU:0", "attr": {"num_host_args": {"i": "0"}, "data_format": {"s": "TkhXQw=="}, "filter_format": {"s": "SFdJTw=="}, "_input_shapes": {"list": {"shape": [{"dim": [{"size": "-2"}, {"size": "14"}, {"size": "14"}, {"size": "64"}]}, {"dim": [{"size": "3"}, {"size": "3"}, {"size": "64"}, {"size": "128"}]}]}}, "strides": {"list": {"i": ["1", "1", "1", "1"]}}, "num_args": {"i": "1"}, "fused_ops": {"list": {"s": ["Qmlhc0FkZA==", "UmVsdQ=="]}}, "TArgs": {"list": {"type": ["DT_FLOAT"]}}, "padding": {"s": "U0FNRQ=="}, "use_cudnn_on_gpu": {"b": true}, "leakyrelu_alpha": {"f": 0.2}, "epsilon": {"f": 0.0}, "T": {"type": "DT_FLOAT"}, "explicit_paddings": {"list": {}}, "dilations": {"list": {"i": ["1", "1", "1", "1"]}}}}, {"name": "StatefulPartitionedCall/Unetpp_16_16_32_64_128_256/merge_1_1/concat", "op": "ConcatV2", "input": ["StatefulPartitionedCall/Unetpp_16_16_32_64_128_256/x_1_0_b_act/Relu", "StatefulPartitionedCall/Unetpp_16_16_32_64_128_256/up_2_0/BiasAdd", "StatefulPartitionedCall/Unetpp_16_16_32_64_128_256/merge_1_1/concat/axis"], "attr": {"N": {"i": "2"}, "T": {"type": "DT_FLOAT"}, "Tidx": {"type": "DT_INT32"}}}, {"name": "StatefulPartitionedCall/Unetpp_16_16_32_64_128_256/up_3_0/stack", "op": "Pack", "input": ["StatefulPartitionedCall/Unetpp_16_16_32_64_128_256/up_3_0/strided_slice", "StatefulPartitionedCall/Unetpp_16_16_32_64_128_256/up_3_0/stack/1", "StatefulPartitionedCall/Unetpp_16_16_32_64_128_256/up_3_0/stack/2", "StatefulPartitionedCall/Unetpp_16_16_32_64_128_256/up_3_0/stack/3"], "attr": {"N": {"i": "4"}, "axis": {"i": "0"}, "T": {"type": "DT_INT32"}}}, {"name": "StatefulPartitionedCall/Unetpp_16_16_32_64_128_256/x_4_0_b_act/Relu", "op": "_FusedConv2D", "input": ["StatefulPartitionedCall/Unetpp_16_16_32_64_128_256/x_4_0_a_act/Relu", "StatefulPartitionedCall/Unetpp_16_16_32_64_128_256/x_4_0_b_conv/Conv2D_weights", "StatefulPartitionedCall/Unetpp_16_16_32_64_128_256/x_4_0_b_conv/Conv2D_bn_offset"], "device": "/device:CPU:0", "attr": {"num_host_args": {"i": "0"}, "data_format": {"s": "TkhXQw=="}, "filter_format": {"s": "SFdJTw=="}, "_input_shapes": {"list": {"shape": [{"dim": [{"size": "-2"}, {"size": "14"}, {"size": "14"}, {"size": "128"}]}, {"dim": [{"size": "3"}, {"size": "3"}, {"size": "128"}, {"size": "128"}]}]}}, "fused_ops": {"list": {"s": ["Qmlhc0FkZA==", "UmVsdQ=="]}}, "num_args": {"i": "1"}, "strides": {"list": {"i": ["1", "1", "1", "1"]}}, "TArgs": {"list": {"type": ["DT_FLOAT"]}}, "padding": {"s": "U0FNRQ=="}, "use_cudnn_on_gpu": {"b": true}, "leakyrelu_alpha": {"f": 0.2}, "epsilon": {"f": 0.0}, "T": {"type": "DT_FLOAT"}, "explicit_paddings": {"list": {}}, "dilations": {"list": {"i": ["1", "1", "1", "1"]}}}}, {"name": "StatefulPartitionedCall/Unetpp_16_16_32_64_128_256/x_1_1_a_act/Relu", "op": "_FusedConv2D", "input": ["StatefulPartitionedCall/Unetpp_16_16_32_64_128_256/merge_1_1/concat", "StatefulPartitionedCall/Unetpp_16_16_32_64_128_256/x_1_1_a_conv/Conv2D_weights", "StatefulPartitionedCall/Unetpp_16_16_32_64_128_256/x_1_1_a_conv/Conv2D_bn_offset"], "device": "/device:CPU:0", "attr": {"num_host_args": {"i": "0"}, "data_format": {"s": "TkhXQw=="}, "filter_format": {"s": "SFdJTw=="}, "_input_shapes": {"list": {"shape": [{"dim": [{"size": "-2"}, {"size": "112"}, {"size": "112"}, {"size": "32"}]}, {"dim": [{"size": "3"}, {"size": "3"}, {"size": "32"}, {"size": "16"}]}]}}, "fused_ops": {"list": {"s": ["Qmlhc0FkZA==", "UmVsdQ=="]}}, "num_args": {"i": "1"}, "strides": {"list": {"i": ["1", "1", "1", "1"]}}, "TArgs": {"list": {"type": ["DT_FLOAT"]}}, "padding": {"s": "U0FNRQ=="}, "use_cudnn_on_gpu": {"b": true}, "leakyrelu_alpha": {"f": 0.2}, "epsilon": {"f": 0.0}, "T": {"type": "DT_FLOAT"}, "explicit_paddings": {"list": {}}, "dilations": {"list": {"i": ["1", "1", "1", "1"]}}}}, {"name": "StatefulPartitionedCall/Unetpp_16_16_32_64_128_256/up_3_0/conv2d_transpose", "op": "Conv2DBackpropInput", "input": ["StatefulPartitionedCall/Unetpp_16_16_32_64_128_256/up_3_0/stack", "StatefulPartitionedCall/Unetpp_16_16_32_64_128_256/up_3_0/conv2d_transpose/ReadVariableOp", "StatefulPartitionedCall/Unetpp_16_16_32_64_128_256/x_3_0_b_act/Relu"], "attr": {"padding": {"s": "U0FNRQ=="}, "data_format": {"s": "TkhXQw=="}, "use_cudnn_on_gpu": {"b": true}, "strides": {"list": {"i": ["1", "2", "2", "1"]}}, "T": {"type": "DT_FLOAT"}, "explicit_paddings": {"list": {}}, "dilations": {"list": {"i": ["1", "1", "1", "1"]}}}}, {"name": "StatefulPartitionedCall/Unetpp_16_16_32_64_128_256/up_4_0/Shape", "op": "Shape", "input": ["StatefulPartitionedCall/Unetpp_16_16_32_64_128_256/x_4_0_b_act/Relu"], "attr": {"T": {"type": "DT_FLOAT"}, "out_type": {"type": "DT_INT32"}}, "experimentalType": {"typeId": "TFT_PRODUCT", "args": [{"typeId": "TFT_SHAPE_TENSOR", "args": [{"typeId": "TFT_INT32"}]}]}}, {"name": "StatefulPartitionedCall/Unetpp_16_16_32_64_128_256/maxpool/MaxPool_4", "op": "MaxPool", "input": ["StatefulPartitionedCall/Unetpp_16_16_32_64_128_256/x_4_0_b_act/Relu"], "attr": {"padding": {"s": "U0FNRQ=="}, "data_format": {"s": "TkhXQw=="}, "T": {"type": "DT_FLOAT"}, "explicit_paddings": {"list": {}}, "ksize": {"list": {"i": ["1", "2", "2", "1"]}}, "strides": {"list": {"i": ["1", "2", "2", "1"]}}}}, {"name": "StatefulPartitionedCall/Unetpp_16_16_32_64_128_256/x_1_1_b_act/Relu", "op": "_FusedConv2D", "input": ["StatefulPartitionedCall/Unetpp_16_16_32_64_128_256/x_1_1_a_act/Relu", "StatefulPartitionedCall/Unetpp_16_16_32_64_128_256/x_1_1_b_conv/Conv2D_weights", "StatefulPartitionedCall/Unetpp_16_16_32_64_128_256/x_1_1_b_conv/Conv2D_bn_offset"], "device": "/device:CPU:0", "attr": {"num_host_args": {"i": "0"}, "_input_shapes": {"list": {"shape": [{"dim": [{"size": "-2"}, {"size": "112"}, {"size": "112"}, {"size": "16"}]}, {"dim": [{"size": "3"}, {"size": "3"}, {"size": "16"}, {"size": "16"}]}]}}, "filter_format": {"s": "SFdJTw=="}, "data_format": {"s": "TkhXQw=="}, "strides": {"list": {"i": ["1", "1", "1", "1"]}}, "num_args": {"i": "1"}, "fused_ops": {"list": {"s": ["Qmlhc0FkZA==", "UmVsdQ=="]}}, "TArgs": {"list": {"type": ["DT_FLOAT"]}}, "padding": {"s": "U0FNRQ=="}, "use_cudnn_on_gpu": {"b": true}, "leakyrelu_alpha": {"f": 0.2}, "epsilon": {"f": 0.0}, "T": {"type": "DT_FLOAT"}, "explicit_paddings": {"list": {}}, "dilations": {"list": {"i": ["1", "1", "1", "1"]}}}}, {"name": "StatefulPartitionedCall/Unetpp_16_16_32_64_128_256/up_3_0/BiasAdd", "op": "BiasAdd", "input": ["StatefulPartitionedCall/Unetpp_16_16_32_64_128_256/up_3_0/conv2d_transpose", "StatefulPartitionedCall/Unetpp_16_16_32_64_128_256/up_3_0/BiasAdd/ReadVariableOp"], "attr": {"_input_shapes": {"list": {"shape": [{"dim": [{"size": "-2"}, {"size": "56"}, {"size": "56"}, {"size": "32"}]}, {"dim": [{"size": "32"}]}]}}, "T": {"type": "DT_FLOAT"}, "data_format": {"s": "TkhXQw=="}}}, {"name": "StatefulPartitionedCall/Unetpp_16_16_32_64_128_256/up_4_0/strided_slice", "op": "StridedSlice", "input": ["StatefulPartitionedCall/Unetpp_16_16_32_64_128_256/up_4_0/Shape", "StatefulPartitionedCall/Unetpp_16_16_32_64_128_256/up_4_0/strided_slice/stack", "StatefulPartitionedCall/Unetpp_16_16_32_64_128_256/up_4_0/strided_slice/stack_1", "StatefulPartitionedCall/Unetpp_16_16_32_64_128_256/up_4_0/strided_slice/stack_2"], "attr": {"shrink_axis_mask": {"i": "1"}, "new_axis_mask": {"i": "0"}, "Index": {"type": "DT_INT32"}, "begin_mask": {"i": "0"}, "end_mask": {"i": "0"}, "T": {"type": "DT_INT32"}, "ellipsis_mask": {"i": "0"}}}, {"name": "StatefulPartitionedCall/Unetpp_16_16_32_64_128_256/x_5_0_a_act/Relu", "op": "_FusedConv2D", "input": ["StatefulPartitionedCall/Unetpp_16_16_32_64_128_256/maxpool/MaxPool_4", "StatefulPartitionedCall/Unetpp_16_16_32_64_128_256/x_5_0_a_conv/Conv2D_weights", "StatefulPartitionedCall/Unetpp_16_16_32_64_128_256/x_5_0_a_conv/Conv2D_bn_offset"], "device": "/device:CPU:0", "attr": {"num_host_args": {"i": "0"}, "_input_shapes": {"list": {"shape": [{"dim": [{"size": "-2"}, {"size": "-29"}, {"size": "-30"}, {"size": "128"}]}, {"dim": [{"size": "3"}, {"size": "3"}, {"size": "128"}, {"size": "256"}]}]}}, "filter_format": {"s": "SFdJTw=="}, "data_format": {"s": "TkhXQw=="}, "fused_ops": {"list": {"s": ["Qmlhc0FkZA==", "UmVsdQ=="]}}, "num_args": {"i": "1"}, "strides": {"list": {"i": ["1", "1", "1", "1"]}}, "TArgs": {"list": {"type": ["DT_FLOAT"]}}, "padding": {"s": "U0FNRQ=="}, "use_cudnn_on_gpu": {"b": true}, "leakyrelu_alpha": {"f": 0.2}, "epsilon": {"f": 0.0}, "T": {"type": "DT_FLOAT"}, "explicit_paddings": {"list": {}}, "dilations": {"list": {"i": ["1", "1", "1", "1"]}}}}, {"name": "StatefulPartitionedCall/Unetpp_16_16_32_64_128_256/up_1_1/Shape", "op": "Shape", "input": ["StatefulPartitionedCall/Unetpp_16_16_32_64_128_256/x_1_1_b_act/Relu"], "attr": {"T": {"type": "DT_FLOAT"}, "out_type": {"type": "DT_INT32"}}, "experimentalType": {"typeId": "TFT_PRODUCT", "args": [{"typeId": "TFT_SHAPE_TENSOR", "args": [{"typeId": "TFT_INT32"}]}]}}, {"name": "StatefulPartitionedCall/Unetpp_16_16_32_64_128_256/merge_2_1/concat", "op": "ConcatV2", "input": ["StatefulPartitionedCall/Unetpp_16_16_32_64_128_256/x_2_0_b_act/Relu", "StatefulPartitionedCall/Unetpp_16_16_32_64_128_256/up_3_0/BiasAdd", "StatefulPartitionedCall/Unetpp_16_16_32_64_128_256/merge_2_1/concat/axis"], "attr": {"N": {"i": "2"}, "T": {"type": "DT_FLOAT"}, "Tidx": {"type": "DT_INT32"}}}, {"name": "StatefulPartitionedCall/Unetpp_16_16_32_64_128_256/up_4_0/stack", "op": "Pack", "input": ["StatefulPartitionedCall/Unetpp_16_16_32_64_128_256/up_4_0/strided_slice", "StatefulPartitionedCall/Unetpp_16_16_32_64_128_256/up_4_0/stack/1", "StatefulPartitionedCall/Unetpp_16_16_32_64_128_256/up_4_0/stack/2", "StatefulPartitionedCall/Unetpp_16_16_32_64_128_256/up_4_0/stack/3"], "attr": {"N": {"i": "4"}, "axis": {"i": "0"}, "T": {"type": "DT_INT32"}}}, {"name": "StatefulPartitionedCall/Unetpp_16_16_32_64_128_256/x_5_0_b_act/Relu", "op": "_FusedConv2D", "input": ["StatefulPartitionedCall/Unetpp_16_16_32_64_128_256/x_5_0_a_act/Relu", "StatefulPartitionedCall/Unetpp_16_16_32_64_128_256/x_5_0_b_conv/Conv2D_weights", "StatefulPartitionedCall/Unetpp_16_16_32_64_128_256/x_5_0_b_conv/Conv2D_bn_offset"], "device": "/device:CPU:0", "attr": {"num_host_args": {"i": "0"}, "data_format": {"s": "TkhXQw=="}, "filter_format": {"s": "SFdJTw=="}, "_input_shapes": {"list": {"shape": [{"dim": [{"size": "-2"}, {"size": "-29"}, {"size": "-30"}, {"size": "256"}]}, {"dim": [{"size": "3"}, {"size": "3"}, {"size": "256"}, {"size": "256"}]}]}}, "strides": {"list": {"i": ["1", "1", "1", "1"]}}, "num_args": {"i": "1"}, "fused_ops": {"list": {"s": ["Qmlhc0FkZA==", "UmVsdQ=="]}}, "TArgs": {"list": {"type": ["DT_FLOAT"]}}, "padding": {"s": "U0FNRQ=="}, "use_cudnn_on_gpu": {"b": true}, "leakyrelu_alpha": {"f": 0.2}, "epsilon": {"f": 0.0}, "T": {"type": "DT_FLOAT"}, "explicit_paddings": {"list": {}}, "dilations": {"list": {"i": ["1", "1", "1", "1"]}}}}, {"name": "StatefulPartitionedCall/Unetpp_16_16_32_64_128_256/up_1_1/strided_slice", "op": "StridedSlice", "input": ["StatefulPartitionedCall/Unetpp_16_16_32_64_128_256/up_1_1/Shape", "StatefulPartitionedCall/Unetpp_16_16_32_64_128_256/up_1_1/strided_slice/stack", "StatefulPartitionedCall/Unetpp_16_16_32_64_128_256/up_1_1/strided_slice/stack_1", "StatefulPartitionedCall/Unetpp_16_16_32_64_128_256/up_1_1/strided_slice/stack_2"], "attr": {"shrink_axis_mask": {"i": "1"}, "new_axis_mask": {"i": "0"}, "Index": {"type": "DT_INT32"}, "begin_mask": {"i": "0"}, "T": {"type": "DT_INT32"}, "end_mask": {"i": "0"}, "ellipsis_mask": {"i": "0"}}}, {"name": "StatefulPartitionedCall/Unetpp_16_16_32_64_128_256/x_2_1_a_act/Relu", "op": "_FusedConv2D", "input": ["StatefulPartitionedCall/Unetpp_16_16_32_64_128_256/merge_2_1/concat", "StatefulPartitionedCall/Unetpp_16_16_32_64_128_256/x_2_1_a_conv/Conv2D_weights", "StatefulPartitionedCall/Unetpp_16_16_32_64_128_256/x_2_1_a_conv/Conv2D_bn_offset"], "device": "/device:CPU:0", "attr": {"num_host_args": {"i": "0"}, "data_format": {"s": "TkhXQw=="}, "filter_format": {"s": "SFdJTw=="}, "_input_shapes": {"list": {"shape": [{"dim": [{"size": "-2"}, {"size": "56"}, {"size": "56"}, {"size": "64"}]}, {"dim": [{"size": "3"}, {"size": "3"}, {"size": "64"}, {"size": "32"}]}]}}, "strides": {"list": {"i": ["1", "1", "1", "1"]}}, "num_args": {"i": "1"}, "fused_ops": {"list": {"s": ["Qmlhc0FkZA==", "UmVsdQ=="]}}, "TArgs": {"list": {"type": ["DT_FLOAT"]}}, "padding": {"s": "U0FNRQ=="}, "use_cudnn_on_gpu": {"b": true}, "leakyrelu_alpha": {"f": 0.2}, "epsilon": {"f": 0.0}, "T": {"type": "DT_FLOAT"}, "explicit_paddings": {"list": {}}, "dilations": {"list": {"i": ["1", "1", "1", "1"]}}}}, {"name": "StatefulPartitionedCall/Unetpp_16_16_32_64_128_256/up_4_0/conv2d_transpose", "op": "Conv2DBackpropInput", "input": ["StatefulPartitionedCall/Unetpp_16_16_32_64_128_256/up_4_0/stack", "StatefulPartitionedCall/Unetpp_16_16_32_64_128_256/up_4_0/conv2d_transpose/ReadVariableOp", "StatefulPartitionedCall/Unetpp_16_16_32_64_128_256/x_4_0_b_act/Relu"], "attr": {"padding": {"s": "U0FNRQ=="}, "data_format": {"s": "TkhXQw=="}, "use_cudnn_on_gpu": {"b": true}, "strides": {"list": {"i": ["1", "2", "2", "1"]}}, "T": {"type": "DT_FLOAT"}, "explicit_paddings": {"list": {}}, "dilations": {"list": {"i": ["1", "1", "1", "1"]}}}}, {"name": "StatefulPartitionedCall/Unetpp_16_16_32_64_128_256/up_5_0/Shape", "op": "Shape", "input": ["StatefulPartitionedCall/Unetpp_16_16_32_64_128_256/x_5_0_b_act/Relu"], "attr": {"T": {"type": "DT_FLOAT"}, "out_type": {"type": "DT_INT32"}}, "experimentalType": {"typeId": "TFT_PRODUCT", "args": [{"typeId": "TFT_SHAPE_TENSOR", "args": [{"typeId": "TFT_INT32"}]}]}}, {"name": "StatefulPartitionedCall/Unetpp_16_16_32_64_128_256/up_1_1/stack", "op": "Pack", "input": ["StatefulPartitionedCall/Unetpp_16_16_32_64_128_256/up_1_1/strided_slice", "StatefulPartitionedCall/Unetpp_16_16_32_64_128_256/up_1_1/stack/1", "StatefulPartitionedCall/Unetpp_16_16_32_64_128_256/up_1_1/stack/2", "StatefulPartitionedCall/Unetpp_16_16_32_64_128_256/up_1_1/stack/3"], "attr": {"N": {"i": "4"}, "axis": {"i": "0"}, "T": {"type": "DT_INT32"}}}, {"name": "StatefulPartitionedCall/Unetpp_16_16_32_64_128_256/x_2_1_b_act/Relu", "op": "_FusedConv2D", "input": ["StatefulPartitionedCall/Unetpp_16_16_32_64_128_256/x_2_1_a_act/Relu", "StatefulPartitionedCall/Unetpp_16_16_32_64_128_256/x_2_1_b_conv/Conv2D_weights", "StatefulPartitionedCall/Unetpp_16_16_32_64_128_256/x_2_1_b_conv/Conv2D_bn_offset"], "device": "/device:CPU:0", "attr": {"num_host_args": {"i": "0"}, "data_format": {"s": "TkhXQw=="}, "filter_format": {"s": "SFdJTw=="}, "_input_shapes": {"list": {"shape": [{"dim": [{"size": "-2"}, {"size": "56"}, {"size": "56"}, {"size": "32"}]}, {"dim": [{"size": "3"}, {"size": "3"}, {"size": "32"}, {"size": "32"}]}]}}, "fused_ops": {"list": {"s": ["Qmlhc0FkZA==", "UmVsdQ=="]}}, "num_args": {"i": "1"}, "strides": {"list": {"i": ["1", "1", "1", "1"]}}, "TArgs": {"list": {"type": ["DT_FLOAT"]}}, "padding": {"s": "U0FNRQ=="}, "use_cudnn_on_gpu": {"b": true}, "leakyrelu_alpha": {"f": 0.2}, "epsilon": {"f": 0.0}, "T": {"type": "DT_FLOAT"}, "explicit_paddings": {"list": {}}, "dilations": {"list": {"i": ["1", "1", "1", "1"]}}}}, {"name": "StatefulPartitionedCall/Unetpp_16_16_32_64_128_256/up_4_0/BiasAdd", "op": "BiasAdd", "input": ["StatefulPartitionedCall/Unetpp_16_16_32_64_128_256/up_4_0/conv2d_transpose", "StatefulPartitionedCall/Unetpp_16_16_32_64_128_256/up_4_0/BiasAdd/ReadVariableOp"], "attr": {"_input_shapes": {"list": {"shape": [{"dim": [{"size": "-2"}, {"size": "28"}, {"size": "28"}, {"size": "64"}]}, {"dim": [{"size": "64"}]}]}}, "T": {"type": "DT_FLOAT"}, "data_format": {"s": "TkhXQw=="}}}, {"name": "StatefulPartitionedCall/Unetpp_16_16_32_64_128_256/up_5_0/strided_slice", "op": "StridedSlice", "input": ["StatefulPartitionedCall/Unetpp_16_16_32_64_128_256/up_5_0/Shape", "StatefulPartitionedCall/Unetpp_16_16_32_64_128_256/up_5_0/strided_slice/stack", "StatefulPartitionedCall/Unetpp_16_16_32_64_128_256/up_5_0/strided_slice/stack_1", "StatefulPartitionedCall/Unetpp_16_16_32_64_128_256/up_5_0/strided_slice/stack_2"], "attr": {"shrink_axis_mask": {"i": "1"}, "new_axis_mask": {"i": "0"}, "Index": {"type": "DT_INT32"}, "begin_mask": {"i": "0"}, "end_mask": {"i": "0"}, "T": {"type": "DT_INT32"}, "ellipsis_mask": {"i": "0"}}}, {"name": "StatefulPartitionedCall/Unetpp_16_16_32_64_128_256/up_1_1/conv2d_transpose", "op": "Conv2DBackpropInput", "input": ["StatefulPartitionedCall/Unetpp_16_16_32_64_128_256/up_1_1/stack", "StatefulPartitionedCall/Unetpp_16_16_32_64_128_256/up_1_1/conv2d_transpose/ReadVariableOp", "StatefulPartitionedCall/Unetpp_16_16_32_64_128_256/x_1_1_b_act/Relu"], "attr": {"padding": {"s": "U0FNRQ=="}, "data_format": {"s": "TkhXQw=="}, "strides": {"list": {"i": ["1", "2", "2", "1"]}}, "use_cudnn_on_gpu": {"b": true}, "T": {"type": "DT_FLOAT"}, "explicit_paddings": {"list": {}}, "dilations": {"list": {"i": ["1", "1", "1", "1"]}}}}, {"name": "StatefulPartitionedCall/Unetpp_16_16_32_64_128_256/up_2_1/Shape", "op": "Shape", "input": ["StatefulPartitionedCall/Unetpp_16_16_32_64_128_256/x_2_1_b_act/Relu"], "attr": {"T": {"type": "DT_FLOAT"}, "out_type": {"type": "DT_INT32"}}, "experimentalType": {"typeId": "TFT_PRODUCT", "args": [{"typeId": "TFT_SHAPE_TENSOR", "args": [{"typeId": "TFT_INT32"}]}]}}, {"name": "StatefulPartitionedCall/Unetpp_16_16_32_64_128_256/merge_3_1/concat", "op": "ConcatV2", "input": ["StatefulPartitionedCall/Unetpp_16_16_32_64_128_256/x_3_0_b_act/Relu", "StatefulPartitionedCall/Unetpp_16_16_32_64_128_256/up_4_0/BiasAdd", "StatefulPartitionedCall/Unetpp_16_16_32_64_128_256/merge_3_1/concat/axis"], "attr": {"N": {"i": "2"}, "T": {"type": "DT_FLOAT"}, "Tidx": {"type": "DT_INT32"}}}, {"name": "StatefulPartitionedCall/Unetpp_16_16_32_64_128_256/up_5_0/stack", "op": "Pack", "input": ["StatefulPartitionedCall/Unetpp_16_16_32_64_128_256/up_5_0/strided_slice", "StatefulPartitionedCall/Unetpp_16_16_32_64_128_256/up_5_0/stack/1", "StatefulPartitionedCall/Unetpp_16_16_32_64_128_256/up_5_0/stack/2", "StatefulPartitionedCall/Unetpp_16_16_32_64_128_256/up_5_0/stack/3"], "attr": {"N": {"i": "4"}, "axis": {"i": "0"}, "T": {"type": "DT_INT32"}}}, {"name": "StatefulPartitionedCall/Unetpp_16_16_32_64_128_256/up_1_1/BiasAdd", "op": "BiasAdd", "input": ["StatefulPartitionedCall/Unetpp_16_16_32_64_128_256/up_1_1/conv2d_transpose", "StatefulPartitionedCall/Unetpp_16_16_32_64_128_256/up_1_1/BiasAdd/ReadVariableOp"], "attr": {"_input_shapes": {"list": {"shape": [{"dim": [{"size": "-2"}, {"size": "224"}, {"size": "224"}, {"size": "16"}]}, {"dim": [{"size": "16"}]}]}}, "T": {"type": "DT_FLOAT"}, "data_format": {"s": "TkhXQw=="}}}, {"name": "StatefulPartitionedCall/Unetpp_16_16_32_64_128_256/up_2_1/strided_slice", "op": "StridedSlice", "input": ["StatefulPartitionedCall/Unetpp_16_16_32_64_128_256/up_2_1/Shape", "StatefulPartitionedCall/Unetpp_16_16_32_64_128_256/up_2_1/strided_slice/stack", "StatefulPartitionedCall/Unetpp_16_16_32_64_128_256/up_2_1/strided_slice/stack_1", "StatefulPartitionedCall/Unetpp_16_16_32_64_128_256/up_2_1/strided_slice/stack_2"], "attr": {"shrink_axis_mask": {"i": "1"}, "new_axis_mask": {"i": "0"}, "Index": {"type": "DT_INT32"}, "begin_mask": {"i": "0"}, "T": {"type": "DT_INT32"}, "end_mask": {"i": "0"}, "ellipsis_mask": {"i": "0"}}}, {"name": "StatefulPartitionedCall/Unetpp_16_16_32_64_128_256/x_3_1_a_act/Relu", "op": "_FusedConv2D", "input": ["StatefulPartitionedCall/Unetpp_16_16_32_64_128_256/merge_3_1/concat", "StatefulPartitionedCall/Unetpp_16_16_32_64_128_256/x_3_1_a_conv/Conv2D_weights", "StatefulPartitionedCall/Unetpp_16_16_32_64_128_256/x_3_1_a_conv/Conv2D_bn_offset"], "device": "/device:CPU:0", "attr": {"num_host_args": {"i": "0"}, "_input_shapes": {"list": {"shape": [{"dim": [{"size": "-2"}, {"size": "28"}, {"size": "28"}, {"size": "128"}]}, {"dim": [{"size": "3"}, {"size": "3"}, {"size": "128"}, {"size": "64"}]}]}}, "filter_format": {"s": "SFdJTw=="}, "data_format": {"s": "TkhXQw=="}, "fused_ops": {"list": {"s": ["Qmlhc0FkZA==", "UmVsdQ=="]}}, "num_args": {"i": "1"}, "strides": {"list": {"i": ["1", "1", "1", "1"]}}, "TArgs": {"list": {"type": ["DT_FLOAT"]}}, "padding": {"s": "U0FNRQ=="}, "use_cudnn_on_gpu": {"b": true}, "leakyrelu_alpha": {"f": 0.2}, "epsilon": {"f": 0.0}, "T": {"type": "DT_FLOAT"}, "explicit_paddings": {"list": {}}, "dilations": {"list": {"i": ["1", "1", "1", "1"]}}}}, {"name": "StatefulPartitionedCall/Unetpp_16_16_32_64_128_256/up_5_0/conv2d_transpose", "op": "Conv2DBackpropInput", "input": ["StatefulPartitionedCall/Unetpp_16_16_32_64_128_256/up_5_0/stack", "StatefulPartitionedCall/Unetpp_16_16_32_64_128_256/up_5_0/conv2d_transpose/ReadVariableOp", "StatefulPartitionedCall/Unetpp_16_16_32_64_128_256/x_5_0_b_act/Relu"], "attr": {"padding": {"s": "U0FNRQ=="}, "data_format": {"s": "TkhXQw=="}, "strides": {"list": {"i": ["1", "2", "2", "1"]}}, "use_cudnn_on_gpu": {"b": true}, "T": {"type": "DT_FLOAT"}, "explicit_paddings": {"list": {}}, "dilations": {"list": {"i": ["1", "1", "1", "1"]}}}}, {"name": "StatefulPartitionedCall/Unetpp_16_16_32_64_128_256/merge_0_2/concat", "op": "ConcatV2", "input": ["StatefulPartitionedCall/Unetpp_16_16_32_64_128_256/x_0_0_b_act/Relu", "StatefulPartitionedCall/Unetpp_16_16_32_64_128_256/x_0_1_b_act/Relu", "StatefulPartitionedCall/Unetpp_16_16_32_64_128_256/up_1_1/BiasAdd", "StatefulPartitionedCall/Unetpp_16_16_32_64_128_256/merge_0_2/concat/axis"], "attr": {"N": {"i": "3"}, "T": {"type": "DT_FLOAT"}, "Tidx": {"type": "DT_INT32"}}}, {"name": "StatefulPartitionedCall/Unetpp_16_16_32_64_128_256/up_2_1/stack", "op": "Pack", "input": ["StatefulPartitionedCall/Unetpp_16_16_32_64_128_256/up_2_1/strided_slice", "StatefulPartitionedCall/Unetpp_16_16_32_64_128_256/up_2_1/stack/1", "StatefulPartitionedCall/Unetpp_16_16_32_64_128_256/up_2_1/stack/2", "StatefulPartitionedCall/Unetpp_16_16_32_64_128_256/up_2_1/stack/3"], "attr": {"N": {"i": "4"}, "axis": {"i": "0"}, "T": {"type": "DT_INT32"}}}, {"name": "StatefulPartitionedCall/Unetpp_16_16_32_64_128_256/x_3_1_b_act/Relu", "op": "_FusedConv2D", "input": ["StatefulPartitionedCall/Unetpp_16_16_32_64_128_256/x_3_1_a_act/Relu", "StatefulPartitionedCall/Unetpp_16_16_32_64_128_256/x_3_1_b_conv/Conv2D_weights", "StatefulPartitionedCall/Unetpp_16_16_32_64_128_256/x_3_1_b_conv/Conv2D_bn_offset"], "device": "/device:CPU:0", "attr": {"num_host_args": {"i": "0"}, "_input_shapes": {"list": {"shape": [{"dim": [{"size": "-2"}, {"size": "28"}, {"size": "28"}, {"size": "64"}]}, {"dim": [{"size": "3"}, {"size": "3"}, {"size": "64"}, {"size": "64"}]}]}}, "filter_format": {"s": "SFdJTw=="}, "data_format": {"s": "TkhXQw=="}, "fused_ops": {"list": {"s": ["Qmlhc0FkZA==", "UmVsdQ=="]}}, "num_args": {"i": "1"}, "strides": {"list": {"i": ["1", "1", "1", "1"]}}, "TArgs": {"list": {"type": ["DT_FLOAT"]}}, "padding": {"s": "U0FNRQ=="}, "use_cudnn_on_gpu": {"b": true}, "leakyrelu_alpha": {"f": 0.2}, "epsilon": {"f": 0.0}, "T": {"type": "DT_FLOAT"}, "explicit_paddings": {"list": {}}, "dilations": {"list": {"i": ["1", "1", "1", "1"]}}}}, {"name": "StatefulPartitionedCall/Unetpp_16_16_32_64_128_256/up_5_0/BiasAdd", "op": "BiasAdd", "input": ["StatefulPartitionedCall/Unetpp_16_16_32_64_128_256/up_5_0/conv2d_transpose", "StatefulPartitionedCall/Unetpp_16_16_32_64_128_256/up_5_0/BiasAdd/ReadVariableOp"], "attr": {"data_format": {"s": "TkhXQw=="}, "T": {"type": "DT_FLOAT"}, "_input_shapes": {"list": {"shape": [{"dim": [{"size": "-2"}, {"size": "14"}, {"size": "14"}, {"size": "128"}]}, {"dim": [{"size": "128"}]}]}}}}, {"name": "StatefulPartitionedCall/Unetpp_16_16_32_64_128_256/x_0_2_a_act/Relu", "op": "_FusedConv2D", "input": ["StatefulPartitionedCall/Unetpp_16_16_32_64_128_256/merge_0_2/concat", "StatefulPartitionedCall/Unetpp_16_16_32_64_128_256/x_0_2_a_conv/Conv2D_weights", "StatefulPartitionedCall/Unetpp_16_16_32_64_128_256/x_0_2_a_conv/Conv2D_bn_offset"], "device": "/device:CPU:0", "attr": {"num_host_args": {"i": "0"}, "_input_shapes": {"list": {"shape": [{"dim": [{"size": "-2"}, {"size": "224"}, {"size": "224"}, {"size": "48"}]}, {"dim": [{"size": "3"}, {"size": "3"}, {"size": "48"}, {"size": "16"}]}]}}, "filter_format": {"s": "SFdJTw=="}, "data_format": {"s": "TkhXQw=="}, "strides": {"list": {"i": ["1", "1", "1", "1"]}}, "num_args": {"i": "1"}, "fused_ops": {"list": {"s": ["Qmlhc0FkZA==", "UmVsdQ=="]}}, "TArgs": {"list": {"type": ["DT_FLOAT"]}}, "padding": {"s": "U0FNRQ=="}, "use_cudnn_on_gpu": {"b": true}, "leakyrelu_alpha": {"f": 0.2}, "epsilon": {"f": 0.0}, "T": {"type": "DT_FLOAT"}, "explicit_paddings": {"list": {}}, "dilations": {"list": {"i": ["1", "1", "1", "1"]}}}}, {"name": "StatefulPartitionedCall/Unetpp_16_16_32_64_128_256/up_2_1/conv2d_transpose", "op": "Conv2DBackpropInput", "input": ["StatefulPartitionedCall/Unetpp_16_16_32_64_128_256/up_2_1/stack", "StatefulPartitionedCall/Unetpp_16_16_32_64_128_256/up_2_1/conv2d_transpose/ReadVariableOp", "StatefulPartitionedCall/Unetpp_16_16_32_64_128_256/x_2_1_b_act/Relu"], "attr": {"padding": {"s": "U0FNRQ=="}, "data_format": {"s": "TkhXQw=="}, "use_cudnn_on_gpu": {"b": true}, "strides": {"list": {"i": ["1", "2", "2", "1"]}}, "T": {"type": "DT_FLOAT"}, "explicit_paddings": {"list": {}}, "dilations": {"list": {"i": ["1", "1", "1", "1"]}}}}, {"name": "StatefulPartitionedCall/Unetpp_16_16_32_64_128_256/up_3_1/Shape", "op": "Shape", "input": ["StatefulPartitionedCall/Unetpp_16_16_32_64_128_256/x_3_1_b_act/Relu"], "attr": {"T": {"type": "DT_FLOAT"}, "out_type": {"type": "DT_INT32"}}, "experimentalType": {"typeId": "TFT_PRODUCT", "args": [{"typeId": "TFT_SHAPE_TENSOR", "args": [{"typeId": "TFT_INT32"}]}]}}, {"name": "StatefulPartitionedCall/Unetpp_16_16_32_64_128_256/merge_4_1/concat", "op": "ConcatV2", "input": ["StatefulPartitionedCall/Unetpp_16_16_32_64_128_256/x_4_0_b_act/Relu", "StatefulPartitionedCall/Unetpp_16_16_32_64_128_256/up_5_0/BiasAdd", "StatefulPartitionedCall/Unetpp_16_16_32_64_128_256/merge_4_1/concat/axis"], "attr": {"N": {"i": "2"}, "T": {"type": "DT_FLOAT"}, "Tidx": {"type": "DT_INT32"}}}, {"name": "StatefulPartitionedCall/Unetpp_16_16_32_64_128_256/x_0_2_b_act/Relu", "op": "_FusedConv2D", "input": ["StatefulPartitionedCall/Unetpp_16_16_32_64_128_256/x_0_2_a_act/Relu", "StatefulPartitionedCall/Unetpp_16_16_32_64_128_256/x_0_2_b_conv/Conv2D_weights", "StatefulPartitionedCall/Unetpp_16_16_32_64_128_256/x_0_2_b_conv/Conv2D_bn_offset"], "device": "/device:CPU:0", "attr": {"num_host_args": {"i": "0"}, "data_format": {"s": "TkhXQw=="}, "filter_format": {"s": "SFdJTw=="}, "_input_shapes": {"list": {"shape": [{"dim": [{"size": "-2"}, {"size": "224"}, {"size": "224"}, {"size": "16"}]}, {"dim": [{"size": "3"}, {"size": "3"}, {"size": "16"}, {"size": "16"}]}]}}, "strides": {"list": {"i": ["1", "1", "1", "1"]}}, "num_args": {"i": "1"}, "fused_ops": {"list": {"s": ["Qmlhc0FkZA==", "UmVsdQ=="]}}, "TArgs": {"list": {"type": ["DT_FLOAT"]}}, "padding": {"s": "U0FNRQ=="}, "use_cudnn_on_gpu": {"b": true}, "leakyrelu_alpha": {"f": 0.2}, "epsilon": {"f": 0.0}, "T": {"type": "DT_FLOAT"}, "explicit_paddings": {"list": {}}, "dilations": {"list": {"i": ["1", "1", "1", "1"]}}}}, {"name": "StatefulPartitionedCall/Unetpp_16_16_32_64_128_256/up_2_1/BiasAdd", "op": "BiasAdd", "input": ["StatefulPartitionedCall/Unetpp_16_16_32_64_128_256/up_2_1/conv2d_transpose", "StatefulPartitionedCall/Unetpp_16_16_32_64_128_256/up_2_1/BiasAdd/ReadVariableOp"], "attr": {"_input_shapes": {"list": {"shape": [{"dim": [{"size": "-2"}, {"size": "112"}, {"size": "112"}, {"size": "16"}]}, {"dim": [{"size": "16"}]}]}}, "T": {"type": "DT_FLOAT"}, "data_format": {"s": "TkhXQw=="}}}, {"name": "StatefulPartitionedCall/Unetpp_16_16_32_64_128_256/up_3_1/strided_slice", "op": "StridedSlice", "input": ["StatefulPartitionedCall/Unetpp_16_16_32_64_128_256/up_3_1/Shape", "StatefulPartitionedCall/Unetpp_16_16_32_64_128_256/up_3_1/strided_slice/stack", "StatefulPartitionedCall/Unetpp_16_16_32_64_128_256/up_3_1/strided_slice/stack_1", "StatefulPartitionedCall/Unetpp_16_16_32_64_128_256/up_3_1/strided_slice/stack_2"], "attr": {"shrink_axis_mask": {"i": "1"}, "new_axis_mask": {"i": "0"}, "Index": {"type": "DT_INT32"}, "begin_mask": {"i": "0"}, "T": {"type": "DT_INT32"}, "end_mask": {"i": "0"}, "ellipsis_mask": {"i": "0"}}}, {"name": "StatefulPartitionedCall/Unetpp_16_16_32_64_128_256/x_4_1_a_act/Relu", "op": "_FusedConv2D", "input": ["StatefulPartitionedCall/Unetpp_16_16_32_64_128_256/merge_4_1/concat", "StatefulPartitionedCall/Unetpp_16_16_32_64_128_256/x_4_1_a_conv/Conv2D_weights", "StatefulPartitionedCall/Unetpp_16_16_32_64_128_256/x_4_1_a_conv/Conv2D_bn_offset"], "device": "/device:CPU:0", "attr": {"num_host_args": {"i": "0"}, "data_format": {"s": "TkhXQw=="}, "filter_format": {"s": "SFdJTw=="}, "_input_shapes": {"list": {"shape": [{"dim": [{"size": "-2"}, {"size": "14"}, {"size": "14"}, {"size": "256"}]}, {"dim": [{"size": "3"}, {"size": "3"}, {"size": "256"}, {"size": "128"}]}]}}, "strides": {"list": {"i": ["1", "1", "1", "1"]}}, "num_args": {"i": "1"}, "fused_ops": {"list": {"s": ["Qmlhc0FkZA==", "UmVsdQ=="]}}, "TArgs": {"list": {"type": ["DT_FLOAT"]}}, "padding": {"s": "U0FNRQ=="}, "use_cudnn_on_gpu": {"b": true}, "leakyrelu_alpha": {"f": 0.2}, "epsilon": {"f": 0.0}, "T": {"type": "DT_FLOAT"}, "explicit_paddings": {"list": {}}, "dilations": {"list": {"i": ["1", "1", "1", "1"]}}}}, {"name": "StatefulPartitionedCall/Unetpp_16_16_32_64_128_256/merge_1_2/concat", "op": "ConcatV2", "input": ["StatefulPartitionedCall/Unetpp_16_16_32_64_128_256/x_1_0_b_act/Relu", "StatefulPartitionedCall/Unetpp_16_16_32_64_128_256/x_1_1_b_act/Relu", "StatefulPartitionedCall/Unetpp_16_16_32_64_128_256/up_2_1/BiasAdd", "StatefulPartitionedCall/Unetpp_16_16_32_64_128_256/merge_1_2/concat/axis"], "attr": {"N": {"i": "3"}, "T": {"type": "DT_FLOAT"}, "Tidx": {"type": "DT_INT32"}}}, {"name": "StatefulPartitionedCall/Unetpp_16_16_32_64_128_256/up_3_1/stack", "op": "Pack", "input": ["StatefulPartitionedCall/Unetpp_16_16_32_64_128_256/up_3_1/strided_slice", "StatefulPartitionedCall/Unetpp_16_16_32_64_128_256/up_3_1/stack/1", "StatefulPartitionedCall/Unetpp_16_16_32_64_128_256/up_3_1/stack/2", "StatefulPartitionedCall/Unetpp_16_16_32_64_128_256/up_3_1/stack/3"], "attr": {"N": {"i": "4"}, "axis": {"i": "0"}, "T": {"type": "DT_INT32"}}}, {"name": "StatefulPartitionedCall/Unetpp_16_16_32_64_128_256/x_4_1_b_act/Relu", "op": "_FusedConv2D", "input": ["StatefulPartitionedCall/Unetpp_16_16_32_64_128_256/x_4_1_a_act/Relu", "StatefulPartitionedCall/Unetpp_16_16_32_64_128_256/x_4_1_b_conv/Conv2D_weights", "StatefulPartitionedCall/Unetpp_16_16_32_64_128_256/x_4_1_b_conv/Conv2D_bn_offset"], "device": "/device:CPU:0", "attr": {"num_host_args": {"i": "0"}, "data_format": {"s": "TkhXQw=="}, "filter_format": {"s": "SFdJTw=="}, "_input_shapes": {"list": {"shape": [{"dim": [{"size": "-2"}, {"size": "14"}, {"size": "14"}, {"size": "128"}]}, {"dim": [{"size": "3"}, {"size": "3"}, {"size": "128"}, {"size": "128"}]}]}}, "fused_ops": {"list": {"s": ["Qmlhc0FkZA==", "UmVsdQ=="]}}, "num_args": {"i": "1"}, "strides": {"list": {"i": ["1", "1", "1", "1"]}}, "TArgs": {"list": {"type": ["DT_FLOAT"]}}, "padding": {"s": "U0FNRQ=="}, "use_cudnn_on_gpu": {"b": true}, "leakyrelu_alpha": {"f": 0.2}, "epsilon": {"f": 0.0}, "T": {"type": "DT_FLOAT"}, "explicit_paddings": {"list": {}}, "dilations": {"list": {"i": ["1", "1", "1", "1"]}}}}, {"name": "StatefulPartitionedCall/Unetpp_16_16_32_64_128_256/x_1_2_a_act/Relu", "op": "_FusedConv2D", "input": ["StatefulPartitionedCall/Unetpp_16_16_32_64_128_256/merge_1_2/concat", "StatefulPartitionedCall/Unetpp_16_16_32_64_128_256/x_1_2_a_conv/Conv2D_weights", "StatefulPartitionedCall/Unetpp_16_16_32_64_128_256/x_1_2_a_conv/Conv2D_bn_offset"], "device": "/device:CPU:0", "attr": {"num_host_args": {"i": "0"}, "data_format": {"s": "TkhXQw=="}, "filter_format": {"s": "SFdJTw=="}, "_input_shapes": {"list": {"shape": [{"dim": [{"size": "-2"}, {"size": "112"}, {"size": "112"}, {"size": "48"}]}, {"dim": [{"size": "3"}, {"size": "3"}, {"size": "48"}, {"size": "16"}]}]}}, "fused_ops": {"list": {"s": ["Qmlhc0FkZA==", "UmVsdQ=="]}}, "num_args": {"i": "1"}, "strides": {"list": {"i": ["1", "1", "1", "1"]}}, "TArgs": {"list": {"type": ["DT_FLOAT"]}}, "padding": {"s": "U0FNRQ=="}, "use_cudnn_on_gpu": {"b": true}, "leakyrelu_alpha": {"f": 0.2}, "epsilon": {"f": 0.0}, "T": {"type": "DT_FLOAT"}, "explicit_paddings": {"list": {}}, "dilations": {"list": {"i": ["1", "1", "1", "1"]}}}}, {"name": "StatefulPartitionedCall/Unetpp_16_16_32_64_128_256/up_3_1/conv2d_transpose", "op": "Conv2DBackpropInput", "input": ["StatefulPartitionedCall/Unetpp_16_16_32_64_128_256/up_3_1/stack", "StatefulPartitionedCall/Unetpp_16_16_32_64_128_256/up_3_1/conv2d_transpose/ReadVariableOp", "StatefulPartitionedCall/Unetpp_16_16_32_64_128_256/x_3_1_b_act/Relu"], "attr": {"padding": {"s": "U0FNRQ=="}, "data_format": {"s": "TkhXQw=="}, "use_cudnn_on_gpu": {"b": true}, "strides": {"list": {"i": ["1", "2", "2", "1"]}}, "T": {"type": "DT_FLOAT"}, "explicit_paddings": {"list": {}}, "dilations": {"list": {"i": ["1", "1", "1", "1"]}}}}, {"name": "StatefulPartitionedCall/Unetpp_16_16_32_64_128_256/up_4_1/Shape", "op": "Shape", "input": ["StatefulPartitionedCall/Unetpp_16_16_32_64_128_256/x_4_1_b_act/Relu"], "attr": {"T": {"type": "DT_FLOAT"}, "out_type": {"type": "DT_INT32"}}, "experimentalType": {"typeId": "TFT_PRODUCT", "args": [{"typeId": "TFT_SHAPE_TENSOR", "args": [{"typeId": "TFT_INT32"}]}]}}, {"name": "StatefulPartitionedCall/Unetpp_16_16_32_64_128_256/x_1_2_b_act/Relu", "op": "_FusedConv2D", "input": ["StatefulPartitionedCall/Unetpp_16_16_32_64_128_256/x_1_2_a_act/Relu", "StatefulPartitionedCall/Unetpp_16_16_32_64_128_256/x_1_2_b_conv/Conv2D_weights", "StatefulPartitionedCall/Unetpp_16_16_32_64_128_256/x_1_2_b_conv/Conv2D_bn_offset"], "device": "/device:CPU:0", "attr": {"num_host_args": {"i": "0"}, "_input_shapes": {"list": {"shape": [{"dim": [{"size": "-2"}, {"size": "112"}, {"size": "112"}, {"size": "16"}]}, {"dim": [{"size": "3"}, {"size": "3"}, {"size": "16"}, {"size": "16"}]}]}}, "filter_format": {"s": "SFdJTw=="}, "data_format": {"s": "TkhXQw=="}, "strides": {"list": {"i": ["1", "1", "1", "1"]}}, "num_args": {"i": "1"}, "fused_ops": {"list": {"s": ["Qmlhc0FkZA==", "UmVsdQ=="]}}, "TArgs": {"list": {"type": ["DT_FLOAT"]}}, "padding": {"s": "U0FNRQ=="}, "use_cudnn_on_gpu": {"b": true}, "leakyrelu_alpha": {"f": 0.2}, "epsilon": {"f": 0.0}, "T": {"type": "DT_FLOAT"}, "explicit_paddings": {"list": {}}, "dilations": {"list": {"i": ["1", "1", "1", "1"]}}}}, {"name": "StatefulPartitionedCall/Unetpp_16_16_32_64_128_256/up_3_1/BiasAdd", "op": "BiasAdd", "input": ["StatefulPartitionedCall/Unetpp_16_16_32_64_128_256/up_3_1/conv2d_transpose", "StatefulPartitionedCall/Unetpp_16_16_32_64_128_256/up_3_1/BiasAdd/ReadVariableOp"], "attr": {"data_format": {"s": "TkhXQw=="}, "T": {"type": "DT_FLOAT"}, "_input_shapes": {"list": {"shape": [{"dim": [{"size": "-2"}, {"size": "56"}, {"size": "56"}, {"size": "32"}]}, {"dim": [{"size": "32"}]}]}}}}, {"name": "StatefulPartitionedCall/Unetpp_16_16_32_64_128_256/up_4_1/strided_slice", "op": "StridedSlice", "input": ["StatefulPartitionedCall/Unetpp_16_16_32_64_128_256/up_4_1/Shape", "StatefulPartitionedCall/Unetpp_16_16_32_64_128_256/up_4_1/strided_slice/stack", "StatefulPartitionedCall/Unetpp_16_16_32_64_128_256/up_4_1/strided_slice/stack_1", "StatefulPartitionedCall/Unetpp_16_16_32_64_128_256/up_4_1/strided_slice/stack_2"], "attr": {"shrink_axis_mask": {"i": "1"}, "Index": {"type": "DT_INT32"}, "new_axis_mask": {"i": "0"}, "begin_mask": {"i": "0"}, "T": {"type": "DT_INT32"}, "end_mask": {"i": "0"}, "ellipsis_mask": {"i": "0"}}}, {"name": "StatefulPartitionedCall/Unetpp_16_16_32_64_128_256/up_1_2/Shape", "op": "Shape", "input": ["StatefulPartitionedCall/Unetpp_16_16_32_64_128_256/x_1_2_b_act/Relu"], "attr": {"T": {"type": "DT_FLOAT"}, "out_type": {"type": "DT_INT32"}}, "experimentalType": {"typeId": "TFT_PRODUCT", "args": [{"typeId": "TFT_SHAPE_TENSOR", "args": [{"typeId": "TFT_INT32"}]}]}}, {"name": "StatefulPartitionedCall/Unetpp_16_16_32_64_128_256/merge_2_2/concat", "op": "ConcatV2", "input": ["StatefulPartitionedCall/Unetpp_16_16_32_64_128_256/x_2_0_b_act/Relu", "StatefulPartitionedCall/Unetpp_16_16_32_64_128_256/x_2_1_b_act/Relu", "StatefulPartitionedCall/Unetpp_16_16_32_64_128_256/up_3_1/BiasAdd", "StatefulPartitionedCall/Unetpp_16_16_32_64_128_256/merge_2_2/concat/axis"], "attr": {"N": {"i": "3"}, "Tidx": {"type": "DT_INT32"}, "T": {"type": "DT_FLOAT"}}}, {"name": "StatefulPartitionedCall/Unetpp_16_16_32_64_128_256/up_4_1/stack", "op": "Pack", "input": ["StatefulPartitionedCall/Unetpp_16_16_32_64_128_256/up_4_1/strided_slice", "StatefulPartitionedCall/Unetpp_16_16_32_64_128_256/up_4_1/stack/1", "StatefulPartitionedCall/Unetpp_16_16_32_64_128_256/up_4_1/stack/2", "StatefulPartitionedCall/Unetpp_16_16_32_64_128_256/up_4_1/stack/3"], "attr": {"N": {"i": "4"}, "axis": {"i": "0"}, "T": {"type": "DT_INT32"}}}, {"name": "StatefulPartitionedCall/Unetpp_16_16_32_64_128_256/up_1_2/strided_slice", "op": "StridedSlice", "input": ["StatefulPartitionedCall/Unetpp_16_16_32_64_128_256/up_1_2/Shape", "StatefulPartitionedCall/Unetpp_16_16_32_64_128_256/up_1_2/strided_slice/stack", "StatefulPartitionedCall/Unetpp_16_16_32_64_128_256/up_1_2/strided_slice/stack_1", "StatefulPartitionedCall/Unetpp_16_16_32_64_128_256/up_1_2/strided_slice/stack_2"], "attr": {"shrink_axis_mask": {"i": "1"}, "new_axis_mask": {"i": "0"}, "Index": {"type": "DT_INT32"}, "begin_mask": {"i": "0"}, "end_mask": {"i": "0"}, "T": {"type": "DT_INT32"}, "ellipsis_mask": {"i": "0"}}}, {"name": "StatefulPartitionedCall/Unetpp_16_16_32_64_128_256/x_2_2_a_act/Relu", "op": "_FusedConv2D", "input": ["StatefulPartitionedCall/Unetpp_16_16_32_64_128_256/merge_2_2/concat", "StatefulPartitionedCall/Unetpp_16_16_32_64_128_256/x_2_2_a_conv/Conv2D_weights", "StatefulPartitionedCall/Unetpp_16_16_32_64_128_256/x_2_2_a_conv/Conv2D_bn_offset"], "device": "/device:CPU:0", "attr": {"num_host_args": {"i": "0"}, "_input_shapes": {"list": {"shape": [{"dim": [{"size": "-2"}, {"size": "56"}, {"size": "56"}, {"size": "96"}]}, {"dim": [{"size": "3"}, {"size": "3"}, {"size": "96"}, {"size": "32"}]}]}}, "filter_format": {"s": "SFdJTw=="}, "data_format": {"s": "TkhXQw=="}, "fused_ops": {"list": {"s": ["Qmlhc0FkZA==", "UmVsdQ=="]}}, "num_args": {"i": "1"}, "strides": {"list": {"i": ["1", "1", "1", "1"]}}, "TArgs": {"list": {"type": ["DT_FLOAT"]}}, "padding": {"s": "U0FNRQ=="}, "use_cudnn_on_gpu": {"b": true}, "leakyrelu_alpha": {"f": 0.2}, "epsilon": {"f": 0.0}, "T": {"type": "DT_FLOAT"}, "explicit_paddings": {"list": {}}, "dilations": {"list": {"i": ["1", "1", "1", "1"]}}}}, {"name": "StatefulPartitionedCall/Unetpp_16_16_32_64_128_256/up_4_1/conv2d_transpose", "op": "Conv2DBackpropInput", "input": ["StatefulPartitionedCall/Unetpp_16_16_32_64_128_256/up_4_1/stack", "StatefulPartitionedCall/Unetpp_16_16_32_64_128_256/up_4_1/conv2d_transpose/ReadVariableOp", "StatefulPartitionedCall/Unetpp_16_16_32_64_128_256/x_4_1_b_act/Relu"], "attr": {"padding": {"s": "U0FNRQ=="}, "data_format": {"s": "TkhXQw=="}, "use_cudnn_on_gpu": {"b": true}, "strides": {"list": {"i": ["1", "2", "2", "1"]}}, "T": {"type": "DT_FLOAT"}, "explicit_paddings": {"list": {}}, "dilations": {"list": {"i": ["1", "1", "1", "1"]}}}}, {"name": "StatefulPartitionedCall/Unetpp_16_16_32_64_128_256/up_1_2/stack", "op": "Pack", "input": ["StatefulPartitionedCall/Unetpp_16_16_32_64_128_256/up_1_2/strided_slice", "StatefulPartitionedCall/Unetpp_16_16_32_64_128_256/up_1_2/stack/1", "StatefulPartitionedCall/Unetpp_16_16_32_64_128_256/up_1_2/stack/2", "StatefulPartitionedCall/Unetpp_16_16_32_64_128_256/up_1_2/stack/3"], "attr": {"N": {"i": "4"}, "axis": {"i": "0"}, "T": {"type": "DT_INT32"}}}, {"name": "StatefulPartitionedCall/Unetpp_16_16_32_64_128_256/x_2_2_b_act/Relu", "op": "_FusedConv2D", "input": ["StatefulPartitionedCall/Unetpp_16_16_32_64_128_256/x_2_2_a_act/Relu", "StatefulPartitionedCall/Unetpp_16_16_32_64_128_256/x_2_2_b_conv/Conv2D_weights", "StatefulPartitionedCall/Unetpp_16_16_32_64_128_256/x_2_2_b_conv/Conv2D_bn_offset"], "device": "/device:CPU:0", "attr": {"num_host_args": {"i": "0"}, "data_format": {"s": "TkhXQw=="}, "filter_format": {"s": "SFdJTw=="}, "_input_shapes": {"list": {"shape": [{"dim": [{"size": "-2"}, {"size": "56"}, {"size": "56"}, {"size": "32"}]}, {"dim": [{"size": "3"}, {"size": "3"}, {"size": "32"}, {"size": "32"}]}]}}, "fused_ops": {"list": {"s": ["Qmlhc0FkZA==", "UmVsdQ=="]}}, "num_args": {"i": "1"}, "strides": {"list": {"i": ["1", "1", "1", "1"]}}, "TArgs": {"list": {"type": ["DT_FLOAT"]}}, "padding": {"s": "U0FNRQ=="}, "use_cudnn_on_gpu": {"b": true}, "leakyrelu_alpha": {"f": 0.2}, "epsilon": {"f": 0.0}, "T": {"type": "DT_FLOAT"}, "explicit_paddings": {"list": {}}, "dilations": {"list": {"i": ["1", "1", "1", "1"]}}}}, {"name": "StatefulPartitionedCall/Unetpp_16_16_32_64_128_256/up_4_1/BiasAdd", "op": "BiasAdd", "input": ["StatefulPartitionedCall/Unetpp_16_16_32_64_128_256/up_4_1/conv2d_transpose", "StatefulPartitionedCall/Unetpp_16_16_32_64_128_256/up_4_1/BiasAdd/ReadVariableOp"], "attr": {"data_format": {"s": "TkhXQw=="}, "T": {"type": "DT_FLOAT"}, "_input_shapes": {"list": {"shape": [{"dim": [{"size": "-2"}, {"size": "28"}, {"size": "28"}, {"size": "64"}]}, {"dim": [{"size": "64"}]}]}}}}, {"name": "StatefulPartitionedCall/Unetpp_16_16_32_64_128_256/up_1_2/conv2d_transpose", "op": "Conv2DBackpropInput", "input": ["StatefulPartitionedCall/Unetpp_16_16_32_64_128_256/up_1_2/stack", "StatefulPartitionedCall/Unetpp_16_16_32_64_128_256/up_1_2/conv2d_transpose/ReadVariableOp", "StatefulPartitionedCall/Unetpp_16_16_32_64_128_256/x_1_2_b_act/Relu"], "attr": {"padding": {"s": "U0FNRQ=="}, "data_format": {"s": "TkhXQw=="}, "strides": {"list": {"i": ["1", "2", "2", "1"]}}, "use_cudnn_on_gpu": {"b": true}, "T": {"type": "DT_FLOAT"}, "explicit_paddings": {"list": {}}, "dilations": {"list": {"i": ["1", "1", "1", "1"]}}}}, {"name": "StatefulPartitionedCall/Unetpp_16_16_32_64_128_256/up_2_2/Shape", "op": "Shape", "input": ["StatefulPartitionedCall/Unetpp_16_16_32_64_128_256/x_2_2_b_act/Relu"], "attr": {"T": {"type": "DT_FLOAT"}, "out_type": {"type": "DT_INT32"}}, "experimentalType": {"typeId": "TFT_PRODUCT", "args": [{"typeId": "TFT_SHAPE_TENSOR", "args": [{"typeId": "TFT_INT32"}]}]}}, {"name": "StatefulPartitionedCall/Unetpp_16_16_32_64_128_256/merge_3_2/concat", "op": "ConcatV2", "input": ["StatefulPartitionedCall/Unetpp_16_16_32_64_128_256/x_3_0_b_act/Relu", "StatefulPartitionedCall/Unetpp_16_16_32_64_128_256/x_3_1_b_act/Relu", "StatefulPartitionedCall/Unetpp_16_16_32_64_128_256/up_4_1/BiasAdd", "StatefulPartitionedCall/Unetpp_16_16_32_64_128_256/merge_3_2/concat/axis"], "attr": {"N": {"i": "3"}, "Tidx": {"type": "DT_INT32"}, "T": {"type": "DT_FLOAT"}}}, {"name": "StatefulPartitionedCall/Unetpp_16_16_32_64_128_256/up_1_2/BiasAdd", "op": "BiasAdd", "input": ["StatefulPartitionedCall/Unetpp_16_16_32_64_128_256/up_1_2/conv2d_transpose", "StatefulPartitionedCall/Unetpp_16_16_32_64_128_256/up_1_2/BiasAdd/ReadVariableOp"], "attr": {"data_format": {"s": "TkhXQw=="}, "T": {"type": "DT_FLOAT"}, "_input_shapes": {"list": {"shape": [{"dim": [{"size": "-2"}, {"size": "224"}, {"size": "224"}, {"size": "16"}]}, {"dim": [{"size": "16"}]}]}}}}, {"name": "StatefulPartitionedCall/Unetpp_16_16_32_64_128_256/up_2_2/strided_slice", "op": "StridedSlice", "input": ["StatefulPartitionedCall/Unetpp_16_16_32_64_128_256/up_2_2/Shape", "StatefulPartitionedCall/Unetpp_16_16_32_64_128_256/up_2_2/strided_slice/stack", "StatefulPartitionedCall/Unetpp_16_16_32_64_128_256/up_2_2/strided_slice/stack_1", "StatefulPartitionedCall/Unetpp_16_16_32_64_128_256/up_2_2/strided_slice/stack_2"], "attr": {"shrink_axis_mask": {"i": "1"}, "new_axis_mask": {"i": "0"}, "Index": {"type": "DT_INT32"}, "begin_mask": {"i": "0"}, "T": {"type": "DT_INT32"}, "end_mask": {"i": "0"}, "ellipsis_mask": {"i": "0"}}}, {"name": "StatefulPartitionedCall/Unetpp_16_16_32_64_128_256/x_3_2_a_act/Relu", "op": "_FusedConv2D", "input": ["StatefulPartitionedCall/Unetpp_16_16_32_64_128_256/merge_3_2/concat", "StatefulPartitionedCall/Unetpp_16_16_32_64_128_256/x_3_2_a_conv/Conv2D_weights", "StatefulPartitionedCall/Unetpp_16_16_32_64_128_256/x_3_2_a_conv/Conv2D_bn_offset"], "device": "/device:CPU:0", "attr": {"num_host_args": {"i": "0"}, "_input_shapes": {"list": {"shape": [{"dim": [{"size": "-2"}, {"size": "28"}, {"size": "28"}, {"size": "192"}]}, {"dim": [{"size": "3"}, {"size": "3"}, {"size": "192"}, {"size": "64"}]}]}}, "filter_format": {"s": "SFdJTw=="}, "data_format": {"s": "TkhXQw=="}, "strides": {"list": {"i": ["1", "1", "1", "1"]}}, "num_args": {"i": "1"}, "fused_ops": {"list": {"s": ["Qmlhc0FkZA==", "UmVsdQ=="]}}, "TArgs": {"list": {"type": ["DT_FLOAT"]}}, "padding": {"s": "U0FNRQ=="}, "use_cudnn_on_gpu": {"b": true}, "leakyrelu_alpha": {"f": 0.2}, "epsilon": {"f": 0.0}, "T": {"type": "DT_FLOAT"}, "explicit_paddings": {"list": {}}, "dilations": {"list": {"i": ["1", "1", "1", "1"]}}}}, {"name": "StatefulPartitionedCall/Unetpp_16_16_32_64_128_256/merge_0_3/concat", "op": "ConcatV2", "input": ["StatefulPartitionedCall/Unetpp_16_16_32_64_128_256/x_0_0_b_act/Relu", "StatefulPartitionedCall/Unetpp_16_16_32_64_128_256/x_0_1_b_act/Relu", "StatefulPartitionedCall/Unetpp_16_16_32_64_128_256/x_0_2_b_act/Relu", "StatefulPartitionedCall/Unetpp_16_16_32_64_128_256/up_1_2/BiasAdd", "StatefulPartitionedCall/Unetpp_16_16_32_64_128_256/merge_0_3/concat/axis"], "attr": {"N": {"i": "4"}, "T": {"type": "DT_FLOAT"}, "Tidx": {"type": "DT_INT32"}}}, {"name": "StatefulPartitionedCall/Unetpp_16_16_32_64_128_256/up_2_2/stack", "op": "Pack", "input": ["StatefulPartitionedCall/Unetpp_16_16_32_64_128_256/up_2_2/strided_slice", "StatefulPartitionedCall/Unetpp_16_16_32_64_128_256/up_2_2/stack/1", "StatefulPartitionedCall/Unetpp_16_16_32_64_128_256/up_2_2/stack/2", "StatefulPartitionedCall/Unetpp_16_16_32_64_128_256/up_2_2/stack/3"], "attr": {"N": {"i": "4"}, "axis": {"i": "0"}, "T": {"type": "DT_INT32"}}}, {"name": "StatefulPartitionedCall/Unetpp_16_16_32_64_128_256/x_3_2_b_act/Relu", "op": "_FusedConv2D", "input": ["StatefulPartitionedCall/Unetpp_16_16_32_64_128_256/x_3_2_a_act/Relu", "StatefulPartitionedCall/Unetpp_16_16_32_64_128_256/x_3_2_b_conv/Conv2D_weights", "StatefulPartitionedCall/Unetpp_16_16_32_64_128_256/x_3_2_b_conv/Conv2D_bn_offset"], "device": "/device:CPU:0", "attr": {"num_host_args": {"i": "0"}, "_input_shapes": {"list": {"shape": [{"dim": [{"size": "-2"}, {"size": "28"}, {"size": "28"}, {"size": "64"}]}, {"dim": [{"size": "3"}, {"size": "3"}, {"size": "64"}, {"size": "64"}]}]}}, "filter_format": {"s": "SFdJTw=="}, "data_format": {"s": "TkhXQw=="}, "fused_ops": {"list": {"s": ["Qmlhc0FkZA==", "UmVsdQ=="]}}, "num_args": {"i": "1"}, "strides": {"list": {"i": ["1", "1", "1", "1"]}}, "TArgs": {"list": {"type": ["DT_FLOAT"]}}, "padding": {"s": "U0FNRQ=="}, "use_cudnn_on_gpu": {"b": true}, "leakyrelu_alpha": {"f": 0.2}, "epsilon": {"f": 0.0}, "T": {"type": "DT_FLOAT"}, "explicit_paddings": {"list": {}}, "dilations": {"list": {"i": ["1", "1", "1", "1"]}}}}, {"name": "StatefulPartitionedCall/Unetpp_16_16_32_64_128_256/x_0_3_a_act/Relu", "op": "_FusedConv2D", "input": ["StatefulPartitionedCall/Unetpp_16_16_32_64_128_256/merge_0_3/concat", "StatefulPartitionedCall/Unetpp_16_16_32_64_128_256/x_0_3_a_conv/Conv2D_weights", "StatefulPartitionedCall/Unetpp_16_16_32_64_128_256/x_0_3_a_conv/Conv2D_bn_offset"], "device": "/device:CPU:0", "attr": {"num_host_args": {"i": "0"}, "data_format": {"s": "TkhXQw=="}, "filter_format": {"s": "SFdJTw=="}, "_input_shapes": {"list": {"shape": [{"dim": [{"size": "-2"}, {"size": "224"}, {"size": "224"}, {"size": "64"}]}, {"dim": [{"size": "3"}, {"size": "3"}, {"size": "64"}, {"size": "16"}]}]}}, "fused_ops": {"list": {"s": ["Qmlhc0FkZA==", "UmVsdQ=="]}}, "num_args": {"i": "1"}, "strides": {"list": {"i": ["1", "1", "1", "1"]}}, "TArgs": {"list": {"type": ["DT_FLOAT"]}}, "padding": {"s": "U0FNRQ=="}, "use_cudnn_on_gpu": {"b": true}, "leakyrelu_alpha": {"f": 0.2}, "epsilon": {"f": 0.0}, "T": {"type": "DT_FLOAT"}, "explicit_paddings": {"list": {}}, "dilations": {"list": {"i": ["1", "1", "1", "1"]}}}}, {"name": "StatefulPartitionedCall/Unetpp_16_16_32_64_128_256/up_2_2/conv2d_transpose", "op": "Conv2DBackpropInput", "input": ["StatefulPartitionedCall/Unetpp_16_16_32_64_128_256/up_2_2/stack", "StatefulPartitionedCall/Unetpp_16_16_32_64_128_256/up_2_2/conv2d_transpose/ReadVariableOp", "StatefulPartitionedCall/Unetpp_16_16_32_64_128_256/x_2_2_b_act/Relu"], "attr": {"padding": {"s": "U0FNRQ=="}, "data_format": {"s": "TkhXQw=="}, "use_cudnn_on_gpu": {"b": true}, "strides": {"list": {"i": ["1", "2", "2", "1"]}}, "T": {"type": "DT_FLOAT"}, "explicit_paddings": {"list": {}}, "dilations": {"list": {"i": ["1", "1", "1", "1"]}}}}, {"name": "StatefulPartitionedCall/Unetpp_16_16_32_64_128_256/up_3_2/Shape", "op": "Shape", "input": ["StatefulPartitionedCall/Unetpp_16_16_32_64_128_256/x_3_2_b_act/Relu"], "attr": {"T": {"type": "DT_FLOAT"}, "out_type": {"type": "DT_INT32"}}, "experimentalType": {"typeId": "TFT_PRODUCT", "args": [{"typeId": "TFT_SHAPE_TENSOR", "args": [{"typeId": "TFT_INT32"}]}]}}, {"name": "StatefulPartitionedCall/Unetpp_16_16_32_64_128_256/x_0_3_b_act/Relu", "op": "_FusedConv2D", "input": ["StatefulPartitionedCall/Unetpp_16_16_32_64_128_256/x_0_3_a_act/Relu", "StatefulPartitionedCall/Unetpp_16_16_32_64_128_256/x_0_3_b_conv/Conv2D_weights", "StatefulPartitionedCall/Unetpp_16_16_32_64_128_256/x_0_3_b_conv/Conv2D_bn_offset"], "device": "/device:CPU:0", "attr": {"num_host_args": {"i": "0"}, "data_format": {"s": "TkhXQw=="}, "filter_format": {"s": "SFdJTw=="}, "_input_shapes": {"list": {"shape": [{"dim": [{"size": "-2"}, {"size": "224"}, {"size": "224"}, {"size": "16"}]}, {"dim": [{"size": "3"}, {"size": "3"}, {"size": "16"}, {"size": "16"}]}]}}, "fused_ops": {"list": {"s": ["Qmlhc0FkZA==", "UmVsdQ=="]}}, "num_args": {"i": "1"}, "strides": {"list": {"i": ["1", "1", "1", "1"]}}, "TArgs": {"list": {"type": ["DT_FLOAT"]}}, "padding": {"s": "U0FNRQ=="}, "use_cudnn_on_gpu": {"b": true}, "leakyrelu_alpha": {"f": 0.2}, "epsilon": {"f": 0.0}, "T": {"type": "DT_FLOAT"}, "explicit_paddings": {"list": {}}, "dilations": {"list": {"i": ["1", "1", "1", "1"]}}}}, {"name": "StatefulPartitionedCall/Unetpp_16_16_32_64_128_256/up_2_2/BiasAdd", "op": "BiasAdd", "input": ["StatefulPartitionedCall/Unetpp_16_16_32_64_128_256/up_2_2/conv2d_transpose", "StatefulPartitionedCall/Unetpp_16_16_32_64_128_256/up_2_2/BiasAdd/ReadVariableOp"], "attr": {"_input_shapes": {"list": {"shape": [{"dim": [{"size": "-2"}, {"size": "112"}, {"size": "112"}, {"size": "16"}]}, {"dim": [{"size": "16"}]}]}}, "T": {"type": "DT_FLOAT"}, "data_format": {"s": "TkhXQw=="}}}, {"name": "StatefulPartitionedCall/Unetpp_16_16_32_64_128_256/up_3_2/strided_slice", "op": "StridedSlice", "input": ["StatefulPartitionedCall/Unetpp_16_16_32_64_128_256/up_3_2/Shape", "StatefulPartitionedCall/Unetpp_16_16_32_64_128_256/up_3_2/strided_slice/stack", "StatefulPartitionedCall/Unetpp_16_16_32_64_128_256/up_3_2/strided_slice/stack_1", "StatefulPartitionedCall/Unetpp_16_16_32_64_128_256/up_3_2/strided_slice/stack_2"], "attr": {"shrink_axis_mask": {"i": "1"}, "Index": {"type": "DT_INT32"}, "new_axis_mask": {"i": "0"}, "begin_mask": {"i": "0"}, "end_mask": {"i": "0"}, "T": {"type": "DT_INT32"}, "ellipsis_mask": {"i": "0"}}}, {"name": "StatefulPartitionedCall/Unetpp_16_16_32_64_128_256/merge_1_3/concat", "op": "ConcatV2", "input": ["StatefulPartitionedCall/Unetpp_16_16_32_64_128_256/x_1_0_b_act/Relu", "StatefulPartitionedCall/Unetpp_16_16_32_64_128_256/x_1_1_b_act/Relu", "StatefulPartitionedCall/Unetpp_16_16_32_64_128_256/x_1_2_b_act/Relu", "StatefulPartitionedCall/Unetpp_16_16_32_64_128_256/up_2_2/BiasAdd", "StatefulPartitionedCall/Unetpp_16_16_32_64_128_256/merge_1_3/concat/axis"], "attr": {"N": {"i": "4"}, "T": {"type": "DT_FLOAT"}, "Tidx": {"type": "DT_INT32"}}}, {"name": "StatefulPartitionedCall/Unetpp_16_16_32_64_128_256/up_3_2/stack", "op": "Pack", "input": ["StatefulPartitionedCall/Unetpp_16_16_32_64_128_256/up_3_2/strided_slice", "StatefulPartitionedCall/Unetpp_16_16_32_64_128_256/up_3_2/stack/1", "StatefulPartitionedCall/Unetpp_16_16_32_64_128_256/up_3_2/stack/2", "StatefulPartitionedCall/Unetpp_16_16_32_64_128_256/up_3_2/stack/3"], "attr": {"N": {"i": "4"}, "axis": {"i": "0"}, "T": {"type": "DT_INT32"}}}, {"name": "StatefulPartitionedCall/Unetpp_16_16_32_64_128_256/x_1_3_a_act/Relu", "op": "_FusedConv2D", "input": ["StatefulPartitionedCall/Unetpp_16_16_32_64_128_256/merge_1_3/concat", "StatefulPartitionedCall/Unetpp_16_16_32_64_128_256/x_1_3_a_conv/Conv2D_weights", "StatefulPartitionedCall/Unetpp_16_16_32_64_128_256/x_1_3_a_conv/Conv2D_bn_offset"], "device": "/device:CPU:0", "attr": {"num_host_args": {"i": "0"}, "data_format": {"s": "TkhXQw=="}, "filter_format": {"s": "SFdJTw=="}, "_input_shapes": {"list": {"shape": [{"dim": [{"size": "-2"}, {"size": "112"}, {"size": "112"}, {"size": "64"}]}, {"dim": [{"size": "3"}, {"size": "3"}, {"size": "64"}, {"size": "16"}]}]}}, "strides": {"list": {"i": ["1", "1", "1", "1"]}}, "num_args": {"i": "1"}, "fused_ops": {"list": {"s": ["Qmlhc0FkZA==", "UmVsdQ=="]}}, "TArgs": {"list": {"type": ["DT_FLOAT"]}}, "padding": {"s": "U0FNRQ=="}, "use_cudnn_on_gpu": {"b": true}, "leakyrelu_alpha": {"f": 0.2}, "epsilon": {"f": 0.0}, "T": {"type": "DT_FLOAT"}, "explicit_paddings": {"list": {}}, "dilations": {"list": {"i": ["1", "1", "1", "1"]}}}}, {"name": "StatefulPartitionedCall/Unetpp_16_16_32_64_128_256/up_3_2/conv2d_transpose", "op": "Conv2DBackpropInput", "input": ["StatefulPartitionedCall/Unetpp_16_16_32_64_128_256/up_3_2/stack", "StatefulPartitionedCall/Unetpp_16_16_32_64_128_256/up_3_2/conv2d_transpose/ReadVariableOp", "StatefulPartitionedCall/Unetpp_16_16_32_64_128_256/x_3_2_b_act/Relu"], "attr": {"padding": {"s": "U0FNRQ=="}, "data_format": {"s": "TkhXQw=="}, "use_cudnn_on_gpu": {"b": true}, "strides": {"list": {"i": ["1", "2", "2", "1"]}}, "T": {"type": "DT_FLOAT"}, "explicit_paddings": {"list": {}}, "dilations": {"list": {"i": ["1", "1", "1", "1"]}}}}, {"name": "StatefulPartitionedCall/Unetpp_16_16_32_64_128_256/x_1_3_b_act/Relu", "op": "_FusedConv2D", "input": ["StatefulPartitionedCall/Unetpp_16_16_32_64_128_256/x_1_3_a_act/Relu", "StatefulPartitionedCall/Unetpp_16_16_32_64_128_256/x_1_3_b_conv/Conv2D_weights", "StatefulPartitionedCall/Unetpp_16_16_32_64_128_256/x_1_3_b_conv/Conv2D_bn_offset"], "device": "/device:CPU:0", "attr": {"num_host_args": {"i": "0"}, "data_format": {"s": "TkhXQw=="}, "filter_format": {"s": "SFdJTw=="}, "_input_shapes": {"list": {"shape": [{"dim": [{"size": "-2"}, {"size": "112"}, {"size": "112"}, {"size": "16"}]}, {"dim": [{"size": "3"}, {"size": "3"}, {"size": "16"}, {"size": "16"}]}]}}, "fused_ops": {"list": {"s": ["Qmlhc0FkZA==", "UmVsdQ=="]}}, "num_args": {"i": "1"}, "strides": {"list": {"i": ["1", "1", "1", "1"]}}, "TArgs": {"list": {"type": ["DT_FLOAT"]}}, "padding": {"s": "U0FNRQ=="}, "use_cudnn_on_gpu": {"b": true}, "leakyrelu_alpha": {"f": 0.2}, "epsilon": {"f": 0.0}, "T": {"type": "DT_FLOAT"}, "explicit_paddings": {"list": {}}, "dilations": {"list": {"i": ["1", "1", "1", "1"]}}}}, {"name": "StatefulPartitionedCall/Unetpp_16_16_32_64_128_256/up_3_2/BiasAdd", "op": "BiasAdd", "input": ["StatefulPartitionedCall/Unetpp_16_16_32_64_128_256/up_3_2/conv2d_transpose", "StatefulPartitionedCall/Unetpp_16_16_32_64_128_256/up_3_2/BiasAdd/ReadVariableOp"], "attr": {"_input_shapes": {"list": {"shape": [{"dim": [{"size": "-2"}, {"size": "56"}, {"size": "56"}, {"size": "32"}]}, {"dim": [{"size": "32"}]}]}}, "T": {"type": "DT_FLOAT"}, "data_format": {"s": "TkhXQw=="}}}, {"name": "StatefulPartitionedCall/Unetpp_16_16_32_64_128_256/up_1_3/Shape", "op": "Shape", "input": ["StatefulPartitionedCall/Unetpp_16_16_32_64_128_256/x_1_3_b_act/Relu"], "attr": {"T": {"type": "DT_FLOAT"}, "out_type": {"type": "DT_INT32"}}, "experimentalType": {"typeId": "TFT_PRODUCT", "args": [{"typeId": "TFT_SHAPE_TENSOR", "args": [{"typeId": "TFT_INT32"}]}]}}, {"name": "StatefulPartitionedCall/Unetpp_16_16_32_64_128_256/merge_2_3/concat", "op": "ConcatV2", "input": ["StatefulPartitionedCall/Unetpp_16_16_32_64_128_256/x_2_0_b_act/Relu", "StatefulPartitionedCall/Unetpp_16_16_32_64_128_256/x_2_1_b_act/Relu", "StatefulPartitionedCall/Unetpp_16_16_32_64_128_256/x_2_2_b_act/Relu", "StatefulPartitionedCall/Unetpp_16_16_32_64_128_256/up_3_2/BiasAdd", "StatefulPartitionedCall/Unetpp_16_16_32_64_128_256/merge_2_3/concat/axis"], "attr": {"N": {"i": "4"}, "T": {"type": "DT_FLOAT"}, "Tidx": {"type": "DT_INT32"}}}, {"name": "StatefulPartitionedCall/Unetpp_16_16_32_64_128_256/up_1_3/strided_slice", "op": "StridedSlice", "input": ["StatefulPartitionedCall/Unetpp_16_16_32_64_128_256/up_1_3/Shape", "StatefulPartitionedCall/Unetpp_16_16_32_64_128_256/up_1_3/strided_slice/stack", "StatefulPartitionedCall/Unetpp_16_16_32_64_128_256/up_1_3/strided_slice/stack_1", "StatefulPartitionedCall/Unetpp_16_16_32_64_128_256/up_1_3/strided_slice/stack_2"], "attr": {"shrink_axis_mask": {"i": "1"}, "new_axis_mask": {"i": "0"}, "Index": {"type": "DT_INT32"}, "begin_mask": {"i": "0"}, "T": {"type": "DT_INT32"}, "end_mask": {"i": "0"}, "ellipsis_mask": {"i": "0"}}}, {"name": "StatefulPartitionedCall/Unetpp_16_16_32_64_128_256/x_2_3_a_act/Relu", "op": "_FusedConv2D", "input": ["StatefulPartitionedCall/Unetpp_16_16_32_64_128_256/merge_2_3/concat", "StatefulPartitionedCall/Unetpp_16_16_32_64_128_256/x_2_3_a_conv/Conv2D_weights", "StatefulPartitionedCall/Unetpp_16_16_32_64_128_256/x_2_3_a_conv/Conv2D_bn_offset"], "device": "/device:CPU:0", "attr": {"num_host_args": {"i": "0"}, "data_format": {"s": "TkhXQw=="}, "filter_format": {"s": "SFdJTw=="}, "_input_shapes": {"list": {"shape": [{"dim": [{"size": "-2"}, {"size": "56"}, {"size": "56"}, {"size": "128"}]}, {"dim": [{"size": "3"}, {"size": "3"}, {"size": "128"}, {"size": "32"}]}]}}, "strides": {"list": {"i": ["1", "1", "1", "1"]}}, "num_args": {"i": "1"}, "fused_ops": {"list": {"s": ["Qmlhc0FkZA==", "UmVsdQ=="]}}, "TArgs": {"list": {"type": ["DT_FLOAT"]}}, "padding": {"s": "U0FNRQ=="}, "use_cudnn_on_gpu": {"b": true}, "leakyrelu_alpha": {"f": 0.2}, "epsilon": {"f": 0.0}, "T": {"type": "DT_FLOAT"}, "explicit_paddings": {"list": {}}, "dilations": {"list": {"i": ["1", "1", "1", "1"]}}}}, {"name": "StatefulPartitionedCall/Unetpp_16_16_32_64_128_256/up_1_3/stack", "op": "Pack", "input": ["StatefulPartitionedCall/Unetpp_16_16_32_64_128_256/up_1_3/strided_slice", "StatefulPartitionedCall/Unetpp_16_16_32_64_128_256/up_1_3/stack/1", "StatefulPartitionedCall/Unetpp_16_16_32_64_128_256/up_1_3/stack/2", "StatefulPartitionedCall/Unetpp_16_16_32_64_128_256/up_1_3/stack/3"], "attr": {"N": {"i": "4"}, "axis": {"i": "0"}, "T": {"type": "DT_INT32"}}}, {"name": "StatefulPartitionedCall/Unetpp_16_16_32_64_128_256/x_2_3_b_act/Relu", "op": "_FusedConv2D", "input": ["StatefulPartitionedCall/Unetpp_16_16_32_64_128_256/x_2_3_a_act/Relu", "StatefulPartitionedCall/Unetpp_16_16_32_64_128_256/x_2_3_b_conv/Conv2D_weights", "StatefulPartitionedCall/Unetpp_16_16_32_64_128_256/x_2_3_b_conv/Conv2D_bn_offset"], "device": "/device:CPU:0", "attr": {"num_host_args": {"i": "0"}, "_input_shapes": {"list": {"shape": [{"dim": [{"size": "-2"}, {"size": "56"}, {"size": "56"}, {"size": "32"}]}, {"dim": [{"size": "3"}, {"size": "3"}, {"size": "32"}, {"size": "32"}]}]}}, "filter_format": {"s": "SFdJTw=="}, "data_format": {"s": "TkhXQw=="}, "strides": {"list": {"i": ["1", "1", "1", "1"]}}, "num_args": {"i": "1"}, "fused_ops": {"list": {"s": ["Qmlhc0FkZA==", "UmVsdQ=="]}}, "TArgs": {"list": {"type": ["DT_FLOAT"]}}, "padding": {"s": "U0FNRQ=="}, "use_cudnn_on_gpu": {"b": true}, "leakyrelu_alpha": {"f": 0.2}, "epsilon": {"f": 0.0}, "T": {"type": "DT_FLOAT"}, "explicit_paddings": {"list": {}}, "dilations": {"list": {"i": ["1", "1", "1", "1"]}}}}, {"name": "StatefulPartitionedCall/Unetpp_16_16_32_64_128_256/up_1_3/conv2d_transpose", "op": "Conv2DBackpropInput", "input": ["StatefulPartitionedCall/Unetpp_16_16_32_64_128_256/up_1_3/stack", "StatefulPartitionedCall/Unetpp_16_16_32_64_128_256/up_1_3/conv2d_transpose/ReadVariableOp", "StatefulPartitionedCall/Unetpp_16_16_32_64_128_256/x_1_3_b_act/Relu"], "attr": {"padding": {"s": "U0FNRQ=="}, "data_format": {"s": "TkhXQw=="}, "use_cudnn_on_gpu": {"b": true}, "strides": {"list": {"i": ["1", "2", "2", "1"]}}, "T": {"type": "DT_FLOAT"}, "explicit_paddings": {"list": {}}, "dilations": {"list": {"i": ["1", "1", "1", "1"]}}}}, {"name": "StatefulPartitionedCall/Unetpp_16_16_32_64_128_256/up_2_3/Shape", "op": "Shape", "input": ["StatefulPartitionedCall/Unetpp_16_16_32_64_128_256/x_2_3_b_act/Relu"], "attr": {"T": {"type": "DT_FLOAT"}, "out_type": {"type": "DT_INT32"}}, "experimentalType": {"typeId": "TFT_PRODUCT", "args": [{"typeId": "TFT_SHAPE_TENSOR", "args": [{"typeId": "TFT_INT32"}]}]}}, {"name": "StatefulPartitionedCall/Unetpp_16_16_32_64_128_256/up_1_3/BiasAdd", "op": "BiasAdd", "input": ["StatefulPartitionedCall/Unetpp_16_16_32_64_128_256/up_1_3/conv2d_transpose", "StatefulPartitionedCall/Unetpp_16_16_32_64_128_256/up_1_3/BiasAdd/ReadVariableOp"], "attr": {"data_format": {"s": "TkhXQw=="}, "T": {"type": "DT_FLOAT"}, "_input_shapes": {"list": {"shape": [{"dim": [{"size": "-2"}, {"size": "224"}, {"size": "224"}, {"size": "16"}]}, {"dim": [{"size": "16"}]}]}}}}, {"name": "StatefulPartitionedCall/Unetpp_16_16_32_64_128_256/up_2_3/strided_slice", "op": "StridedSlice", "input": ["StatefulPartitionedCall/Unetpp_16_16_32_64_128_256/up_2_3/Shape", "StatefulPartitionedCall/Unetpp_16_16_32_64_128_256/up_2_3/strided_slice/stack", "StatefulPartitionedCall/Unetpp_16_16_32_64_128_256/up_2_3/strided_slice/stack_1", "StatefulPartitionedCall/Unetpp_16_16_32_64_128_256/up_2_3/strided_slice/stack_2"], "attr": {"shrink_axis_mask": {"i": "1"}, "Index": {"type": "DT_INT32"}, "new_axis_mask": {"i": "0"}, "begin_mask": {"i": "0"}, "end_mask": {"i": "0"}, "T": {"type": "DT_INT32"}, "ellipsis_mask": {"i": "0"}}}, {"name": "StatefulPartitionedCall/Unetpp_16_16_32_64_128_256/merge_0_4/concat", "op": "ConcatV2", "input": ["StatefulPartitionedCall/Unetpp_16_16_32_64_128_256/x_0_0_b_act/Relu", "StatefulPartitionedCall/Unetpp_16_16_32_64_128_256/x_0_1_b_act/Relu", "StatefulPartitionedCall/Unetpp_16_16_32_64_128_256/x_0_2_b_act/Relu", "StatefulPartitionedCall/Unetpp_16_16_32_64_128_256/x_0_3_b_act/Relu", "StatefulPartitionedCall/Unetpp_16_16_32_64_128_256/up_1_3/BiasAdd", "StatefulPartitionedCall/Unetpp_16_16_32_64_128_256/merge_0_4/concat/axis"], "attr": {"N": {"i": "5"}, "T": {"type": "DT_FLOAT"}, "Tidx": {"type": "DT_INT32"}}}, {"name": "StatefulPartitionedCall/Unetpp_16_16_32_64_128_256/up_2_3/stack", "op": "Pack", "input": ["StatefulPartitionedCall/Unetpp_16_16_32_64_128_256/up_2_3/strided_slice", "StatefulPartitionedCall/Unetpp_16_16_32_64_128_256/up_2_3/stack/1", "StatefulPartitionedCall/Unetpp_16_16_32_64_128_256/up_2_3/stack/2", "StatefulPartitionedCall/Unetpp_16_16_32_64_128_256/up_2_3/stack/3"], "attr": {"N": {"i": "4"}, "axis": {"i": "0"}, "T": {"type": "DT_INT32"}}}, {"name": "StatefulPartitionedCall/Unetpp_16_16_32_64_128_256/x_0_4_a_act/Relu", "op": "_FusedConv2D", "input": ["StatefulPartitionedCall/Unetpp_16_16_32_64_128_256/merge_0_4/concat", "StatefulPartitionedCall/Unetpp_16_16_32_64_128_256/x_0_4_a_conv/Conv2D_weights", "StatefulPartitionedCall/Unetpp_16_16_32_64_128_256/x_0_4_a_conv/Conv2D_bn_offset"], "device": "/device:CPU:0", "attr": {"num_host_args": {"i": "0"}, "data_format": {"s": "TkhXQw=="}, "filter_format": {"s": "SFdJTw=="}, "_input_shapes": {"list": {"shape": [{"dim": [{"size": "-2"}, {"size": "224"}, {"size": "224"}, {"size": "80"}]}, {"dim": [{"size": "3"}, {"size": "3"}, {"size": "80"}, {"size": "16"}]}]}}, "strides": {"list": {"i": ["1", "1", "1", "1"]}}, "num_args": {"i": "1"}, "fused_ops": {"list": {"s": ["Qmlhc0FkZA==", "UmVsdQ=="]}}, "TArgs": {"list": {"type": ["DT_FLOAT"]}}, "padding": {"s": "U0FNRQ=="}, "use_cudnn_on_gpu": {"b": true}, "leakyrelu_alpha": {"f": 0.2}, "epsilon": {"f": 0.0}, "T": {"type": "DT_FLOAT"}, "explicit_paddings": {"list": {}}, "dilations": {"list": {"i": ["1", "1", "1", "1"]}}}}, {"name": "StatefulPartitionedCall/Unetpp_16_16_32_64_128_256/up_2_3/conv2d_transpose", "op": "Conv2DBackpropInput", "input": ["StatefulPartitionedCall/Unetpp_16_16_32_64_128_256/up_2_3/stack", "StatefulPartitionedCall/Unetpp_16_16_32_64_128_256/up_2_3/conv2d_transpose/ReadVariableOp", "StatefulPartitionedCall/Unetpp_16_16_32_64_128_256/x_2_3_b_act/Relu"], "attr": {"padding": {"s": "U0FNRQ=="}, "data_format": {"s": "TkhXQw=="}, "strides": {"list": {"i": ["1", "2", "2", "1"]}}, "use_cudnn_on_gpu": {"b": true}, "T": {"type": "DT_FLOAT"}, "explicit_paddings": {"list": {}}, "dilations": {"list": {"i": ["1", "1", "1", "1"]}}}}, {"name": "StatefulPartitionedCall/Unetpp_16_16_32_64_128_256/x_0_4_b_act/Relu", "op": "_FusedConv2D", "input": ["StatefulPartitionedCall/Unetpp_16_16_32_64_128_256/x_0_4_a_act/Relu", "StatefulPartitionedCall/Unetpp_16_16_32_64_128_256/x_0_4_b_conv/Conv2D_weights", "StatefulPartitionedCall/Unetpp_16_16_32_64_128_256/x_0_4_b_conv/Conv2D_bn_offset"], "device": "/device:CPU:0", "attr": {"num_host_args": {"i": "0"}, "data_format": {"s": "TkhXQw=="}, "filter_format": {"s": "SFdJTw=="}, "_input_shapes": {"list": {"shape": [{"dim": [{"size": "-2"}, {"size": "224"}, {"size": "224"}, {"size": "16"}]}, {"dim": [{"size": "3"}, {"size": "3"}, {"size": "16"}, {"size": "16"}]}]}}, "strides": {"list": {"i": ["1", "1", "1", "1"]}}, "num_args": {"i": "1"}, "fused_ops": {"list": {"s": ["Qmlhc0FkZA==", "UmVsdQ=="]}}, "TArgs": {"list": {"type": ["DT_FLOAT"]}}, "padding": {"s": "U0FNRQ=="}, "use_cudnn_on_gpu": {"b": true}, "leakyrelu_alpha": {"f": 0.2}, "epsilon": {"f": 0.0}, "T": {"type": "DT_FLOAT"}, "explicit_paddings": {"list": {}}, "dilations": {"list": {"i": ["1", "1", "1", "1"]}}}}, {"name": "StatefulPartitionedCall/Unetpp_16_16_32_64_128_256/up_2_3/BiasAdd", "op": "BiasAdd", "input": ["StatefulPartitionedCall/Unetpp_16_16_32_64_128_256/up_2_3/conv2d_transpose", "StatefulPartitionedCall/Unetpp_16_16_32_64_128_256/up_2_3/BiasAdd/ReadVariableOp"], "attr": {"data_format": {"s": "TkhXQw=="}, "T": {"type": "DT_FLOAT"}, "_input_shapes": {"list": {"shape": [{"dim": [{"size": "-2"}, {"size": "112"}, {"size": "112"}, {"size": "16"}]}, {"dim": [{"size": "16"}]}]}}}}, {"name": "StatefulPartitionedCall/Unetpp_16_16_32_64_128_256/merge_1_4/concat", "op": "ConcatV2", "input": ["StatefulPartitionedCall/Unetpp_16_16_32_64_128_256/x_1_0_b_act/Relu", "StatefulPartitionedCall/Unetpp_16_16_32_64_128_256/x_1_1_b_act/Relu", "StatefulPartitionedCall/Unetpp_16_16_32_64_128_256/x_1_2_b_act/Relu", "StatefulPartitionedCall/Unetpp_16_16_32_64_128_256/x_1_3_b_act/Relu", "StatefulPartitionedCall/Unetpp_16_16_32_64_128_256/up_2_3/BiasAdd", "StatefulPartitionedCall/Unetpp_16_16_32_64_128_256/merge_1_4/concat/axis"], "attr": {"N": {"i": "5"}, "Tidx": {"type": "DT_INT32"}, "T": {"type": "DT_FLOAT"}}}, {"name": "StatefulPartitionedCall/Unetpp_16_16_32_64_128_256/x_1_4_a_act/Relu", "op": "_FusedConv2D", "input": ["StatefulPartitionedCall/Unetpp_16_16_32_64_128_256/merge_1_4/concat", "StatefulPartitionedCall/Unetpp_16_16_32_64_128_256/x_1_4_a_conv/Conv2D_weights", "StatefulPartitionedCall/Unetpp_16_16_32_64_128_256/x_1_4_a_conv/Conv2D_bn_offset"], "device": "/device:CPU:0", "attr": {"num_host_args": {"i": "0"}, "_input_shapes": {"list": {"shape": [{"dim": [{"size": "-2"}, {"size": "112"}, {"size": "112"}, {"size": "80"}]}, {"dim": [{"size": "3"}, {"size": "3"}, {"size": "80"}, {"size": "16"}]}]}}, "filter_format": {"s": "SFdJTw=="}, "data_format": {"s": "TkhXQw=="}, "fused_ops": {"list": {"s": ["Qmlhc0FkZA==", "UmVsdQ=="]}}, "num_args": {"i": "1"}, "strides": {"list": {"i": ["1", "1", "1", "1"]}}, "TArgs": {"list": {"type": ["DT_FLOAT"]}}, "padding": {"s": "U0FNRQ=="}, "use_cudnn_on_gpu": {"b": true}, "leakyrelu_alpha": {"f": 0.2}, "epsilon": {"f": 0.0}, "T": {"type": "DT_FLOAT"}, "explicit_paddings": {"list": {}}, "dilations": {"list": {"i": ["1", "1", "1", "1"]}}}}, {"name": "StatefulPartitionedCall/Unetpp_16_16_32_64_128_256/x_1_4_b_act/Relu", "op": "_FusedConv2D", "input": ["StatefulPartitionedCall/Unetpp_16_16_32_64_128_256/x_1_4_a_act/Relu", "StatefulPartitionedCall/Unetpp_16_16_32_64_128_256/x_1_4_b_conv/Conv2D_weights", "StatefulPartitionedCall/Unetpp_16_16_32_64_128_256/x_1_4_b_conv/Conv2D_bn_offset"], "device": "/device:CPU:0", "attr": {"num_host_args": {"i": "0"}, "data_format": {"s": "TkhXQw=="}, "filter_format": {"s": "SFdJTw=="}, "_input_shapes": {"list": {"shape": [{"dim": [{"size": "-2"}, {"size": "112"}, {"size": "112"}, {"size": "16"}]}, {"dim": [{"size": "3"}, {"size": "3"}, {"size": "16"}, {"size": "16"}]}]}}, "fused_ops": {"list": {"s": ["Qmlhc0FkZA==", "UmVsdQ=="]}}, "num_args": {"i": "1"}, "strides": {"list": {"i": ["1", "1", "1", "1"]}}, "TArgs": {"list": {"type": ["DT_FLOAT"]}}, "padding": {"s": "U0FNRQ=="}, "use_cudnn_on_gpu": {"b": true}, "leakyrelu_alpha": {"f": 0.2}, "epsilon": {"f": 0.0}, "T": {"type": "DT_FLOAT"}, "explicit_paddings": {"list": {}}, "dilations": {"list": {"i": ["1", "1", "1", "1"]}}}}, {"name": "StatefulPartitionedCall/Unetpp_16_16_32_64_128_256/up_1_4/Shape", "op": "Shape", "input": ["StatefulPartitionedCall/Unetpp_16_16_32_64_128_256/x_1_4_b_act/Relu"], "attr": {"T": {"type": "DT_FLOAT"}, "out_type": {"type": "DT_INT32"}}, "experimentalType": {"typeId": "TFT_PRODUCT", "args": [{"typeId": "TFT_SHAPE_TENSOR", "args": [{"typeId": "TFT_INT32"}]}]}}, {"name": "StatefulPartitionedCall/Unetpp_16_16_32_64_128_256/up_1_4/strided_slice", "op": "StridedSlice", "input": ["StatefulPartitionedCall/Unetpp_16_16_32_64_128_256/up_1_4/Shape", "StatefulPartitionedCall/Unetpp_16_16_32_64_128_256/up_1_4/strided_slice/stack", "StatefulPartitionedCall/Unetpp_16_16_32_64_128_256/up_1_4/strided_slice/stack_1", "StatefulPartitionedCall/Unetpp_16_16_32_64_128_256/up_1_4/strided_slice/stack_2"], "attr": {"shrink_axis_mask": {"i": "1"}, "new_axis_mask": {"i": "0"}, "Index": {"type": "DT_INT32"}, "begin_mask": {"i": "0"}, "T": {"type": "DT_INT32"}, "end_mask": {"i": "0"}, "ellipsis_mask": {"i": "0"}}}, {"name": "StatefulPartitionedCall/Unetpp_16_16_32_64_128_256/up_1_4/stack", "op": "Pack", "input": ["StatefulPartitionedCall/Unetpp_16_16_32_64_128_256/up_1_4/strided_slice", "StatefulPartitionedCall/Unetpp_16_16_32_64_128_256/up_1_4/stack/1", "StatefulPartitionedCall/Unetpp_16_16_32_64_128_256/up_1_4/stack/2", "StatefulPartitionedCall/Unetpp_16_16_32_64_128_256/up_1_4/stack/3"], "attr": {"N": {"i": "4"}, "axis": {"i": "0"}, "T": {"type": "DT_INT32"}}}, {"name": "StatefulPartitionedCall/Unetpp_16_16_32_64_128_256/up_1_4/conv2d_transpose", "op": "Conv2DBackpropInput", "input": ["StatefulPartitionedCall/Unetpp_16_16_32_64_128_256/up_1_4/stack", "StatefulPartitionedCall/Unetpp_16_16_32_64_128_256/up_1_4/conv2d_transpose/ReadVariableOp", "StatefulPartitionedCall/Unetpp_16_16_32_64_128_256/x_1_4_b_act/Relu"], "attr": {"padding": {"s": "U0FNRQ=="}, "data_format": {"s": "TkhXQw=="}, "use_cudnn_on_gpu": {"b": true}, "strides": {"list": {"i": ["1", "2", "2", "1"]}}, "T": {"type": "DT_FLOAT"}, "explicit_paddings": {"list": {}}, "dilations": {"list": {"i": ["1", "1", "1", "1"]}}}}, {"name": "StatefulPartitionedCall/Unetpp_16_16_32_64_128_256/up_1_4/BiasAdd", "op": "BiasAdd", "input": ["StatefulPartitionedCall/Unetpp_16_16_32_64_128_256/up_1_4/conv2d_transpose", "StatefulPartitionedCall/Unetpp_16_16_32_64_128_256/up_1_4/BiasAdd/ReadVariableOp"], "attr": {"data_format": {"s": "TkhXQw=="}, "T": {"type": "DT_FLOAT"}, "_input_shapes": {"list": {"shape": [{"dim": [{"size": "-2"}, {"size": "224"}, {"size": "224"}, {"size": "16"}]}, {"dim": [{"size": "16"}]}]}}}}, {"name": "StatefulPartitionedCall/Unetpp_16_16_32_64_128_256/merge_0_5/concat", "op": "ConcatV2", "input": ["StatefulPartitionedCall/Unetpp_16_16_32_64_128_256/x_0_0_b_act/Relu", "StatefulPartitionedCall/Unetpp_16_16_32_64_128_256/x_0_1_b_act/Relu", "StatefulPartitionedCall/Unetpp_16_16_32_64_128_256/x_0_2_b_act/Relu", "StatefulPartitionedCall/Unetpp_16_16_32_64_128_256/x_0_3_b_act/Relu", "StatefulPartitionedCall/Unetpp_16_16_32_64_128_256/x_0_4_b_act/Relu", "StatefulPartitionedCall/Unetpp_16_16_32_64_128_256/up_1_4/BiasAdd", "StatefulPartitionedCall/Unetpp_16_16_32_64_128_256/merge_0_5/concat/axis"], "attr": {"N": {"i": "6"}, "T": {"type": "DT_FLOAT"}, "Tidx": {"type": "DT_INT32"}}}, {"name": "StatefulPartitionedCall/Unetpp_16_16_32_64_128_256/x_0_5_a_act/Relu", "op": "_FusedConv2D", "input": ["StatefulPartitionedCall/Unetpp_16_16_32_64_128_256/merge_0_5/concat", "StatefulPartitionedCall/Unetpp_16_16_32_64_128_256/x_0_5_a_conv/Conv2D_weights", "StatefulPartitionedCall/Unetpp_16_16_32_64_128_256/x_0_5_a_conv/Conv2D_bn_offset"], "device": "/device:CPU:0", "attr": {"num_host_args": {"i": "0"}, "data_format": {"s": "TkhXQw=="}, "filter_format": {"s": "SFdJTw=="}, "_input_shapes": {"list": {"shape": [{"dim": [{"size": "-2"}, {"size": "224"}, {"size": "224"}, {"size": "96"}]}, {"dim": [{"size": "3"}, {"size": "3"}, {"size": "96"}, {"size": "16"}]}]}}, "fused_ops": {"list": {"s": ["Qmlhc0FkZA==", "UmVsdQ=="]}}, "num_args": {"i": "1"}, "strides": {"list": {"i": ["1", "1", "1", "1"]}}, "TArgs": {"list": {"type": ["DT_FLOAT"]}}, "padding": {"s": "U0FNRQ=="}, "use_cudnn_on_gpu": {"b": true}, "leakyrelu_alpha": {"f": 0.2}, "epsilon": {"f": 0.0}, "T": {"type": "DT_FLOAT"}, "explicit_paddings": {"list": {}}, "dilations": {"list": {"i": ["1", "1", "1", "1"]}}}}, {"name": "StatefulPartitionedCall/Unetpp_16_16_32_64_128_256/x_0_5_b_act/Relu", "op": "_FusedConv2D", "input": ["StatefulPartitionedCall/Unetpp_16_16_32_64_128_256/x_0_5_a_act/Relu", "StatefulPartitionedCall/Unetpp_16_16_32_64_128_256/x_0_5_b_conv/Conv2D_weights", "StatefulPartitionedCall/Unetpp_16_16_32_64_128_256/x_0_5_b_conv/Conv2D_bn_offset"], "device": "/device:CPU:0", "attr": {"num_host_args": {"i": "0"}, "_input_shapes": {"list": {"shape": [{"dim": [{"size": "-2"}, {"size": "224"}, {"size": "224"}, {"size": "16"}]}, {"dim": [{"size": "3"}, {"size": "3"}, {"size": "16"}, {"size": "16"}]}]}}, "filter_format": {"s": "SFdJTw=="}, "data_format": {"s": "TkhXQw=="}, "fused_ops": {"list": {"s": ["Qmlhc0FkZA==", "UmVsdQ=="]}}, "num_args": {"i": "1"}, "strides": {"list": {"i": ["1", "1", "1", "1"]}}, "TArgs": {"list": {"type": ["DT_FLOAT"]}}, "padding": {"s": "U0FNRQ=="}, "use_cudnn_on_gpu": {"b": true}, "leakyrelu_alpha": {"f": 0.2}, "epsilon": {"f": 0.0}, "T": {"type": "DT_FLOAT"}, "explicit_paddings": {"list": {}}, "dilations": {"list": {"i": ["1", "1", "1", "1"]}}}}, {"name": "StatefulPartitionedCall/Unetpp_16_16_32_64_128_256/segmentation/BiasAdd", "op": "_FusedConv2D", "input": ["StatefulPartitionedCall/Unetpp_16_16_32_64_128_256/x_0_5_b_act/Relu", "StatefulPartitionedCall/Unetpp_16_16_32_64_128_256/segmentation/Conv2D/ReadVariableOp", "StatefulPartitionedCall/Unetpp_16_16_32_64_128_256/segmentation/BiasAdd/ReadVariableOp"], "device": "/device:CPU:0", "attr": {"num_host_args": {"i": "0"}, "_input_shapes": {"list": {"shape": [{"dim": [{"size": "-2"}, {"size": "224"}, {"size": "224"}, {"size": "16"}]}, {"dim": [{"size": "1"}, {"size": "1"}, {"size": "16"}, {"size": "1"}]}]}}, "filter_format": {"s": "SFdJTw=="}, "data_format": {"s": "TkhXQw=="}, "strides": {"list": {"i": ["1", "1", "1", "1"]}}, "num_args": {"i": "1"}, "fused_ops": {"list": {"s": ["Qmlhc0FkZA=="]}}, "TArgs": {"list": {"type": ["DT_FLOAT"]}}, "padding": {"s": "VkFMSUQ="}, "use_cudnn_on_gpu": {"b": true}, "leakyrelu_alpha": {"f": 0.2}, "epsilon": {"f": 0.0}, "T": {"type": "DT_FLOAT"}, "explicit_paddings": {"list": {}}, "dilations": {"list": {"i": ["1", "1", "1", "1"]}}}}, {"name": "StatefulPartitionedCall/Unetpp_16_16_32_64_128_256/corners/BiasAdd", "op": "_FusedConv2D", "input": ["StatefulPartitionedCall/Unetpp_16_16_32_64_128_256/x_0_5_b_act/Relu", "StatefulPartitionedCall/Unetpp_16_16_32_64_128_256/corners/Conv2D/ReadVariableOp", "StatefulPartitionedCall/Unetpp_16_16_32_64_128_256/corners/BiasAdd/ReadVariableOp"], "device": "/device:CPU:0", "attr": {"num_host_args": {"i": "0"}, "_input_shapes": {"list": {"shape": [{"dim": [{"size": "-2"}, {"size": "224"}, {"size": "224"}, {"size": "16"}]}, {"dim": [{"size": "1"}, {"size": "1"}, {"size": "16"}, {"size": "4"}]}]}}, "filter_format": {"s": "SFdJTw=="}, "data_format": {"s": "TkhXQw=="}, "fused_ops": {"list": {"s": ["Qmlhc0FkZA=="]}}, "num_args": {"i": "1"}, "strides": {"list": {"i": ["1", "1", "1", "1"]}}, "TArgs": {"list": {"type": ["DT_FLOAT"]}}, "padding": {"s": "VkFMSUQ="}, "use_cudnn_on_gpu": {"b": true}, "leakyrelu_alpha": {"f": 0.2}, "epsilon": {"f": 0.0}, "T": {"type": "DT_FLOAT"}, "explicit_paddings": {"list": {}}, "dilations": {"list": {"i": ["1", "1", "1", "1"]}}}}, {"name": "StatefulPartitionedCall/Unetpp_16_16_32_64_128_256/segmentation/Sigmoid", "op": "Sigmoid", "input": ["StatefulPartitionedCall/Unetpp_16_16_32_64_128_256/segmentation/BiasAdd"], "attr": {"T": {"type": "DT_FLOAT"}}}, {"name": "StatefulPartitionedCall/Unetpp_16_16_32_64_128_256/corners/Sigmoid", "op": "Sigmoid", "input": ["StatefulPartitionedCall/Unetpp_16_16_32_64_128_256/corners/BiasAdd"], "attr": {"_input_shapes": {"list": {"shape": [{"dim": [{"size": "-2"}, {"size": "224"}, {"size": "224"}, {"size": "4"}]}]}}, "T": {"type": "DT_FLOAT"}}}, {"name": "Identity_1", "op": "Identity", "input": ["StatefulPartitionedCall/Unetpp_16_16_32_64_128_256/segmentation/Sigmoid"], "attr": {"T": {"type": "DT_FLOAT"}}}, {"name": "Identity", "op": "Identity", "input": ["StatefulPartitionedCall/Unetpp_16_16_32_64_128_256/corners/Sigmoid"], "attr": {"T": {"type": "DT_FLOAT"}}}], "library": {}, "versions": {"producer": 2129}}, "weightsManifest": [{"paths": ["group1-shard1of1.bin"], "weights": [{"name": "StatefulPartitionedCall/Unetpp_16_16_32_64_128_256/corners/Conv2D/ReadVariableOp", "shape": [1, 1, 16, 4], "dtype": "float32", "quantization": {"dtype": "uint8", "min": -2.2907093482858993, "scale": 0.010654462085050696, "original_dtype": "float32"}}, {"name": "StatefulPartitionedCall/Unetpp_16_16_32_64_128_256/corners/BiasAdd/ReadVariableOp", "shape": [4], "dtype": "float32", "quantization": {"dtype": "uint8", "min": -0.32571497559547424, "scale": 0.0007004685846029544, "original_dtype": "float32"}}, {"name": "StatefulPartitionedCall/Unetpp_16_16_32_64_128_256/up_1_0/strided_slice/stack", "shape": [1], "dtype": "int32"}, {"name": "StatefulPartitionedCall/Unetpp_16_16_32_64_128_256/up_1_0/strided_slice/stack_1", "shape": [1], "dtype": "int32"}, {"name": "StatefulPartitionedCall/Unetpp_16_16_32_64_128_256/up_1_0/strided_slice/stack_2", "shape": [1], "dtype": "int32"}, {"name": "StatefulPartitionedCall/Unetpp_16_16_32_64_128_256/up_1_0/stack/1", "shape": [], "dtype": "int32"}, {"name": "StatefulPartitionedCall/Unetpp_16_16_32_64_128_256/up_1_0/stack/2", "shape": [], "dtype": "int32"}, {"name": "StatefulPartitionedCall/Unetpp_16_16_32_64_128_256/up_1_0/stack/3", "shape": [], "dtype": "int32"}, {"name": "StatefulPartitionedCall/Unetpp_16_16_32_64_128_256/up_1_0/conv2d_transpose/ReadVariableOp", "shape": [2, 2, 16, 16], "dtype": "float32", "quantization": {"dtype": "uint8", "min": -0.29813826037388225, "scale": 0.0024043408094667922, "original_dtype": "float32"}}, {"name": "StatefulPartitionedCall/Unetpp_16_16_32_64_128_256/up_1_0/BiasAdd/ReadVariableOp", "shape": [16], "dtype": "float32", "quantization": {"dtype": "uint8", "min": -0.8497493631699505, "scale": 0.006744042564840878, "original_dtype": "float32"}}, {"name": "StatefulPartitionedCall/Unetpp_16_16_32_64_128_256/merge_0_1/concat/axis", "shape": [], "dtype": "int32"}, {"name": "StatefulPartitionedCall/Unetpp_16_16_32_64_128_256/up_1_1/strided_slice/stack", "shape": [1], "dtype": "int32"}, {"name": "StatefulPartitionedCall/Unetpp_16_16_32_64_128_256/up_1_1/strided_slice/stack_1", "shape": [1], "dtype": "int32"}, {"name": "StatefulPartitionedCall/Unetpp_16_16_32_64_128_256/up_1_1/strided_slice/stack_2", "shape": [1], "dtype": "int32"}, {"name": "StatefulPartitionedCall/Unetpp_16_16_32_64_128_256/up_1_1/stack/1", "shape": [], "dtype": "int32"}, {"name": "StatefulPartitionedCall/Unetpp_16_16_32_64_128_256/up_1_1/stack/2", "shape": [], "dtype": "int32"}, {"name": "StatefulPartitionedCall/Unetpp_16_16_32_64_128_256/up_1_1/stack/3", "shape": [], "dtype": "int32"}, {"name": "StatefulPartitionedCall/Unetpp_16_16_32_64_128_256/up_1_1/conv2d_transpose/ReadVariableOp", "shape": [2, 2, 16, 16], "dtype": "float32", "quantization": {"dtype": "uint8", "min": -0.5522474464248208, "scale": 0.0044898166376001695, "original_dtype": "float32"}}, {"name": "StatefulPartitionedCall/Unetpp_16_16_32_64_128_256/up_1_1/BiasAdd/ReadVariableOp", "shape": [16], "dtype": "float32", "quantization": {"dtype": "uint8", "min": -0.6918585370568668, "scale": 0.006589128924351113, "original_dtype": "float32"}}, {"name": "StatefulPartitionedCall/Unetpp_16_16_32_64_128_256/merge_0_2/concat/axis", "shape": [], "dtype": "int32"}, {"name": "StatefulPartitionedCall/Unetpp_16_16_32_64_128_256/up_1_2/strided_slice/stack", "shape": [1], "dtype": "int32"}, {"name": "StatefulPartitionedCall/Unetpp_16_16_32_64_128_256/up_1_2/strided_slice/stack_1", "shape": [1], "dtype": "int32"}, {"name": "StatefulPartitionedCall/Unetpp_16_16_32_64_128_256/up_1_2/strided_slice/stack_2", "shape": [1], "dtype": "int32"}, {"name": "StatefulPartitionedCall/Unetpp_16_16_32_64_128_256/up_1_2/stack/1", "shape": [], "dtype": "int32"}, {"name": "StatefulPartitionedCall/Unetpp_16_16_32_64_128_256/up_1_2/stack/2", "shape": [], "dtype": "int32"}, {"name": "StatefulPartitionedCall/Unetpp_16_16_32_64_128_256/up_1_2/stack/3", "shape": [], "dtype": "int32"}, {"name": "StatefulPartitionedCall/Unetpp_16_16_32_64_128_256/up_1_2/conv2d_transpose/ReadVariableOp", "shape": [2, 2, 16, 16], "dtype": "float32", "quantization": {"dtype": "uint8", "min": -0.5995092805694131, "scale": 0.004720545516294592, "original_dtype": "float32"}}, {"name": "StatefulPartitionedCall/Unetpp_16_16_32_64_128_256/up_1_2/BiasAdd/ReadVariableOp", "shape": [16], "dtype": "float32", "quantization": {"dtype": "uint8", "min": -1.0900480363883223, "scale": 0.009396965830933813, "original_dtype": "float32"}}, {"name": "StatefulPartitionedCall/Unetpp_16_16_32_64_128_256/merge_0_3/concat/axis", "shape": [], "dtype": "int32"}, {"name": "StatefulPartitionedCall/Unetpp_16_16_32_64_128_256/up_1_3/strided_slice/stack", "shape": [1], "dtype": "int32"}, {"name": "StatefulPartitionedCall/Unetpp_16_16_32_64_128_256/up_1_3/strided_slice/stack_1", "shape": [1], "dtype": "int32"}, {"name": "StatefulPartitionedCall/Unetpp_16_16_32_64_128_256/up_1_3/strided_slice/stack_2", "shape": [1], "dtype": "int32"}, {"name": "StatefulPartitionedCall/Unetpp_16_16_32_64_128_256/up_1_3/stack/1", "shape": [], "dtype": "int32"}, {"name": "StatefulPartitionedCall/Unetpp_16_16_32_64_128_256/up_1_3/stack/2", "shape": [], "dtype": "int32"}, {"name": "StatefulPartitionedCall/Unetpp_16_16_32_64_128_256/up_1_3/stack/3", "shape": [], "dtype": "int32"}, {"name": "StatefulPartitionedCall/Unetpp_16_16_32_64_128_256/up_1_3/conv2d_transpose/ReadVariableOp", "shape": [2, 2, 16, 16], "dtype": "float32", "quantization": {"dtype": "uint8", "min": -0.5492388898251103, "scale": 0.005662256596135158, "original_dtype": "float32"}}, {"name": "StatefulPartitionedCall/Unetpp_16_16_32_64_128_256/up_1_3/BiasAdd/ReadVariableOp", "shape": [16], "dtype": "float32", "quantization": {"dtype": "uint8", "min": -0.5078895975561702, "scale": 0.005130197955112831, "original_dtype": "float32"}}, {"name": "StatefulPartitionedCall/Unetpp_16_16_32_64_128_256/merge_0_4/concat/axis", "shape": [], "dtype": "int32"}, {"name": "StatefulPartitionedCall/Unetpp_16_16_32_64_128_256/up_1_4/strided_slice/stack", "shape": [1], "dtype": "int32"}, {"name": "StatefulPartitionedCall/Unetpp_16_16_32_64_128_256/up_1_4/strided_slice/stack_1", "shape": [1], "dtype": "int32"}, {"name": "StatefulPartitionedCall/Unetpp_16_16_32_64_128_256/up_1_4/strided_slice/stack_2", "shape": [1], "dtype": "int32"}, {"name": "StatefulPartitionedCall/Unetpp_16_16_32_64_128_256/up_1_4/stack/1", "shape": [], "dtype": "int32"}, {"name": "StatefulPartitionedCall/Unetpp_16_16_32_64_128_256/up_1_4/stack/2", "shape": [], "dtype": "int32"}, {"name": "StatefulPartitionedCall/Unetpp_16_16_32_64_128_256/up_1_4/stack/3", "shape": [], "dtype": "int32"}, {"name": "StatefulPartitionedCall/Unetpp_16_16_32_64_128_256/up_1_4/conv2d_transpose/ReadVariableOp", "shape": [2, 2, 16, 16], "dtype": "float32", "quantization": {"dtype": "uint8", "min": -0.6991455919602338, "scale": 0.006132856069826612, "original_dtype": "float32"}}, {"name": "StatefulPartitionedCall/Unetpp_16_16_32_64_128_256/up_2_0/strided_slice/stack", "shape": [1], "dtype": "int32"}, {"name": "StatefulPartitionedCall/Unetpp_16_16_32_64_128_256/up_2_0/strided_slice/stack_1", "shape": [1], "dtype": "int32"}, {"name": "StatefulPartitionedCall/Unetpp_16_16_32_64_128_256/up_2_0/strided_slice/stack_2", "shape": [1], "dtype": "int32"}, {"name": "StatefulPartitionedCall/Unetpp_16_16_32_64_128_256/up_2_0/stack/1", "shape": [], "dtype": "int32"}, {"name": "StatefulPartitionedCall/Unetpp_16_16_32_64_128_256/up_2_0/stack/2", "shape": [], "dtype": "int32"}, {"name": "StatefulPartitionedCall/Unetpp_16_16_32_64_128_256/up_2_0/stack/3", "shape": [], "dtype": "int32"}, {"name": "StatefulPartitionedCall/Unetpp_16_16_32_64_128_256/up_2_0/conv2d_transpose/ReadVariableOp", "shape": [2, 2, 16, 32], "dtype": "float32", "quantization": {"dtype": "uint8", "min": -0.5944159030914307, "scale": 0.0045031507809956866, "original_dtype": "float32"}}, {"name": "StatefulPartitionedCall/Unetpp_16_16_32_64_128_256/up_2_0/BiasAdd/ReadVariableOp", "shape": [16], "dtype": "float32", "quantization": {"dtype": "uint8", "min": -18.23247808568618, "scale": 0.14133703942392387, "original_dtype": "float32"}}, {"name": "StatefulPartitionedCall/Unetpp_16_16_32_64_128_256/merge_1_1/concat/axis", "shape": [], "dtype": "int32"}, {"name": "StatefulPartitionedCall/Unetpp_16_16_32_64_128_256/up_2_1/strided_slice/stack", "shape": [1], "dtype": "int32"}, {"name": "StatefulPartitionedCall/Unetpp_16_16_32_64_128_256/up_2_1/strided_slice/stack_1", "shape": [1], "dtype": "int32"}, {"name": "StatefulPartitionedCall/Unetpp_16_16_32_64_128_256/up_2_1/strided_slice/stack_2", "shape": [1], "dtype": "int32"}, {"name": "StatefulPartitionedCall/Unetpp_16_16_32_64_128_256/up_2_1/stack/1", "shape": [], "dtype": "int32"}, {"name": "StatefulPartitionedCall/Unetpp_16_16_32_64_128_256/up_2_1/stack/2", "shape": [], "dtype": "int32"}, {"name": "StatefulPartitionedCall/Unetpp_16_16_32_64_128_256/up_2_1/stack/3", "shape": [], "dtype": "int32"}, {"name": "StatefulPartitionedCall/Unetpp_16_16_32_64_128_256/up_2_1/conv2d_transpose/ReadVariableOp", "shape": [2, 2, 16, 32], "dtype": "float32", "quantization": {"dtype": "uint8", "min": -0.60156541595272, "scale": 0.004236376168681126, "original_dtype": "float32"}}, {"name": "StatefulPartitionedCall/Unetpp_16_16_32_64_128_256/up_2_1/BiasAdd/ReadVariableOp", "shape": [16], "dtype": "float32", "quantization": {"dtype": "uint8", "min": -18.256837276383944, "scale": 0.1393651700487324, "original_dtype": "float32"}}, {"name": "StatefulPartitionedCall/Unetpp_16_16_32_64_128_256/merge_1_2/concat/axis", "shape": [], "dtype": "int32"}, {"name": "StatefulPartitionedCall/Unetpp_16_16_32_64_128_256/up_2_2/strided_slice/stack", "shape": [1], "dtype": "int32"}, {"name": "StatefulPartitionedCall/Unetpp_16_16_32_64_128_256/up_2_2/strided_slice/stack_1", "shape": [1], "dtype": "int32"}, {"name": "StatefulPartitionedCall/Unetpp_16_16_32_64_128_256/up_2_2/strided_slice/stack_2", "shape": [1], "dtype": "int32"}, {"name": "StatefulPartitionedCall/Unetpp_16_16_32_64_128_256/up_2_2/stack/1", "shape": [], "dtype": "int32"}, {"name": "StatefulPartitionedCall/Unetpp_16_16_32_64_128_256/up_2_2/stack/2", "shape": [], "dtype": "int32"}, {"name": "StatefulPartitionedCall/Unetpp_16_16_32_64_128_256/up_2_2/stack/3", "shape": [], "dtype": "int32"}, {"name": "StatefulPartitionedCall/Unetpp_16_16_32_64_128_256/up_2_2/conv2d_transpose/ReadVariableOp", "shape": [2, 2, 16, 32], "dtype": "float32", "quantization": {"dtype": "uint8", "min": -0.6456572266185985, "scale": 0.005518437834346995, "original_dtype": "float32"}}, {"name": "StatefulPartitionedCall/Unetpp_16_16_32_64_128_256/up_2_2/BiasAdd/ReadVariableOp", "shape": [16], "dtype": "float32", "quantization": {"dtype": "uint8", "min": -17.41727618049173, "scale": 0.13194906197342218, "original_dtype": "float32"}}, {"name": "StatefulPartitionedCall/Unetpp_16_16_32_64_128_256/merge_1_3/concat/axis", "shape": [], "dtype": "int32"}, {"name": "StatefulPartitionedCall/Unetpp_16_16_32_64_128_256/up_2_3/strided_slice/stack", "shape": [1], "dtype": "int32"}, {"name": "StatefulPartitionedCall/Unetpp_16_16_32_64_128_256/up_2_3/strided_slice/stack_1", "shape": [1], "dtype": "int32"}, {"name": "StatefulPartitionedCall/Unetpp_16_16_32_64_128_256/up_2_3/strided_slice/stack_2", "shape": [1], "dtype": "int32"}, {"name": "StatefulPartitionedCall/Unetpp_16_16_32_64_128_256/up_2_3/stack/1", "shape": [], "dtype": "int32"}, {"name": "StatefulPartitionedCall/Unetpp_16_16_32_64_128_256/up_2_3/stack/2", "shape": [], "dtype": "int32"}, {"name": "StatefulPartitionedCall/Unetpp_16_16_32_64_128_256/up_2_3/stack/3", "shape": [], "dtype": "int32"}, {"name": "StatefulPartitionedCall/Unetpp_16_16_32_64_128_256/up_2_3/conv2d_transpose/ReadVariableOp", "shape": [2, 2, 16, 32], "dtype": "float32", "quantization": {"dtype": "uint8", "min": -0.598953010521683, "scale": 0.004830266213884541, "original_dtype": "float32"}}, {"name": "StatefulPartitionedCall/Unetpp_16_16_32_64_128_256/up_3_0/strided_slice/stack", "shape": [1], "dtype": "int32"}, {"name": "StatefulPartitionedCall/Unetpp_16_16_32_64_128_256/up_3_0/strided_slice/stack_1", "shape": [1], "dtype": "int32"}, {"name": "StatefulPartitionedCall/Unetpp_16_16_32_64_128_256/up_3_0/strided_slice/stack_2", "shape": [1], "dtype": "int32"}, {"name": "StatefulPartitionedCall/Unetpp_16_16_32_64_128_256/up_3_0/stack/1", "shape": [], "dtype": "int32"}, {"name": "StatefulPartitionedCall/Unetpp_16_16_32_64_128_256/up_3_0/stack/2", "shape": [], "dtype": "int32"}, {"name": "StatefulPartitionedCall/Unetpp_16_16_32_64_128_256/up_3_0/stack/3", "shape": [], "dtype": "int32"}, {"name": "StatefulPartitionedCall/Unetpp_16_16_32_64_128_256/up_3_0/conv2d_transpose/ReadVariableOp", "shape": [2, 2, 32, 64], "dtype": "float32", "quantization": {"dtype": "uint8", "min": -0.43404551814584175, "scale": 0.0037097907533832626, "original_dtype": "float32"}}, {"name": "StatefulPartitionedCall/Unetpp_16_16_32_64_128_256/up_3_0/BiasAdd/ReadVariableOp", "shape": [32], "dtype": "float32", "quantization": {"dtype": "uint8", "min": -0.5356925375321332, "scale": 0.005356925375321332, "original_dtype": "float32"}}, {"name": "StatefulPartitionedCall/Unetpp_16_16_32_64_128_256/merge_2_1/concat/axis", "shape": [], "dtype": "int32"}, {"name": "StatefulPartitionedCall/Unetpp_16_16_32_64_128_256/up_3_1/strided_slice/stack", "shape": [1], "dtype": "int32"}, {"name": "StatefulPartitionedCall/Unetpp_16_16_32_64_128_256/up_3_1/strided_slice/stack_1", "shape": [1], "dtype": "int32"}, {"name": "StatefulPartitionedCall/Unetpp_16_16_32_64_128_256/up_3_1/strided_slice/stack_2", "shape": [1], "dtype": "int32"}, {"name": "StatefulPartitionedCall/Unetpp_16_16_32_64_128_256/up_3_1/stack/1", "shape": [], "dtype": "int32"}, {"name": "StatefulPartitionedCall/Unetpp_16_16_32_64_128_256/up_3_1/stack/2", "shape": [], "dtype": "int32"}, {"name": "StatefulPartitionedCall/Unetpp_16_16_32_64_128_256/up_3_1/stack/3", "shape": [], "dtype": "int32"}, {"name": "StatefulPartitionedCall/Unetpp_16_16_32_64_128_256/up_3_1/conv2d_transpose/ReadVariableOp", "shape": [2, 2, 32, 64], "dtype": "float32", "quantization": {"dtype": "uint8", "min": -0.4710358970305499, "scale": 0.0037986765889560475, "original_dtype": "float32"}}, {"name": "StatefulPartitionedCall/Unetpp_16_16_32_64_128_256/up_3_1/BiasAdd/ReadVariableOp", "shape": [32], "dtype": "float32", "quantization": {"dtype": "uint8", "min": -0.6364472298061147, "scale": 0.004242981532040765, "original_dtype": "float32"}}, {"name": "StatefulPartitionedCall/Unetpp_16_16_32_64_128_256/merge_2_2/concat/axis", "shape": [], "dtype": "int32"}, {"name": "StatefulPartitionedCall/Unetpp_16_16_32_64_128_256/up_3_2/strided_slice/stack", "shape": [1], "dtype": "int32"}, {"name": "StatefulPartitionedCall/Unetpp_16_16_32_64_128_256/up_3_2/strided_slice/stack_1", "shape": [1], "dtype": "int32"}, {"name": "StatefulPartitionedCall/Unetpp_16_16_32_64_128_256/up_3_2/strided_slice/stack_2", "shape": [1], "dtype": "int32"}, {"name": "StatefulPartitionedCall/Unetpp_16_16_32_64_128_256/up_3_2/stack/1", "shape": [], "dtype": "int32"}, {"name": "StatefulPartitionedCall/Unetpp_16_16_32_64_128_256/up_3_2/stack/2", "shape": [], "dtype": "int32"}, {"name": "StatefulPartitionedCall/Unetpp_16_16_32_64_128_256/up_3_2/stack/3", "shape": [], "dtype": "int32"}, {"name": "StatefulPartitionedCall/Unetpp_16_16_32_64_128_256/up_3_2/conv2d_transpose/ReadVariableOp", "shape": [2, 2, 32, 64], "dtype": "float32", "quantization": {"dtype": "uint8", "min": -0.6843788128273159, "scale": 0.004624181167752135, "original_dtype": "float32"}}, {"name": "StatefulPartitionedCall/Unetpp_16_16_32_64_128_256/up_4_0/strided_slice/stack", "shape": [1], "dtype": "int32"}, {"name": "StatefulPartitionedCall/Unetpp_16_16_32_64_128_256/up_4_0/strided_slice/stack_1", "shape": [1], "dtype": "int32"}, {"name": "StatefulPartitionedCall/Unetpp_16_16_32_64_128_256/up_4_0/strided_slice/stack_2", "shape": [1], "dtype": "int32"}, {"name": "StatefulPartitionedCall/Unetpp_16_16_32_64_128_256/up_4_0/stack/1", "shape": [], "dtype": "int32"}, {"name": "StatefulPartitionedCall/Unetpp_16_16_32_64_128_256/up_4_0/stack/2", "shape": [], "dtype": "int32"}, {"name": "StatefulPartitionedCall/Unetpp_16_16_32_64_128_256/up_4_0/stack/3", "shape": [], "dtype": "int32"}, {"name": "StatefulPartitionedCall/Unetpp_16_16_32_64_128_256/up_4_0/conv2d_transpose/ReadVariableOp", "shape": [2, 2, 64, 128], "dtype": "float32", "quantization": {"dtype": "uint8", "min": -0.4563420410249747, "scale": 0.003740508532991596, "original_dtype": "float32"}}, {"name": "StatefulPartitionedCall/Unetpp_16_16_32_64_128_256/up_4_0/BiasAdd/ReadVariableOp", "shape": [64], "dtype": "float32", "quantization": {"dtype": "uint8", "min": -0.32764295094153456, "scale": 0.002951738296770582, "original_dtype": "float32"}}, {"name": "StatefulPartitionedCall/Unetpp_16_16_32_64_128_256/merge_3_1/concat/axis", "shape": [], "dtype": "int32"}, {"name": "StatefulPartitionedCall/Unetpp_16_16_32_64_128_256/up_4_1/strided_slice/stack", "shape": [1], "dtype": "int32"}, {"name": "StatefulPartitionedCall/Unetpp_16_16_32_64_128_256/up_4_1/strided_slice/stack_1", "shape": [1], "dtype": "int32"}, {"name": "StatefulPartitionedCall/Unetpp_16_16_32_64_128_256/up_4_1/strided_slice/stack_2", "shape": [1], "dtype": "int32"}, {"name": "StatefulPartitionedCall/Unetpp_16_16_32_64_128_256/up_4_1/stack/1", "shape": [], "dtype": "int32"}, {"name": "StatefulPartitionedCall/Unetpp_16_16_32_64_128_256/up_4_1/stack/2", "shape": [], "dtype": "int32"}, {"name": "StatefulPartitionedCall/Unetpp_16_16_32_64_128_256/up_4_1/stack/3", "shape": [], "dtype": "int32"}, {"name": "StatefulPartitionedCall/Unetpp_16_16_32_64_128_256/up_4_1/conv2d_transpose/ReadVariableOp", "shape": [2, 2, 64, 128], "dtype": "float32", "quantization": {"dtype": "uint8", "min": -0.4014616869243921, "scale": 0.0030645930299571917, "original_dtype": "float32"}}, {"name": "StatefulPartitionedCall/Unetpp_16_16_32_64_128_256/up_5_0/strided_slice/stack", "shape": [1], "dtype": "int32"}, {"name": "StatefulPartitionedCall/Unetpp_16_16_32_64_128_256/up_5_0/strided_slice/stack_1", "shape": [1], "dtype": "int32"}, {"name": "StatefulPartitionedCall/Unetpp_16_16_32_64_128_256/up_5_0/strided_slice/stack_2", "shape": [1], "dtype": "int32"}, {"name": "StatefulPartitionedCall/Unetpp_16_16_32_64_128_256/up_5_0/stack/1", "shape": [], "dtype": "int32"}, {"name": "StatefulPartitionedCall/Unetpp_16_16_32_64_128_256/up_5_0/stack/2", "shape": [], "dtype": "int32"}, {"name": "StatefulPartitionedCall/Unetpp_16_16_32_64_128_256/up_5_0/stack/3", "shape": [], "dtype": "int32"}, {"name": "StatefulPartitionedCall/Unetpp_16_16_32_64_128_256/up_5_0/conv2d_transpose/ReadVariableOp", "shape": [2, 2, 128, 256], "dtype": "float32", "quantization": {"dtype": "uint8", "min": -0.4677205370921715, "scale": 0.0037719398152594474, "original_dtype": "float32"}}, {"name": "StatefulPartitionedCall/Unetpp_16_16_32_64_128_256/up_5_0/BiasAdd/ReadVariableOp", "shape": [128], "dtype": "float32", "quantization": {"dtype": "uint8", "min": -0.1581946869691213, "scale": 0.0013073941071828207, "original_dtype": "float32"}}, {"name": "StatefulPartitionedCall/Unetpp_16_16_32_64_128_256/merge_4_1/concat/axis", "shape": [], "dtype": "int32"}, {"name": "StatefulPartitionedCall/Unetpp_16_16_32_64_128_256/up_4_1/BiasAdd/ReadVariableOp", "shape": [64], "dtype": "float32", "quantization": {"dtype": "uint8", "min": -0.2335685655182483, "scale": 0.0017966812732172948, "original_dtype": "float32"}}, {"name": "StatefulPartitionedCall/Unetpp_16_16_32_64_128_256/merge_3_2/concat/axis", "shape": [], "dtype": "int32"}, {"name": "StatefulPartitionedCall/Unetpp_16_16_32_64_128_256/up_3_2/BiasAdd/ReadVariableOp", "shape": [32], "dtype": "float32", "quantization": {"dtype": "uint8", "min": -0.6176682556376738, "scale": 0.005719150515163646, "original_dtype": "float32"}}, {"name": "StatefulPartitionedCall/Unetpp_16_16_32_64_128_256/merge_2_3/concat/axis", "shape": [], "dtype": "int32"}, {"name": "StatefulPartitionedCall/Unetpp_16_16_32_64_128_256/up_2_3/BiasAdd/ReadVariableOp", "shape": [16], "dtype": "float32", "quantization": {"dtype": "uint8", "min": -6.76349281984217, "scale": 0.05367851444319183, "original_dtype": "float32"}}, {"name": "StatefulPartitionedCall/Unetpp_16_16_32_64_128_256/merge_1_4/concat/axis", "shape": [], "dtype": "int32"}, {"name": "StatefulPartitionedCall/Unetpp_16_16_32_64_128_256/up_1_4/BiasAdd/ReadVariableOp", "shape": [16], "dtype": "float32", "quantization": {"dtype": "uint8", "min": -1.6252316951751709, "scale": 0.010622429380229875, "original_dtype": "float32"}}, {"name": "StatefulPartitionedCall/Unetpp_16_16_32_64_128_256/merge_0_5/concat/axis", "shape": [], "dtype": "int32"}, {"name": "StatefulPartitionedCall/Unetpp_16_16_32_64_128_256/segmentation/Conv2D/ReadVariableOp", "shape": [1, 1, 16, 1], "dtype": "float32", "quantization": {"dtype": "uint8", "min": -1.672113349390965, "scale": 0.010582995882221297, "original_dtype": "float32"}}, {"name": "StatefulPartitionedCall/Unetpp_16_16_32_64_128_256/segmentation/BiasAdd/ReadVariableOp", "shape": [1], "dtype": "float32", "quantization": {"dtype": "uint8", "min": -0.22548897564411163, "scale": 1.0, "original_dtype": "float32"}}, {"name": "StatefulPartitionedCall/Unetpp_16_16_32_64_128_256/x_0_0_a_conv/Conv2D_weights", "shape": [3, 3, 3, 16], "dtype": "float32", "quantization": {"dtype": "uint8", "min": -4.779880652708166, "scale": 0.04385211607989143, "original_dtype": "float32"}}, {"name": "StatefulPartitionedCall/Unetpp_16_16_32_64_128_256/x_0_0_a_conv/Conv2D_bn_offset", "shape": [16], "dtype": "float32", "quantization": {"dtype": "uint8", "min": -0.5741949495147256, "scale": 0.005172927473105636, "original_dtype": "float32"}}, {"name": "StatefulPartitionedCall/Unetpp_16_16_32_64_128_256/x_3_2_b_conv/Conv2D_bn_offset", "shape": [64], "dtype": "float32", "quantization": {"dtype": "uint8", "min": -1.615414154062084, "scale": 0.010033628286099902, "original_dtype": "float32"}}, {"name": "StatefulPartitionedCall/Unetpp_16_16_32_64_128_256/x_0_0_b_conv/Conv2D_weights", "shape": [3, 3, 16, 16], "dtype": "float32", "quantization": {"dtype": "uint8", "min": -0.7140769210516238, "scale": 0.00482484406115962, "original_dtype": "float32"}}, {"name": "StatefulPartitionedCall/Unetpp_16_16_32_64_128_256/x_0_0_b_conv/Conv2D_bn_offset", "shape": [16], "dtype": "float32", "quantization": {"dtype": "uint8", "min": -0.05679889987496769, "scale": 0.0063109888749964095, "original_dtype": "float32"}}, {"name": "StatefulPartitionedCall/Unetpp_16_16_32_64_128_256/x_1_0_a_conv/Conv2D_weights", "shape": [3, 3, 16, 16], "dtype": "float32", "quantization": {"dtype": "uint8", "min": -0.7464540705961339, "scale": 0.004339849247651941, "original_dtype": "float32"}}, {"name": "StatefulPartitionedCall/Unetpp_16_16_32_64_128_256/x_1_0_a_conv/Conv2D_bn_offset", "shape": [16], "dtype": "float32", "quantization": {"dtype": "uint8", "min": -0.06734305970809039, "scale": 0.004489537313872693, "original_dtype": "float32"}}, {"name": "StatefulPartitionedCall/Unetpp_16_16_32_64_128_256/x_1_0_b_conv/Conv2D_weights", "shape": [3, 3, 16, 16], "dtype": "float32", "quantization": {"dtype": "uint8", "min": -0.6740545928478241, "scale": 0.004405585574168785, "original_dtype": "float32"}}, {"name": "StatefulPartitionedCall/Unetpp_16_16_32_64_128_256/x_1_0_b_conv/Conv2D_bn_offset", "shape": [16], "dtype": "float32", "quantization": {"dtype": "uint8", "min": -1.1266657651639453, "scale": 0.010628922312867408, "original_dtype": "float32"}}, {"name": "StatefulPartitionedCall/Unetpp_16_16_32_64_128_256/x_2_0_a_conv/Conv2D_weights", "shape": [3, 3, 16, 32], "dtype": "float32", "quantization": {"dtype": "uint8", "min": -0.30066947750016754, "scale": 0.002684548906251496, "original_dtype": "float32"}}, {"name": "StatefulPartitionedCall/Unetpp_16_16_32_64_128_256/x_2_0_a_conv/Conv2D_bn_offset", "shape": [32], "dtype": "float32", "quantization": {"dtype": "uint8", "min": -1.4781895805807674, "scale": 0.009238684878629796, "original_dtype": "float32"}}, {"name": "StatefulPartitionedCall/Unetpp_16_16_32_64_128_256/x_2_0_b_conv/Conv2D_weights", "shape": [3, 3, 32, 32], "dtype": "float32", "quantization": {"dtype": "uint8", "min": -0.26039667854122084, "scale": 0.001957869763467826, "original_dtype": "float32"}}, {"name": "StatefulPartitionedCall/Unetpp_16_16_32_64_128_256/x_1_3_a_conv/Conv2D_weights", "shape": [3, 3, 64, 16], "dtype": "float32", "quantization": {"dtype": "uint8", "min": -0.0574461227538539, "scale": 0.00041032944824181353, "original_dtype": "float32"}}, {"name": "StatefulPartitionedCall/Unetpp_16_16_32_64_128_256/x_2_0_b_conv/Conv2D_bn_offset", "shape": [32], "dtype": "float32", "quantization": {"dtype": "uint8", "min": -1.0831435694414027, "scale": 0.011646705047757017, "original_dtype": "float32"}}, {"name": "StatefulPartitionedCall/Unetpp_16_16_32_64_128_256/x_0_1_a_conv/Conv2D_weights", "shape": [3, 3, 32, 16], "dtype": "float32", "quantization": {"dtype": "uint8", "min": -0.6263976419673246, "scale": 0.004674609268412871, "original_dtype": "float32"}}, {"name": "StatefulPartitionedCall/Unetpp_16_16_32_64_128_256/x_1_3_a_conv/Conv2D_bn_offset", "shape": [16], "dtype": "float32", "quantization": {"dtype": "uint8", "min": -26.95063018798828, "scale": 0.044706202488319545, "original_dtype": "float32"}}, {"name": "StatefulPartitionedCall/Unetpp_16_16_32_64_128_256/x_0_1_a_conv/Conv2D_bn_offset", "shape": [16], "dtype": "float32", "quantization": {"dtype": "uint8", "min": -0.7944026764701394, "scale": 0.008826696405223771, "original_dtype": "float32"}}, {"name": "StatefulPartitionedCall/Unetpp_16_16_32_64_128_256/x_3_0_a_conv/Conv2D_weights", "shape": [3, 3, 32, 64], "dtype": "float32", "quantization": {"dtype": "uint8", "min": -0.19681463340918223, "scale": 0.0016539044824301027, "original_dtype": "float32"}}, {"name": "StatefulPartitionedCall/Unetpp_16_16_32_64_128_256/x_3_0_a_conv/Conv2D_bn_offset", "shape": [64], "dtype": "float32", "quantization": {"dtype": "uint8", "min": -1.6051547316943897, "scale": 0.011890035049588072, "original_dtype": "float32"}}, {"name": "StatefulPartitionedCall/Unetpp_16_16_32_64_128_256/x_1_3_b_conv/Conv2D_weights", "shape": [3, 3, 16, 16], "dtype": "float32", "quantization": {"dtype": "uint8", "min": -3.1295151710510254, "scale": 0.030681521284813974, "original_dtype": "float32"}}, {"name": "StatefulPartitionedCall/Unetpp_16_16_32_64_128_256/x_0_1_b_conv/Conv2D_weights", "shape": [3, 3, 16, 16], "dtype": "float32", "quantization": {"dtype": "uint8", "min": -0.6134628279536378, "scale": 0.004117200187608308, "original_dtype": "float32"}}, {"name": "StatefulPartitionedCall/Unetpp_16_16_32_64_128_256/x_0_1_b_conv/Conv2D_bn_offset", "shape": [16], "dtype": "float32", "quantization": {"dtype": "uint8", "min": -0.38452850697087304, "scale": 0.005059585618037803, "original_dtype": "float32"}}, {"name": "StatefulPartitionedCall/Unetpp_16_16_32_64_128_256/x_1_3_b_conv/Conv2D_bn_offset", "shape": [16], "dtype": "float32", "quantization": {"dtype": "uint8", "min": -2.7718342168658388, "scale": 0.011313609048431995, "original_dtype": "float32"}}, {"name": "StatefulPartitionedCall/Unetpp_16_16_32_64_128_256/x_3_0_b_conv/Conv2D_weights", "shape": [3, 3, 64, 64], "dtype": "float32", "quantization": {"dtype": "uint8", "min": -0.202868082651905, "scale": 0.00162294466121524, "original_dtype": "float32"}}, {"name": "StatefulPartitionedCall/Unetpp_16_16_32_64_128_256/x_3_0_b_conv/Conv2D_bn_offset", "shape": [64], "dtype": "float32", "quantization": {"dtype": "uint8", "min": -1.2425515693776747, "scale": 0.008939219923580394, "original_dtype": "float32"}}, {"name": "StatefulPartitionedCall/Unetpp_16_16_32_64_128_256/x_1_1_a_conv/Conv2D_weights", "shape": [3, 3, 32, 16], "dtype": "float32", "quantization": {"dtype": "uint8", "min": -0.04190651663378173, "scale": 0.0002993322616698695, "original_dtype": "float32"}}, {"name": "StatefulPartitionedCall/Unetpp_16_16_32_64_128_256/x_1_1_a_conv/Conv2D_bn_offset", "shape": [16], "dtype": "float32", "quantization": {"dtype": "uint8", "min": -37.30670928955078, "scale": 0.06142117369408701, "original_dtype": "float32"}}, {"name": "StatefulPartitionedCall/Unetpp_16_16_32_64_128_256/x_4_0_a_conv/Conv2D_weights", "shape": [3, 3, 64, 128], "dtype": "float32", "quantization": {"dtype": "uint8", "min": -0.18717728327302371, "scale": 0.0015469196964712703, "original_dtype": "float32"}}, {"name": "StatefulPartitionedCall/Unetpp_16_16_32_64_128_256/x_4_0_a_conv/Conv2D_bn_offset", "shape": [128], "dtype": "float32", "quantization": {"dtype": "uint8", "min": -1.2588875714470358, "scale": 0.010490729762058632, "original_dtype": "float32"}}, {"name": "StatefulPartitionedCall/Unetpp_16_16_32_64_128_256/x_1_1_b_conv/Conv2D_weights", "shape": [3, 3, 16, 16], "dtype": "float32", "quantization": {"dtype": "uint8", "min": -0.280401525777929, "scale": 0.002596310423869713, "original_dtype": "float32"}}, {"name": "StatefulPartitionedCall/Unetpp_16_16_32_64_128_256/x_1_1_b_conv/Conv2D_bn_offset", "shape": [16], "dtype": "float32", "quantization": {"dtype": "uint8", "min": -13.857401847839355, "scale": 0.02757442511764227, "original_dtype": "float32"}}, {"name": "StatefulPartitionedCall/Unetpp_16_16_32_64_128_256/x_4_0_b_conv/Conv2D_weights", "shape": [3, 3, 128, 128], "dtype": "float32", "quantization": {"dtype": "uint8", "min": -0.12300008786659615, "scale": 0.0008848927184647205, "original_dtype": "float32"}}, {"name": "StatefulPartitionedCall/Unetpp_16_16_32_64_128_256/x_2_3_a_conv/Conv2D_weights", "shape": [3, 3, 128, 32], "dtype": "float32", "quantization": {"dtype": "uint8", "min": -0.18771732741711186, "scale": 0.0014008755777396408, "original_dtype": "float32"}}, {"name": "StatefulPartitionedCall/Unetpp_16_16_32_64_128_256/x_4_0_b_conv/Conv2D_bn_offset", "shape": [128], "dtype": "float32", "quantization": {"dtype": "uint8", "min": -0.9653537883478053, "scale": 0.009372366877163158, "original_dtype": "float32"}}, {"name": "StatefulPartitionedCall/Unetpp_16_16_32_64_128_256/x_0_5_a_conv/Conv2D_weights", "shape": [3, 3, 96, 16], "dtype": "float32", "quantization": {"dtype": "uint8", "min": -0.13887408387427236, "scale": 0.0010849537802677528, "original_dtype": "float32"}}, {"name": "StatefulPartitionedCall/Unetpp_16_16_32_64_128_256/x_2_1_a_conv/Conv2D_weights", "shape": [3, 3, 64, 32], "dtype": "float32", "quantization": {"dtype": "uint8", "min": -0.2933890207725413, "scale": 0.002080773196968378, "original_dtype": "float32"}}, {"name": "StatefulPartitionedCall/Unetpp_16_16_32_64_128_256/x_2_3_a_conv/Conv2D_bn_offset", "shape": [32], "dtype": "float32", "quantization": {"dtype": "uint8", "min": -0.7994739401574228, "scale": 0.0086899341321459, "original_dtype": "float32"}}, {"name": "StatefulPartitionedCall/Unetpp_16_16_32_64_128_256/x_2_1_a_conv/Conv2D_bn_offset", "shape": [32], "dtype": "float32", "quantization": {"dtype": "uint8", "min": -0.7320620957542868, "scale": 0.009632395996766931, "original_dtype": "float32"}}, {"name": "StatefulPartitionedCall/Unetpp_16_16_32_64_128_256/x_5_0_a_conv/Conv2D_weights", "shape": [3, 3, 128, 256], "dtype": "float32", "quantization": {"dtype": "uint8", "min": -0.13024292430456946, "scale": 0.0010096350721284454, "original_dtype": "float32"}}, {"name": "StatefulPartitionedCall/Unetpp_16_16_32_64_128_256/x_5_0_a_conv/Conv2D_bn_offset", "shape": [256], "dtype": "float32", "quantization": {"dtype": "uint8", "min": -0.7173780308050268, "scale": 0.00956504041073369, "original_dtype": "float32"}}, {"name": "StatefulPartitionedCall/Unetpp_16_16_32_64_128_256/x_2_3_b_conv/Conv2D_weights", "shape": [3, 3, 32, 32], "dtype": "float32", "quantization": {"dtype": "uint8", "min": -0.5638423295582042, "scale": 0.0036613138283000273, "original_dtype": "float32"}}, {"name": "StatefulPartitionedCall/Unetpp_16_16_32_64_128_256/x_2_1_b_conv/Conv2D_weights", "shape": [3, 3, 32, 32], "dtype": "float32", "quantization": {"dtype": "uint8", "min": -0.544011270532421, "scale": 0.003831065285439585, "original_dtype": "float32"}}, {"name": "StatefulPartitionedCall/Unetpp_16_16_32_64_128_256/x_0_5_a_conv/Conv2D_bn_offset", "shape": [16], "dtype": "float32", "quantization": {"dtype": "uint8", "min": -1.1664353052775065, "scale": 0.017153460371728036, "original_dtype": "float32"}}, {"name": "StatefulPartitionedCall/Unetpp_16_16_32_64_128_256/x_2_1_b_conv/Conv2D_bn_offset", "shape": [32], "dtype": "float32", "quantization": {"dtype": "uint8", "min": -0.5116311634288114, "scale": 0.006090847183676327, "original_dtype": "float32"}}, {"name": "StatefulPartitionedCall/Unetpp_16_16_32_64_128_256/x_2_3_b_conv/Conv2D_bn_offset", "shape": [32], "dtype": "float32", "quantization": {"dtype": "uint8", "min": -1.1962390997830559, "scale": 0.009569912798264447, "original_dtype": "float32"}}, {"name": "StatefulPartitionedCall/Unetpp_16_16_32_64_128_256/x_0_2_a_conv/Conv2D_weights", "shape": [3, 3, 48, 16], "dtype": "float32", "quantization": {"dtype": "uint8", "min": -0.46857186953226726, "scale": 0.003445381393619612, "original_dtype": "float32"}}, {"name": "StatefulPartitionedCall/Unetpp_16_16_32_64_128_256/x_0_2_a_conv/Conv2D_bn_offset", "shape": [16], "dtype": "float32", "quantization": {"dtype": "uint8", "min": -3.417693513982436, "scale": 0.030790031657499425, "original_dtype": "float32"}}, {"name": "StatefulPartitionedCall/Unetpp_16_16_32_64_128_256/x_5_0_b_conv/Conv2D_weights", "shape": [3, 3, 256, 256], "dtype": "float32", "quantization": {"dtype": "uint8", "min": -0.058802363276481626, "scale": 0.0004780679941177368, "original_dtype": "float32"}}, {"name": "StatefulPartitionedCall/Unetpp_16_16_32_64_128_256/x_5_0_b_conv/Conv2D_bn_offset", "shape": [256], "dtype": "float32", "quantization": {"dtype": "uint8", "min": -0.8863987957730013, "scale": 0.010188491905436796, "original_dtype": "float32"}}, {"name": "StatefulPartitionedCall/Unetpp_16_16_32_64_128_256/x_3_1_a_conv/Conv2D_weights", "shape": [3, 3, 128, 64], "dtype": "float32", "quantization": {"dtype": "uint8", "min": -0.12793175730050776, "scale": 0.0010234540584040622, "original_dtype": "float32"}}, {"name": "StatefulPartitionedCall/Unetpp_16_16_32_64_128_256/x_3_1_a_conv/Conv2D_bn_offset", "shape": [64], "dtype": "float32", "quantization": {"dtype": "uint8", "min": -0.5971048799215579, "scale": 0.0061557204115624525, "original_dtype": "float32"}}, {"name": "StatefulPartitionedCall/Unetpp_16_16_32_64_128_256/x_0_2_b_conv/Conv2D_weights", "shape": [3, 3, 16, 16], "dtype": "float32", "quantization": {"dtype": "uint8", "min": -0.42549153963724773, "scale": 0.003128614262038586, "original_dtype": "float32"}}, {"name": "StatefulPartitionedCall/Unetpp_16_16_32_64_128_256/x_0_2_b_conv/Conv2D_bn_offset", "shape": [16], "dtype": "float32", "quantization": {"dtype": "uint8", "min": -0.8122038392459645, "scale": 0.007520405918944116, "original_dtype": "float32"}}, {"name": "StatefulPartitionedCall/Unetpp_16_16_32_64_128_256/x_3_1_b_conv/Conv2D_weights", "shape": [3, 3, 64, 64], "dtype": "float32", "quantization": {"dtype": "uint8", "min": -0.2944139343850753, "scale": 0.0022822785611246147, "original_dtype": "float32"}}, {"name": "StatefulPartitionedCall/Unetpp_16_16_32_64_128_256/x_0_4_a_conv/Conv2D_weights", "shape": [3, 3, 80, 16], "dtype": "float32", "quantization": {"dtype": "uint8", "min": -0.32248755868743445, "scale": 0.0022871458062938615, "original_dtype": "float32"}}, {"name": "StatefulPartitionedCall/Unetpp_16_16_32_64_128_256/x_3_1_b_conv/Conv2D_bn_offset", "shape": [64], "dtype": "float32", "quantization": {"dtype": "uint8", "min": -0.4500234956834831, "scale": 0.005844460982902378, "original_dtype": "float32"}}, {"name": "StatefulPartitionedCall/Unetpp_16_16_32_64_128_256/x_1_2_a_conv/Conv2D_weights", "shape": [3, 3, 48, 16], "dtype": "float32", "quantization": {"dtype": "uint8", "min": -0.04535617563946575, "scale": 0.00032630342186666005, "original_dtype": "float32"}}, {"name": "StatefulPartitionedCall/Unetpp_16_16_32_64_128_256/x_0_4_a_conv/Conv2D_bn_offset", "shape": [16], "dtype": "float32", "quantization": {"dtype": "uint8", "min": -0.16891484868292714, "scale": 0.008445742434146357, "original_dtype": "float32"}}, {"name": "StatefulPartitionedCall/Unetpp_16_16_32_64_128_256/x_1_2_a_conv/Conv2D_bn_offset", "shape": [16], "dtype": "float32", "quantization": {"dtype": "uint8", "min": -28.274517059326172, "scale": 0.04274106493183211, "original_dtype": "float32"}}, {"name": "StatefulPartitionedCall/Unetpp_16_16_32_64_128_256/x_0_5_b_conv/Conv2D_weights", "shape": [3, 3, 16, 16], "dtype": "float32", "quantization": {"dtype": "uint8", "min": -0.5244284005726085, "scale": 0.004003270233378691, "original_dtype": "float32"}}, {"name": "StatefulPartitionedCall/Unetpp_16_16_32_64_128_256/x_4_1_a_conv/Conv2D_weights", "shape": [3, 3, 256, 128], "dtype": "float32", "quantization": {"dtype": "uint8", "min": -0.015374828038700656, "scale": 0.00013369415685826657, "original_dtype": "float32"}}, {"name": "StatefulPartitionedCall/Unetpp_16_16_32_64_128_256/x_4_1_a_conv/Conv2D_bn_offset", "shape": [128], "dtype": "float32", "quantization": {"dtype": "uint8", "min": -0.6743472828584559, "scale": 0.00624395632276348, "original_dtype": "float32"}}, {"name": "StatefulPartitionedCall/Unetpp_16_16_32_64_128_256/x_0_4_b_conv/Conv2D_weights", "shape": [3, 3, 16, 16], "dtype": "float32", "quantization": {"dtype": "uint8", "min": -0.8990048181776907, "scale": 0.0068626321998297, "original_dtype": "float32"}}, {"name": "StatefulPartitionedCall/Unetpp_16_16_32_64_128_256/x_1_2_b_conv/Conv2D_weights", "shape": [3, 3, 16, 16], "dtype": "float32", "quantization": {"dtype": "uint8", "min": -2.385708382550408, "scale": 0.021492868311264936, "original_dtype": "float32"}}, {"name": "StatefulPartitionedCall/Unetpp_16_16_32_64_128_256/x_1_2_b_conv/Conv2D_bn_offset", "shape": [16], "dtype": "float32", "quantization": {"dtype": "uint8", "min": -7.8436689376831055, "scale": 0.01677575672374052, "original_dtype": "float32"}}, {"name": "StatefulPartitionedCall/Unetpp_16_16_32_64_128_256/x_0_4_b_conv/Conv2D_bn_offset", "shape": [16], "dtype": "float32", "quantization": {"dtype": "uint8", "min": -0.46244176404148923, "scale": 0.010754459628871843, "original_dtype": "float32"}}, {"name": "StatefulPartitionedCall/Unetpp_16_16_32_64_128_256/x_4_1_b_conv/Conv2D_weights", "shape": [3, 3, 128, 128], "dtype": "float32", "quantization": {"dtype": "uint8", "min": -0.04808105528354645, "scale": 0.00041094919045766193, "original_dtype": "float32"}}, {"name": "StatefulPartitionedCall/Unetpp_16_16_32_64_128_256/x_0_5_b_conv/Conv2D_bn_offset", "shape": [16], "dtype": "float32", "quantization": {"dtype": "uint8", "min": -0.6181519809891196, "scale": 0.00922614896998686, "original_dtype": "float32"}}, {"name": "StatefulPartitionedCall/Unetpp_16_16_32_64_128_256/x_4_1_b_conv/Conv2D_bn_offset", "shape": [128], "dtype": "float32", "quantization": {"dtype": "uint8", "min": -1.3631463789472393, "scale": 0.008466747695324468, "original_dtype": "float32"}}, {"name": "StatefulPartitionedCall/Unetpp_16_16_32_64_128_256/x_2_2_a_conv/Conv2D_weights", "shape": [3, 3, 96, 32], "dtype": "float32", "quantization": {"dtype": "uint8", "min": -0.22043019439659867, "scale": 0.0019002602965224023, "original_dtype": "float32"}}, {"name": "StatefulPartitionedCall/Unetpp_16_16_32_64_128_256/x_1_4_a_conv/Conv2D_weights", "shape": [3, 3, 80, 16], "dtype": "float32", "quantization": {"dtype": "uint8", "min": -0.18838895757993063, "scale": 0.0013553162415822348, "original_dtype": "float32"}}, {"name": "StatefulPartitionedCall/Unetpp_16_16_32_64_128_256/x_2_2_a_conv/Conv2D_bn_offset", "shape": [32], "dtype": "float32", "quantization": {"dtype": "uint8", "min": -0.6699019820082421, "scale": 0.004999268522449568, "original_dtype": "float32"}}, {"name": "StatefulPartitionedCall/Unetpp_16_16_32_64_128_256/x_2_2_b_conv/Conv2D_weights", "shape": [3, 3, 32, 32], "dtype": "float32", "quantization": {"dtype": "uint8", "min": -0.876564121246338, "scale": 0.006445324420928955, "original_dtype": "float32"}}, {"name": "StatefulPartitionedCall/Unetpp_16_16_32_64_128_256/x_1_4_a_conv/Conv2D_bn_offset", "shape": [16], "dtype": "float32", "quantization": {"dtype": "uint8", "min": -16.610980987548828, "scale": 0.057355487112905466, "original_dtype": "float32"}}, {"name": "StatefulPartitionedCall/Unetpp_16_16_32_64_128_256/x_2_2_b_conv/Conv2D_bn_offset", "shape": [32], "dtype": "float32", "quantization": {"dtype": "uint8", "min": -1.4237613201141357, "scale": 0.010317111015319824, "original_dtype": "float32"}}, {"name": "StatefulPartitionedCall/Unetpp_16_16_32_64_128_256/x_0_3_a_conv/Conv2D_weights", "shape": [3, 3, 64, 16], "dtype": "float32", "quantization": {"dtype": "uint8", "min": -0.5160934426036535, "scale": 0.003463714379890292, "original_dtype": "float32"}}, {"name": "StatefulPartitionedCall/Unetpp_16_16_32_64_128_256/x_0_3_a_conv/Conv2D_bn_offset", "shape": [16], "dtype": "float32", "quantization": {"dtype": "uint8", "min": -1.5765366133521586, "scale": 0.02252195161931655, "original_dtype": "float32"}}, {"name": "StatefulPartitionedCall/Unetpp_16_16_32_64_128_256/x_1_4_b_conv/Conv2D_weights", "shape": [3, 3, 16, 16], "dtype": "float32", "quantization": {"dtype": "uint8", "min": -0.7489541493210138, "scale": 0.004484755385155771, "original_dtype": "float32"}}, {"name": "StatefulPartitionedCall/Unetpp_16_16_32_64_128_256/x_3_2_a_conv/Conv2D_weights", "shape": [3, 3, 192, 64], "dtype": "float32", "quantization": {"dtype": "uint8", "min": -0.12713270327624152, "scale": 0.0010594391939686794, "original_dtype": "float32"}}, {"name": "StatefulPartitionedCall/Unetpp_16_16_32_64_128_256/x_3_2_a_conv/Conv2D_bn_offset", "shape": [64], "dtype": "float32", "quantization": {"dtype": "uint8", "min": -1.532122054754519, "scale": 0.010079750360227098, "original_dtype": "float32"}}, {"name": "StatefulPartitionedCall/Unetpp_16_16_32_64_128_256/x_1_4_b_conv/Conv2D_bn_offset", "shape": [16], "dtype": "float32", "quantization": {"dtype": "uint8", "min": -1.0561196981691847, "scale": 0.011479561936621573, "original_dtype": "float32"}}, {"name": "StatefulPartitionedCall/Unetpp_16_16_32_64_128_256/x_0_3_b_conv/Conv2D_weights", "shape": [3, 3, 16, 16], "dtype": "float32", "quantization": {"dtype": "uint8", "min": -0.6982566515604655, "scale": 0.005371205012003581, "original_dtype": "float32"}}, {"name": "StatefulPartitionedCall/Unetpp_16_16_32_64_128_256/x_0_3_b_conv/Conv2D_bn_offset", "shape": [16], "dtype": "float32", "quantization": {"dtype": "uint8", "min": -1.564999717123368, "scale": 0.008459457930396585, "original_dtype": "float32"}}, {"name": "StatefulPartitionedCall/Unetpp_16_16_32_64_128_256/x_3_2_b_conv/Conv2D_weights", "shape": [3, 3, 64, 64], "dtype": "float32", "quantization": {"dtype": "uint8", "min": -0.14011074602603912, "scale": 0.0011774012271095725, "original_dtype": "float32"}}]}]}