{"format": "graph-model", "generatedBy": "2.17.0", "convertedBy": "TensorFlow.js Converter v4.22.0", "signature": {"inputs": {"input_image": {"name": "input_image:0", "dtype": "DT_FLOAT", "tensorShape": {"dim": [{"size": "-1"}, {"size": "128"}, {"size": "128"}, {"size": "3"}]}}}, "outputs": {"segmentation": {"name": "Identity_1:0", "dtype": "DT_FLOAT", "tensorShape": {"dim": [{"size": "-1"}, {"size": "128"}, {"size": "128"}, {"size": "1"}]}}, "corners": {"name": "Identity:0", "dtype": "DT_FLOAT", "tensorShape": {"dim": [{"size": "-1"}, {"size": "128"}, {"size": "128"}, {"size": "4"}]}}}}, "modelTopology": {"node": [{"name": "StatefulPartitionedCall/5_unetpp/corners/Conv2D/ReadVariableOp", "op": "Const", "attr": {"value": {"tensor": {"dtype": "DT_FLOAT", "tensorShape": {"dim": [{"size": "1"}, {"size": "1"}, {"size": "16"}, {"size": "4"}]}}}, "dtype": {"type": "DT_FLOAT"}}}, {"name": "StatefulPartitionedCall/5_unetpp/corners/BiasAdd/ReadVariableOp", "op": "Const", "attr": {"value": {"tensor": {"dtype": "DT_FLOAT", "tensorShape": {"dim": [{"size": "4"}]}}}, "dtype": {"type": "DT_FLOAT"}}}, {"name": "StatefulPartitionedCall/5_unetpp/up_1_0/mul", "op": "Const", "attr": {"value": {"tensor": {"dtype": "DT_INT32", "tensorShape": {"dim": [{"size": "2"}]}}}, "dtype": {"type": "DT_INT32"}}}, {"name": "StatefulPartitionedCall/5_unetpp/merge_0_1/concat/axis", "op": "Const", "attr": {"value": {"tensor": {"dtype": "DT_INT32", "tensorShape": {}}}, "dtype": {"type": "DT_INT32"}}}, {"name": "StatefulPartitionedCall/5_unetpp/x_0_1/x_0_1_a_conv/separable_conv2d/ReadVariableOp", "op": "Const", "attr": {"value": {"tensor": {"dtype": "DT_FLOAT", "tensorShape": {"dim": [{"size": "3"}, {"size": "3"}, {"size": "48"}, {"size": "1"}]}}}, "dtype": {"type": "DT_FLOAT"}}}, {"name": "StatefulPartitionedCall/5_unetpp/x_0_1/x_0_1_b_conv/separable_conv2d/ReadVariableOp", "op": "Const", "attr": {"value": {"tensor": {"dtype": "DT_FLOAT", "tensorShape": {"dim": [{"size": "3"}, {"size": "3"}, {"size": "16"}, {"size": "1"}]}}}, "dtype": {"type": "DT_FLOAT"}}}, {"name": "StatefulPartitionedCall/5_unetpp/up_1_1/mul", "op": "Const", "attr": {"value": {"tensor": {"dtype": "DT_INT32", "tensorShape": {"dim": [{"size": "2"}]}}}, "dtype": {"type": "DT_INT32"}}}, {"name": "StatefulPartitionedCall/5_unetpp/merge_0_2/concat/axis", "op": "Const", "attr": {"value": {"tensor": {"dtype": "DT_INT32", "tensorShape": {}}}, "dtype": {"type": "DT_INT32"}}}, {"name": "StatefulPartitionedCall/5_unetpp/x_0_2/x_0_2_a_conv/separable_conv2d/ReadVariableOp", "op": "Const", "attr": {"value": {"tensor": {"dtype": "DT_FLOAT", "tensorShape": {"dim": [{"size": "3"}, {"size": "3"}, {"size": "64"}, {"size": "1"}]}}}, "dtype": {"type": "DT_FLOAT"}}}, {"name": "StatefulPartitionedCall/5_unetpp/x_0_2/x_0_2_b_conv/separable_conv2d/ReadVariableOp", "op": "Const", "attr": {"value": {"tensor": {"dtype": "DT_FLOAT", "tensorShape": {"dim": [{"size": "3"}, {"size": "3"}, {"size": "16"}, {"size": "1"}]}}}, "dtype": {"type": "DT_FLOAT"}}}, {"name": "StatefulPartitionedCall/5_unetpp/up_2_0/mul", "op": "Const", "attr": {"value": {"tensor": {"dtype": "DT_INT32", "tensorShape": {"dim": [{"size": "2"}]}}}, "dtype": {"type": "DT_INT32"}}}, {"name": "StatefulPartitionedCall/5_unetpp/merge_1_1/concat/axis", "op": "Const", "attr": {"value": {"tensor": {"dtype": "DT_INT32", "tensorShape": {}}}, "dtype": {"type": "DT_INT32"}}}, {"name": "StatefulPartitionedCall/5_unetpp/x_1_1/x_1_1_a_conv/separable_conv2d/ReadVariableOp", "op": "Const", "attr": {"value": {"tensor": {"dtype": "DT_FLOAT", "tensorShape": {"dim": [{"size": "3"}, {"size": "3"}, {"size": "96"}, {"size": "1"}]}}}, "dtype": {"type": "DT_FLOAT"}}}, {"name": "StatefulPartitionedCall/5_unetpp/x_1_1/x_1_1_b_conv/separable_conv2d/ReadVariableOp", "op": "Const", "attr": {"value": {"tensor": {"dtype": "DT_FLOAT", "tensorShape": {"dim": [{"size": "3"}, {"size": "3"}, {"size": "32"}, {"size": "1"}]}}}, "dtype": {"type": "DT_FLOAT"}}}, {"name": "StatefulPartitionedCall/5_unetpp/x_0_0/x_0_0_a_conv/separable_conv2d/ReadVariableOp", "op": "Const", "attr": {"value": {"tensor": {"dtype": "DT_FLOAT", "tensorShape": {"dim": [{"size": "3"}, {"size": "3"}, {"size": "3"}, {"size": "1"}]}}}, "dtype": {"type": "DT_FLOAT"}}}, {"name": "StatefulPartitionedCall/5_unetpp/x_0_0/x_0_0_b_conv/separable_conv2d/ReadVariableOp", "op": "Const", "attr": {"value": {"tensor": {"dtype": "DT_FLOAT", "tensorShape": {"dim": [{"size": "3"}, {"size": "3"}, {"size": "16"}, {"size": "1"}]}}}, "dtype": {"type": "DT_FLOAT"}}}, {"name": "StatefulPartitionedCall/5_unetpp/x_1_0/x_1_0_a_conv/separable_conv2d/ReadVariableOp", "op": "Const", "attr": {"value": {"tensor": {"dtype": "DT_FLOAT", "tensorShape": {"dim": [{"size": "3"}, {"size": "3"}, {"size": "16"}, {"size": "1"}]}}}, "dtype": {"type": "DT_FLOAT"}}}, {"name": "StatefulPartitionedCall/5_unetpp/x_1_0/x_1_0_b_conv/separable_conv2d/ReadVariableOp", "op": "Const", "attr": {"value": {"tensor": {"dtype": "DT_FLOAT", "tensorShape": {"dim": [{"size": "3"}, {"size": "3"}, {"size": "32"}, {"size": "1"}]}}}, "dtype": {"type": "DT_FLOAT"}}}, {"name": "StatefulPartitionedCall/5_unetpp/x_2_0/x_2_0_a_conv/separable_conv2d/ReadVariableOp", "op": "Const", "attr": {"value": {"tensor": {"dtype": "DT_FLOAT", "tensorShape": {"dim": [{"size": "3"}, {"size": "3"}, {"size": "32"}, {"size": "1"}]}}}, "dtype": {"type": "DT_FLOAT"}}}, {"name": "StatefulPartitionedCall/5_unetpp/x_2_0/x_2_0_b_conv/separable_conv2d/ReadVariableOp", "op": "Const", "attr": {"value": {"tensor": {"dtype": "DT_FLOAT", "tensorShape": {"dim": [{"size": "3"}, {"size": "3"}, {"size": "64"}, {"size": "1"}]}}}, "dtype": {"type": "DT_FLOAT"}}}, {"name": "StatefulPartitionedCall/5_unetpp/x_3_0/x_3_0_a_conv/separable_conv2d/ReadVariableOp", "op": "Const", "attr": {"value": {"tensor": {"dtype": "DT_FLOAT", "tensorShape": {"dim": [{"size": "3"}, {"size": "3"}, {"size": "64"}, {"size": "1"}]}}}, "dtype": {"type": "DT_FLOAT"}}}, {"name": "StatefulPartitionedCall/5_unetpp/x_3_0/x_3_0_b_conv/separable_conv2d/ReadVariableOp", "op": "Const", "attr": {"value": {"tensor": {"dtype": "DT_FLOAT", "tensorShape": {"dim": [{"size": "3"}, {"size": "3"}, {"size": "128"}, {"size": "1"}]}}}, "dtype": {"type": "DT_FLOAT"}}}, {"name": "StatefulPartitionedCall/5_unetpp/up_3_0/mul", "op": "Const", "attr": {"value": {"tensor": {"dtype": "DT_INT32", "tensorShape": {"dim": [{"size": "2"}]}}}, "dtype": {"type": "DT_INT32"}}}, {"name": "StatefulPartitionedCall/5_unetpp/merge_2_1/concat/axis", "op": "Const", "attr": {"value": {"tensor": {"dtype": "DT_INT32", "tensorShape": {}}}, "dtype": {"type": "DT_INT32"}}}, {"name": "StatefulPartitionedCall/5_unetpp/x_2_1/x_2_1_a_conv/separable_conv2d/ReadVariableOp", "op": "Const", "attr": {"value": {"tensor": {"dtype": "DT_FLOAT", "tensorShape": {"dim": [{"size": "3"}, {"size": "3"}, {"size": "192"}, {"size": "1"}]}}}, "dtype": {"type": "DT_FLOAT"}}}, {"name": "StatefulPartitionedCall/5_unetpp/x_2_1/x_2_1_b_conv/separable_conv2d/ReadVariableOp", "op": "Const", "attr": {"value": {"tensor": {"dtype": "DT_FLOAT", "tensorShape": {"dim": [{"size": "3"}, {"size": "3"}, {"size": "64"}, {"size": "1"}]}}}, "dtype": {"type": "DT_FLOAT"}}}, {"name": "StatefulPartitionedCall/5_unetpp/up_2_1/mul", "op": "Const", "attr": {"value": {"tensor": {"dtype": "DT_INT32", "tensorShape": {"dim": [{"size": "2"}]}}}, "dtype": {"type": "DT_INT32"}}}, {"name": "StatefulPartitionedCall/5_unetpp/merge_1_2/concat/axis", "op": "Const", "attr": {"value": {"tensor": {"dtype": "DT_INT32", "tensorShape": {}}}, "dtype": {"type": "DT_INT32"}}}, {"name": "StatefulPartitionedCall/5_unetpp/x_1_2/x_1_2_a_conv/separable_conv2d/ReadVariableOp", "op": "Const", "attr": {"value": {"tensor": {"dtype": "DT_FLOAT", "tensorShape": {"dim": [{"size": "3"}, {"size": "3"}, {"size": "128"}, {"size": "1"}]}}}, "dtype": {"type": "DT_FLOAT"}}}, {"name": "StatefulPartitionedCall/5_unetpp/x_1_2/x_1_2_b_conv/separable_conv2d/ReadVariableOp", "op": "Const", "attr": {"value": {"tensor": {"dtype": "DT_FLOAT", "tensorShape": {"dim": [{"size": "3"}, {"size": "3"}, {"size": "32"}, {"size": "1"}]}}}, "dtype": {"type": "DT_FLOAT"}}}, {"name": "StatefulPartitionedCall/5_unetpp/up_1_2/mul", "op": "Const", "attr": {"value": {"tensor": {"dtype": "DT_INT32", "tensorShape": {"dim": [{"size": "2"}]}}}, "dtype": {"type": "DT_INT32"}}}, {"name": "StatefulPartitionedCall/5_unetpp/merge_0_3/concat/axis", "op": "Const", "attr": {"value": {"tensor": {"dtype": "DT_INT32", "tensorShape": {}}}, "dtype": {"type": "DT_INT32"}}}, {"name": "StatefulPartitionedCall/5_unetpp/x_0_3/x_0_3_a_conv/separable_conv2d/ReadVariableOp", "op": "Const", "attr": {"value": {"tensor": {"dtype": "DT_FLOAT", "tensorShape": {"dim": [{"size": "3"}, {"size": "3"}, {"size": "80"}, {"size": "1"}]}}}, "dtype": {"type": "DT_FLOAT"}}}, {"name": "StatefulPartitionedCall/5_unetpp/x_0_3/x_0_3_b_conv/separable_conv2d/ReadVariableOp", "op": "Const", "attr": {"value": {"tensor": {"dtype": "DT_FLOAT", "tensorShape": {"dim": [{"size": "3"}, {"size": "3"}, {"size": "16"}, {"size": "1"}]}}}, "dtype": {"type": "DT_FLOAT"}}}, {"name": "StatefulPartitionedCall/5_unetpp/segmentation/Conv2D/ReadVariableOp", "op": "Const", "attr": {"value": {"tensor": {"dtype": "DT_FLOAT", "tensorShape": {"dim": [{"size": "1"}, {"size": "1"}, {"size": "16"}, {"size": "1"}]}}}, "dtype": {"type": "DT_FLOAT"}}}, {"name": "StatefulPartitionedCall/5_unetpp/segmentation/BiasAdd/ReadVariableOp", "op": "Const", "attr": {"value": {"tensor": {"dtype": "DT_FLOAT", "tensorShape": {"dim": [{"size": "1"}]}}}, "dtype": {"type": "DT_FLOAT"}}}, {"name": "input_image", "op": "Placeholder", "attr": {"shape": {"shape": {"dim": [{"size": "-1"}, {"size": "128"}, {"size": "128"}, {"size": "3"}]}}, "dtype": {"type": "DT_FLOAT"}}}, {"name": "StatefulPartitionedCall/5_unetpp/x_0_0/x_0_0_a_conv/separable_conv2d_weights", "op": "Const", "attr": {"value": {"tensor": {"dtype": "DT_FLOAT", "tensorShape": {"dim": [{"size": "1"}, {"size": "1"}, {"size": "3"}, {"size": "16"}]}}}, "dtype": {"type": "DT_FLOAT"}}}, {"name": "StatefulPartitionedCall/5_unetpp/x_0_0/x_0_0_a_conv/separable_conv2d_bn_offset", "op": "Const", "attr": {"value": {"tensor": {"dtype": "DT_FLOAT", "tensorShape": {"dim": [{"size": "16"}]}}}, "dtype": {"type": "DT_FLOAT"}}}, {"name": "StatefulPartitionedCall/5_unetpp/x_0_0/x_0_0_b_conv/separable_conv2d_weights", "op": "Const", "attr": {"value": {"tensor": {"dtype": "DT_FLOAT", "tensorShape": {"dim": [{"size": "1"}, {"size": "1"}, {"size": "16"}, {"size": "16"}]}}}, "dtype": {"type": "DT_FLOAT"}}}, {"name": "StatefulPartitionedCall/5_unetpp/x_0_0/x_0_0_b_conv/separable_conv2d_bn_offset", "op": "Const", "attr": {"value": {"tensor": {"dtype": "DT_FLOAT", "tensorShape": {"dim": [{"size": "16"}]}}}, "dtype": {"type": "DT_FLOAT"}}}, {"name": "StatefulPartitionedCall/5_unetpp/x_1_0/x_1_0_a_conv/separable_conv2d_weights", "op": "Const", "attr": {"value": {"tensor": {"dtype": "DT_FLOAT", "tensorShape": {"dim": [{"size": "1"}, {"size": "1"}, {"size": "16"}, {"size": "32"}]}}}, "dtype": {"type": "DT_FLOAT"}}}, {"name": "StatefulPartitionedCall/5_unetpp/x_0_2/x_0_2_b_conv/separable_conv2d_weights", "op": "Const", "attr": {"value": {"tensor": {"dtype": "DT_FLOAT", "tensorShape": {"dim": [{"size": "1"}, {"size": "1"}, {"size": "16"}, {"size": "16"}]}}}, "dtype": {"type": "DT_FLOAT"}}}, {"name": "StatefulPartitionedCall/5_unetpp/x_1_0/x_1_0_a_conv/separable_conv2d_bn_offset", "op": "Const", "attr": {"value": {"tensor": {"dtype": "DT_FLOAT", "tensorShape": {"dim": [{"size": "32"}]}}}, "dtype": {"type": "DT_FLOAT"}}}, {"name": "StatefulPartitionedCall/5_unetpp/x_1_0/x_1_0_b_conv/separable_conv2d_weights", "op": "Const", "attr": {"value": {"tensor": {"dtype": "DT_FLOAT", "tensorShape": {"dim": [{"size": "1"}, {"size": "1"}, {"size": "32"}, {"size": "32"}]}}}, "dtype": {"type": "DT_FLOAT"}}}, {"name": "StatefulPartitionedCall/5_unetpp/x_0_2/x_0_2_b_conv/separable_conv2d_bn_offset", "op": "Const", "attr": {"value": {"tensor": {"dtype": "DT_FLOAT", "tensorShape": {"dim": [{"size": "16"}]}}}, "dtype": {"type": "DT_FLOAT"}}}, {"name": "StatefulPartitionedCall/5_unetpp/x_1_0/x_1_0_b_conv/separable_conv2d_bn_offset", "op": "Const", "attr": {"value": {"tensor": {"dtype": "DT_FLOAT", "tensorShape": {"dim": [{"size": "32"}]}}}, "dtype": {"type": "DT_FLOAT"}}}, {"name": "StatefulPartitionedCall/5_unetpp/x_0_3/x_0_3_b_conv/separable_conv2d_bn_offset", "op": "Const", "attr": {"value": {"tensor": {"dtype": "DT_FLOAT", "tensorShape": {"dim": [{"size": "16"}]}}}, "dtype": {"type": "DT_FLOAT"}}}, {"name": "StatefulPartitionedCall/5_unetpp/x_2_0/x_2_0_a_conv/separable_conv2d_weights", "op": "Const", "attr": {"value": {"tensor": {"dtype": "DT_FLOAT", "tensorShape": {"dim": [{"size": "1"}, {"size": "1"}, {"size": "32"}, {"size": "64"}]}}}, "dtype": {"type": "DT_FLOAT"}}}, {"name": "StatefulPartitionedCall/5_unetpp/x_2_0/x_2_0_a_conv/separable_conv2d_bn_offset", "op": "Const", "attr": {"value": {"tensor": {"dtype": "DT_FLOAT", "tensorShape": {"dim": [{"size": "64"}]}}}, "dtype": {"type": "DT_FLOAT"}}}, {"name": "StatefulPartitionedCall/5_unetpp/x_1_2/x_1_2_a_conv/separable_conv2d_weights", "op": "Const", "attr": {"value": {"tensor": {"dtype": "DT_FLOAT", "tensorShape": {"dim": [{"size": "1"}, {"size": "1"}, {"size": "128"}, {"size": "32"}]}}}, "dtype": {"type": "DT_FLOAT"}}}, {"name": "StatefulPartitionedCall/5_unetpp/x_0_1/x_0_1_a_conv/separable_conv2d_weights", "op": "Const", "attr": {"value": {"tensor": {"dtype": "DT_FLOAT", "tensorShape": {"dim": [{"size": "1"}, {"size": "1"}, {"size": "48"}, {"size": "16"}]}}}, "dtype": {"type": "DT_FLOAT"}}}, {"name": "StatefulPartitionedCall/5_unetpp/x_0_1/x_0_1_a_conv/separable_conv2d_bn_offset", "op": "Const", "attr": {"value": {"tensor": {"dtype": "DT_FLOAT", "tensorShape": {"dim": [{"size": "16"}]}}}, "dtype": {"type": "DT_FLOAT"}}}, {"name": "StatefulPartitionedCall/5_unetpp/x_1_2/x_1_2_a_conv/separable_conv2d_bn_offset", "op": "Const", "attr": {"value": {"tensor": {"dtype": "DT_FLOAT", "tensorShape": {"dim": [{"size": "32"}]}}}, "dtype": {"type": "DT_FLOAT"}}}, {"name": "StatefulPartitionedCall/5_unetpp/x_2_0/x_2_0_b_conv/separable_conv2d_weights", "op": "Const", "attr": {"value": {"tensor": {"dtype": "DT_FLOAT", "tensorShape": {"dim": [{"size": "1"}, {"size": "1"}, {"size": "64"}, {"size": "64"}]}}}, "dtype": {"type": "DT_FLOAT"}}}, {"name": "StatefulPartitionedCall/5_unetpp/x_2_0/x_2_0_b_conv/separable_conv2d_bn_offset", "op": "Const", "attr": {"value": {"tensor": {"dtype": "DT_FLOAT", "tensorShape": {"dim": [{"size": "64"}]}}}, "dtype": {"type": "DT_FLOAT"}}}, {"name": "StatefulPartitionedCall/5_unetpp/x_0_1/x_0_1_b_conv/separable_conv2d_weights", "op": "Const", "attr": {"value": {"tensor": {"dtype": "DT_FLOAT", "tensorShape": {"dim": [{"size": "1"}, {"size": "1"}, {"size": "16"}, {"size": "16"}]}}}, "dtype": {"type": "DT_FLOAT"}}}, {"name": "StatefulPartitionedCall/5_unetpp/x_0_1/x_0_1_b_conv/separable_conv2d_bn_offset", "op": "Const", "attr": {"value": {"tensor": {"dtype": "DT_FLOAT", "tensorShape": {"dim": [{"size": "16"}]}}}, "dtype": {"type": "DT_FLOAT"}}}, {"name": "StatefulPartitionedCall/5_unetpp/x_1_2/x_1_2_b_conv/separable_conv2d_weights", "op": "Const", "attr": {"value": {"tensor": {"dtype": "DT_FLOAT", "tensorShape": {"dim": [{"size": "1"}, {"size": "1"}, {"size": "32"}, {"size": "32"}]}}}, "dtype": {"type": "DT_FLOAT"}}}, {"name": "StatefulPartitionedCall/5_unetpp/x_3_0/x_3_0_a_conv/separable_conv2d_weights", "op": "Const", "attr": {"value": {"tensor": {"dtype": "DT_FLOAT", "tensorShape": {"dim": [{"size": "1"}, {"size": "1"}, {"size": "64"}, {"size": "128"}]}}}, "dtype": {"type": "DT_FLOAT"}}}, {"name": "StatefulPartitionedCall/5_unetpp/x_3_0/x_3_0_a_conv/separable_conv2d_bn_offset", "op": "Const", "attr": {"value": {"tensor": {"dtype": "DT_FLOAT", "tensorShape": {"dim": [{"size": "128"}]}}}, "dtype": {"type": "DT_FLOAT"}}}, {"name": "StatefulPartitionedCall/5_unetpp/x_1_2/x_1_2_b_conv/separable_conv2d_bn_offset", "op": "Const", "attr": {"value": {"tensor": {"dtype": "DT_FLOAT", "tensorShape": {"dim": [{"size": "32"}]}}}, "dtype": {"type": "DT_FLOAT"}}}, {"name": "StatefulPartitionedCall/5_unetpp/x_1_1/x_1_1_a_conv/separable_conv2d_weights", "op": "Const", "attr": {"value": {"tensor": {"dtype": "DT_FLOAT", "tensorShape": {"dim": [{"size": "1"}, {"size": "1"}, {"size": "96"}, {"size": "32"}]}}}, "dtype": {"type": "DT_FLOAT"}}}, {"name": "StatefulPartitionedCall/5_unetpp/x_1_1/x_1_1_a_conv/separable_conv2d_bn_offset", "op": "Const", "attr": {"value": {"tensor": {"dtype": "DT_FLOAT", "tensorShape": {"dim": [{"size": "32"}]}}}, "dtype": {"type": "DT_FLOAT"}}}, {"name": "StatefulPartitionedCall/5_unetpp/x_3_0/x_3_0_b_conv/separable_conv2d_weights", "op": "Const", "attr": {"value": {"tensor": {"dtype": "DT_FLOAT", "tensorShape": {"dim": [{"size": "1"}, {"size": "1"}, {"size": "128"}, {"size": "128"}]}}}, "dtype": {"type": "DT_FLOAT"}}}, {"name": "StatefulPartitionedCall/5_unetpp/x_3_0/x_3_0_b_conv/separable_conv2d_bn_offset", "op": "Const", "attr": {"value": {"tensor": {"dtype": "DT_FLOAT", "tensorShape": {"dim": [{"size": "128"}]}}}, "dtype": {"type": "DT_FLOAT"}}}, {"name": "StatefulPartitionedCall/5_unetpp/x_1_1/x_1_1_b_conv/separable_conv2d_weights", "op": "Const", "attr": {"value": {"tensor": {"dtype": "DT_FLOAT", "tensorShape": {"dim": [{"size": "1"}, {"size": "1"}, {"size": "32"}, {"size": "32"}]}}}, "dtype": {"type": "DT_FLOAT"}}}, {"name": "StatefulPartitionedCall/5_unetpp/x_1_1/x_1_1_b_conv/separable_conv2d_bn_offset", "op": "Const", "attr": {"value": {"tensor": {"dtype": "DT_FLOAT", "tensorShape": {"dim": [{"size": "32"}]}}}, "dtype": {"type": "DT_FLOAT"}}}, {"name": "StatefulPartitionedCall/5_unetpp/x_0_3/x_0_3_a_conv/separable_conv2d_weights", "op": "Const", "attr": {"value": {"tensor": {"dtype": "DT_FLOAT", "tensorShape": {"dim": [{"size": "1"}, {"size": "1"}, {"size": "80"}, {"size": "16"}]}}}, "dtype": {"type": "DT_FLOAT"}}}, {"name": "StatefulPartitionedCall/5_unetpp/x_2_1/x_2_1_a_conv/separable_conv2d_weights", "op": "Const", "attr": {"value": {"tensor": {"dtype": "DT_FLOAT", "tensorShape": {"dim": [{"size": "1"}, {"size": "1"}, {"size": "192"}, {"size": "64"}]}}}, "dtype": {"type": "DT_FLOAT"}}}, {"name": "StatefulPartitionedCall/5_unetpp/x_2_1/x_2_1_a_conv/separable_conv2d_bn_offset", "op": "Const", "attr": {"value": {"tensor": {"dtype": "DT_FLOAT", "tensorShape": {"dim": [{"size": "64"}]}}}, "dtype": {"type": "DT_FLOAT"}}}, {"name": "StatefulPartitionedCall/5_unetpp/x_0_3/x_0_3_a_conv/separable_conv2d_bn_offset", "op": "Const", "attr": {"value": {"tensor": {"dtype": "DT_FLOAT", "tensorShape": {"dim": [{"size": "16"}]}}}, "dtype": {"type": "DT_FLOAT"}}}, {"name": "StatefulPartitionedCall/5_unetpp/x_0_2/x_0_2_a_conv/separable_conv2d_weights", "op": "Const", "attr": {"value": {"tensor": {"dtype": "DT_FLOAT", "tensorShape": {"dim": [{"size": "1"}, {"size": "1"}, {"size": "64"}, {"size": "16"}]}}}, "dtype": {"type": "DT_FLOAT"}}}, {"name": "StatefulPartitionedCall/5_unetpp/x_0_2/x_0_2_a_conv/separable_conv2d_bn_offset", "op": "Const", "attr": {"value": {"tensor": {"dtype": "DT_FLOAT", "tensorShape": {"dim": [{"size": "16"}]}}}, "dtype": {"type": "DT_FLOAT"}}}, {"name": "StatefulPartitionedCall/5_unetpp/x_2_1/x_2_1_b_conv/separable_conv2d_weights", "op": "Const", "attr": {"value": {"tensor": {"dtype": "DT_FLOAT", "tensorShape": {"dim": [{"size": "1"}, {"size": "1"}, {"size": "64"}, {"size": "64"}]}}}, "dtype": {"type": "DT_FLOAT"}}}, {"name": "StatefulPartitionedCall/5_unetpp/x_2_1/x_2_1_b_conv/separable_conv2d_bn_offset", "op": "Const", "attr": {"value": {"tensor": {"dtype": "DT_FLOAT", "tensorShape": {"dim": [{"size": "64"}]}}}, "dtype": {"type": "DT_FLOAT"}}}, {"name": "StatefulPartitionedCall/5_unetpp/x_0_3/x_0_3_b_conv/separable_conv2d_weights", "op": "Const", "attr": {"value": {"tensor": {"dtype": "DT_FLOAT", "tensorShape": {"dim": [{"size": "1"}, {"size": "1"}, {"size": "16"}, {"size": "16"}]}}}, "dtype": {"type": "DT_FLOAT"}}}, {"name": "StatefulPartitionedCall/5_unetpp/x_0_0/x_0_0_a_conv/separable_conv2d/depthwise", "op": "DepthwiseConv2dNative", "input": ["input_image", "StatefulPartitionedCall/5_unetpp/x_0_0/x_0_0_a_conv/separable_conv2d/ReadVariableOp"], "attr": {"padding": {"s": "U0FNRQ=="}, "data_format": {"s": "TkhXQw=="}, "_input_shapes": {"list": {"shape": [{"dim": [{"size": "-3"}, {"size": "-10"}, {"size": "-11"}, {"size": "3"}]}, {"dim": [{"size": "3"}, {"size": "3"}, {"size": "3"}, {"size": "1"}]}]}}, "strides": {"list": {"i": ["1", "1", "1", "1"]}}, "T": {"type": "DT_FLOAT"}, "explicit_paddings": {"list": {}}, "dilations": {"list": {"i": ["1", "1", "1", "1"]}}}}, {"name": "StatefulPartitionedCall/5_unetpp/x_0_0/x_0_0_a_act/Relu", "op": "_FusedConv2D", "input": ["StatefulPartitionedCall/5_unetpp/x_0_0/x_0_0_a_conv/separable_conv2d/depthwise", "StatefulPartitionedCall/5_unetpp/x_0_0/x_0_0_a_conv/separable_conv2d_weights", "StatefulPartitionedCall/5_unetpp/x_0_0/x_0_0_a_conv/separable_conv2d_bn_offset"], "device": "/device:CPU:0", "attr": {"num_host_args": {"i": "0"}, "_input_shapes": {"list": {"shape": [{"dim": [{"size": "-3"}, {"size": "-10"}, {"size": "-11"}, {"size": "3"}]}, {"dim": [{"size": "1"}, {"size": "1"}, {"size": "3"}, {"size": "16"}]}]}}, "filter_format": {"s": "SFdJTw=="}, "data_format": {"s": "TkhXQw=="}, "fused_ops": {"list": {"s": ["Qmlhc0FkZA==", "UmVsdQ=="]}}, "num_args": {"i": "1"}, "strides": {"list": {"i": ["1", "1", "1", "1"]}}, "TArgs": {"list": {"type": ["DT_FLOAT"]}}, "padding": {"s": "VkFMSUQ="}, "use_cudnn_on_gpu": {"b": true}, "leakyrelu_alpha": {"f": 0.2}, "epsilon": {"f": 0.0}, "T": {"type": "DT_FLOAT"}, "explicit_paddings": {"list": {}}, "dilations": {"list": {"i": ["1", "1", "1", "1"]}}}}, {"name": "StatefulPartitionedCall/5_unetpp/x_0_0/x_0_0_b_conv/separable_conv2d/depthwise", "op": "DepthwiseConv2dNative", "input": ["StatefulPartitionedCall/5_unetpp/x_0_0/x_0_0_a_act/Relu", "StatefulPartitionedCall/5_unetpp/x_0_0/x_0_0_b_conv/separable_conv2d/ReadVariableOp"], "attr": {"padding": {"s": "U0FNRQ=="}, "_input_shapes": {"list": {"shape": [{"dim": [{"size": "-3"}, {"size": "-12"}, {"size": "-13"}, {"size": "16"}]}, {"dim": [{"size": "3"}, {"size": "3"}, {"size": "16"}, {"size": "1"}]}]}}, "data_format": {"s": "TkhXQw=="}, "strides": {"list": {"i": ["1", "1", "1", "1"]}}, "T": {"type": "DT_FLOAT"}, "explicit_paddings": {"list": {}}, "dilations": {"list": {"i": ["1", "1", "1", "1"]}}}}, {"name": "StatefulPartitionedCall/5_unetpp/x_0_0/x_0_0_b_act/Relu", "op": "_FusedConv2D", "input": ["StatefulPartitionedCall/5_unetpp/x_0_0/x_0_0_b_conv/separable_conv2d/depthwise", "StatefulPartitionedCall/5_unetpp/x_0_0/x_0_0_b_conv/separable_conv2d_weights", "StatefulPartitionedCall/5_unetpp/x_0_0/x_0_0_b_conv/separable_conv2d_bn_offset"], "device": "/device:CPU:0", "attr": {"num_host_args": {"i": "0"}, "data_format": {"s": "TkhXQw=="}, "filter_format": {"s": "SFdJTw=="}, "_input_shapes": {"list": {"shape": [{"dim": [{"size": "-3"}, {"size": "-12"}, {"size": "-13"}, {"size": "16"}]}, {"dim": [{"size": "1"}, {"size": "1"}, {"size": "16"}, {"size": "16"}]}]}}, "strides": {"list": {"i": ["1", "1", "1", "1"]}}, "num_args": {"i": "1"}, "fused_ops": {"list": {"s": ["Qmlhc0FkZA==", "UmVsdQ=="]}}, "TArgs": {"list": {"type": ["DT_FLOAT"]}}, "padding": {"s": "VkFMSUQ="}, "use_cudnn_on_gpu": {"b": true}, "leakyrelu_alpha": {"f": 0.2}, "epsilon": {"f": 0.0}, "T": {"type": "DT_FLOAT"}, "explicit_paddings": {"list": {}}, "dilations": {"list": {"i": ["1", "1", "1", "1"]}}}}, {"name": "StatefulPartitionedCall/5_unetpp/maxpool/MaxPool", "op": "MaxPool", "input": ["StatefulPartitionedCall/5_unetpp/x_0_0/x_0_0_b_act/Relu"], "attr": {"ksize": {"list": {"i": ["1", "2", "2", "1"]}}, "data_format": {"s": "TkhXQw=="}, "T": {"type": "DT_FLOAT"}, "explicit_paddings": {"list": {}}, "padding": {"s": "U0FNRQ=="}, "strides": {"list": {"i": ["1", "2", "2", "1"]}}}}, {"name": "StatefulPartitionedCall/5_unetpp/x_1_0/x_1_0_a_conv/separable_conv2d/depthwise", "op": "DepthwiseConv2dNative", "input": ["StatefulPartitionedCall/5_unetpp/maxpool/MaxPool", "StatefulPartitionedCall/5_unetpp/x_1_0/x_1_0_a_conv/separable_conv2d/ReadVariableOp"], "attr": {"padding": {"s": "U0FNRQ=="}, "_input_shapes": {"list": {"shape": [{"dim": [{"size": "-3"}, {"size": "-14"}, {"size": "-15"}, {"size": "16"}]}, {"dim": [{"size": "3"}, {"size": "3"}, {"size": "16"}, {"size": "1"}]}]}}, "data_format": {"s": "TkhXQw=="}, "strides": {"list": {"i": ["1", "1", "1", "1"]}}, "T": {"type": "DT_FLOAT"}, "explicit_paddings": {"list": {}}, "dilations": {"list": {"i": ["1", "1", "1", "1"]}}}}, {"name": "StatefulPartitionedCall/5_unetpp/x_1_0/x_1_0_a_act/Relu", "op": "_FusedConv2D", "input": ["StatefulPartitionedCall/5_unetpp/x_1_0/x_1_0_a_conv/separable_conv2d/depthwise", "StatefulPartitionedCall/5_unetpp/x_1_0/x_1_0_a_conv/separable_conv2d_weights", "StatefulPartitionedCall/5_unetpp/x_1_0/x_1_0_a_conv/separable_conv2d_bn_offset"], "device": "/device:CPU:0", "attr": {"num_host_args": {"i": "0"}, "data_format": {"s": "TkhXQw=="}, "filter_format": {"s": "SFdJTw=="}, "_input_shapes": {"list": {"shape": [{"dim": [{"size": "-3"}, {"size": "-14"}, {"size": "-15"}, {"size": "16"}]}, {"dim": [{"size": "1"}, {"size": "1"}, {"size": "16"}, {"size": "32"}]}]}}, "strides": {"list": {"i": ["1", "1", "1", "1"]}}, "num_args": {"i": "1"}, "fused_ops": {"list": {"s": ["Qmlhc0FkZA==", "UmVsdQ=="]}}, "TArgs": {"list": {"type": ["DT_FLOAT"]}}, "padding": {"s": "VkFMSUQ="}, "use_cudnn_on_gpu": {"b": true}, "leakyrelu_alpha": {"f": 0.2}, "epsilon": {"f": 0.0}, "T": {"type": "DT_FLOAT"}, "explicit_paddings": {"list": {}}, "dilations": {"list": {"i": ["1", "1", "1", "1"]}}}}, {"name": "StatefulPartitionedCall/5_unetpp/x_1_0/x_1_0_b_conv/separable_conv2d/depthwise", "op": "DepthwiseConv2dNative", "input": ["StatefulPartitionedCall/5_unetpp/x_1_0/x_1_0_a_act/Relu", "StatefulPartitionedCall/5_unetpp/x_1_0/x_1_0_b_conv/separable_conv2d/ReadVariableOp"], "attr": {"padding": {"s": "U0FNRQ=="}, "data_format": {"s": "TkhXQw=="}, "_input_shapes": {"list": {"shape": [{"dim": [{"size": "-3"}, {"size": "-16"}, {"size": "-17"}, {"size": "32"}]}, {"dim": [{"size": "3"}, {"size": "3"}, {"size": "32"}, {"size": "1"}]}]}}, "strides": {"list": {"i": ["1", "1", "1", "1"]}}, "T": {"type": "DT_FLOAT"}, "explicit_paddings": {"list": {}}, "dilations": {"list": {"i": ["1", "1", "1", "1"]}}}}, {"name": "StatefulPartitionedCall/5_unetpp/x_1_0/x_1_0_b_act/Relu", "op": "_FusedConv2D", "input": ["StatefulPartitionedCall/5_unetpp/x_1_0/x_1_0_b_conv/separable_conv2d/depthwise", "StatefulPartitionedCall/5_unetpp/x_1_0/x_1_0_b_conv/separable_conv2d_weights", "StatefulPartitionedCall/5_unetpp/x_1_0/x_1_0_b_conv/separable_conv2d_bn_offset"], "device": "/device:CPU:0", "attr": {"num_host_args": {"i": "0"}, "data_format": {"s": "TkhXQw=="}, "filter_format": {"s": "SFdJTw=="}, "_input_shapes": {"list": {"shape": [{"dim": [{"size": "-3"}, {"size": "-16"}, {"size": "-17"}, {"size": "32"}]}, {"dim": [{"size": "1"}, {"size": "1"}, {"size": "32"}, {"size": "32"}]}]}}, "fused_ops": {"list": {"s": ["Qmlhc0FkZA==", "UmVsdQ=="]}}, "num_args": {"i": "1"}, "strides": {"list": {"i": ["1", "1", "1", "1"]}}, "TArgs": {"list": {"type": ["DT_FLOAT"]}}, "padding": {"s": "VkFMSUQ="}, "use_cudnn_on_gpu": {"b": true}, "leakyrelu_alpha": {"f": 0.2}, "epsilon": {"f": 0.0}, "T": {"type": "DT_FLOAT"}, "explicit_paddings": {"list": {}}, "dilations": {"list": {"i": ["1", "1", "1", "1"]}}}}, {"name": "StatefulPartitionedCall/5_unetpp/up_1_0/resize/ResizeBilinear", "op": "ResizeBilinear", "input": ["StatefulPartitionedCall/5_unetpp/x_1_0/x_1_0_b_act/Relu", "StatefulPartitionedCall/5_unetpp/up_1_0/mul"], "attr": {"T": {"type": "DT_FLOAT"}, "align_corners": {"b": false}, "half_pixel_centers": {"b": true}}}, {"name": "StatefulPartitionedCall/5_unetpp/maxpool/MaxPool_1", "op": "MaxPool", "input": ["StatefulPartitionedCall/5_unetpp/x_1_0/x_1_0_b_act/Relu"], "attr": {"ksize": {"list": {"i": ["1", "2", "2", "1"]}}, "data_format": {"s": "TkhXQw=="}, "T": {"type": "DT_FLOAT"}, "explicit_paddings": {"list": {}}, "padding": {"s": "U0FNRQ=="}, "strides": {"list": {"i": ["1", "2", "2", "1"]}}}}, {"name": "StatefulPartitionedCall/5_unetpp/merge_0_1/concat", "op": "ConcatV2", "input": ["StatefulPartitionedCall/5_unetpp/x_0_0/x_0_0_b_act/Relu", "StatefulPartitionedCall/5_unetpp/up_1_0/resize/ResizeBilinear", "StatefulPartitionedCall/5_unetpp/merge_0_1/concat/axis"], "attr": {"N": {"i": "2"}, "Tidx": {"type": "DT_INT32"}, "T": {"type": "DT_FLOAT"}}}, {"name": "StatefulPartitionedCall/5_unetpp/x_2_0/x_2_0_a_conv/separable_conv2d/depthwise", "op": "DepthwiseConv2dNative", "input": ["StatefulPartitionedCall/5_unetpp/maxpool/MaxPool_1", "StatefulPartitionedCall/5_unetpp/x_2_0/x_2_0_a_conv/separable_conv2d/ReadVariableOp"], "attr": {"padding": {"s": "U0FNRQ=="}, "_input_shapes": {"list": {"shape": [{"dim": [{"size": "-3"}, {"size": "-18"}, {"size": "-19"}, {"size": "32"}]}, {"dim": [{"size": "3"}, {"size": "3"}, {"size": "32"}, {"size": "1"}]}]}}, "data_format": {"s": "TkhXQw=="}, "strides": {"list": {"i": ["1", "1", "1", "1"]}}, "T": {"type": "DT_FLOAT"}, "explicit_paddings": {"list": {}}, "dilations": {"list": {"i": ["1", "1", "1", "1"]}}}}, {"name": "StatefulPartitionedCall/5_unetpp/x_0_1/x_0_1_a_conv/separable_conv2d/depthwise", "op": "DepthwiseConv2dNative", "input": ["StatefulPartitionedCall/5_unetpp/merge_0_1/concat", "StatefulPartitionedCall/5_unetpp/x_0_1/x_0_1_a_conv/separable_conv2d/ReadVariableOp"], "attr": {"padding": {"s": "U0FNRQ=="}, "data_format": {"s": "TkhXQw=="}, "_input_shapes": {"list": {"shape": [{"dim": [{"size": "-3"}, {"size": "128"}, {"size": "128"}, {"size": "48"}]}, {"dim": [{"size": "3"}, {"size": "3"}, {"size": "48"}, {"size": "1"}]}]}}, "strides": {"list": {"i": ["1", "1", "1", "1"]}}, "T": {"type": "DT_FLOAT"}, "explicit_paddings": {"list": {}}, "dilations": {"list": {"i": ["1", "1", "1", "1"]}}}}, {"name": "StatefulPartitionedCall/5_unetpp/x_2_0/x_2_0_a_act/Relu", "op": "_FusedConv2D", "input": ["StatefulPartitionedCall/5_unetpp/x_2_0/x_2_0_a_conv/separable_conv2d/depthwise", "StatefulPartitionedCall/5_unetpp/x_2_0/x_2_0_a_conv/separable_conv2d_weights", "StatefulPartitionedCall/5_unetpp/x_2_0/x_2_0_a_conv/separable_conv2d_bn_offset"], "device": "/device:CPU:0", "attr": {"num_host_args": {"i": "0"}, "_input_shapes": {"list": {"shape": [{"dim": [{"size": "-3"}, {"size": "-18"}, {"size": "-19"}, {"size": "32"}]}, {"dim": [{"size": "1"}, {"size": "1"}, {"size": "32"}, {"size": "64"}]}]}}, "filter_format": {"s": "SFdJTw=="}, "data_format": {"s": "TkhXQw=="}, "strides": {"list": {"i": ["1", "1", "1", "1"]}}, "num_args": {"i": "1"}, "fused_ops": {"list": {"s": ["Qmlhc0FkZA==", "UmVsdQ=="]}}, "TArgs": {"list": {"type": ["DT_FLOAT"]}}, "padding": {"s": "VkFMSUQ="}, "use_cudnn_on_gpu": {"b": true}, "leakyrelu_alpha": {"f": 0.2}, "epsilon": {"f": 0.0}, "T": {"type": "DT_FLOAT"}, "explicit_paddings": {"list": {}}, "dilations": {"list": {"i": ["1", "1", "1", "1"]}}}}, {"name": "StatefulPartitionedCall/5_unetpp/x_0_1/x_0_1_a_act/Relu", "op": "_FusedConv2D", "input": ["StatefulPartitionedCall/5_unetpp/x_0_1/x_0_1_a_conv/separable_conv2d/depthwise", "StatefulPartitionedCall/5_unetpp/x_0_1/x_0_1_a_conv/separable_conv2d_weights", "StatefulPartitionedCall/5_unetpp/x_0_1/x_0_1_a_conv/separable_conv2d_bn_offset"], "device": "/device:CPU:0", "attr": {"num_host_args": {"i": "0"}, "data_format": {"s": "TkhXQw=="}, "filter_format": {"s": "SFdJTw=="}, "_input_shapes": {"list": {"shape": [{"dim": [{"size": "-3"}, {"size": "128"}, {"size": "128"}, {"size": "48"}]}, {"dim": [{"size": "1"}, {"size": "1"}, {"size": "48"}, {"size": "16"}]}]}}, "strides": {"list": {"i": ["1", "1", "1", "1"]}}, "num_args": {"i": "1"}, "fused_ops": {"list": {"s": ["Qmlhc0FkZA==", "UmVsdQ=="]}}, "TArgs": {"list": {"type": ["DT_FLOAT"]}}, "padding": {"s": "VkFMSUQ="}, "use_cudnn_on_gpu": {"b": true}, "leakyrelu_alpha": {"f": 0.2}, "epsilon": {"f": 0.0}, "T": {"type": "DT_FLOAT"}, "explicit_paddings": {"list": {}}, "dilations": {"list": {"i": ["1", "1", "1", "1"]}}}}, {"name": "StatefulPartitionedCall/5_unetpp/x_2_0/x_2_0_b_conv/separable_conv2d/depthwise", "op": "DepthwiseConv2dNative", "input": ["StatefulPartitionedCall/5_unetpp/x_2_0/x_2_0_a_act/Relu", "StatefulPartitionedCall/5_unetpp/x_2_0/x_2_0_b_conv/separable_conv2d/ReadVariableOp"], "attr": {"padding": {"s": "U0FNRQ=="}, "data_format": {"s": "TkhXQw=="}, "_input_shapes": {"list": {"shape": [{"dim": [{"size": "-3"}, {"size": "-20"}, {"size": "-21"}, {"size": "64"}]}, {"dim": [{"size": "3"}, {"size": "3"}, {"size": "64"}, {"size": "1"}]}]}}, "strides": {"list": {"i": ["1", "1", "1", "1"]}}, "T": {"type": "DT_FLOAT"}, "explicit_paddings": {"list": {}}, "dilations": {"list": {"i": ["1", "1", "1", "1"]}}}}, {"name": "StatefulPartitionedCall/5_unetpp/x_0_1/x_0_1_b_conv/separable_conv2d/depthwise", "op": "DepthwiseConv2dNative", "input": ["StatefulPartitionedCall/5_unetpp/x_0_1/x_0_1_a_act/Relu", "StatefulPartitionedCall/5_unetpp/x_0_1/x_0_1_b_conv/separable_conv2d/ReadVariableOp"], "attr": {"padding": {"s": "U0FNRQ=="}, "data_format": {"s": "TkhXQw=="}, "_input_shapes": {"list": {"shape": [{"dim": [{"size": "-3"}, {"size": "128"}, {"size": "128"}, {"size": "16"}]}, {"dim": [{"size": "3"}, {"size": "3"}, {"size": "16"}, {"size": "1"}]}]}}, "strides": {"list": {"i": ["1", "1", "1", "1"]}}, "T": {"type": "DT_FLOAT"}, "explicit_paddings": {"list": {}}, "dilations": {"list": {"i": ["1", "1", "1", "1"]}}}}, {"name": "StatefulPartitionedCall/5_unetpp/x_2_0/x_2_0_b_act/Relu", "op": "_FusedConv2D", "input": ["StatefulPartitionedCall/5_unetpp/x_2_0/x_2_0_b_conv/separable_conv2d/depthwise", "StatefulPartitionedCall/5_unetpp/x_2_0/x_2_0_b_conv/separable_conv2d_weights", "StatefulPartitionedCall/5_unetpp/x_2_0/x_2_0_b_conv/separable_conv2d_bn_offset"], "device": "/device:CPU:0", "attr": {"num_host_args": {"i": "0"}, "data_format": {"s": "TkhXQw=="}, "filter_format": {"s": "SFdJTw=="}, "_input_shapes": {"list": {"shape": [{"dim": [{"size": "-3"}, {"size": "-20"}, {"size": "-21"}, {"size": "64"}]}, {"dim": [{"size": "1"}, {"size": "1"}, {"size": "64"}, {"size": "64"}]}]}}, "fused_ops": {"list": {"s": ["Qmlhc0FkZA==", "UmVsdQ=="]}}, "num_args": {"i": "1"}, "strides": {"list": {"i": ["1", "1", "1", "1"]}}, "TArgs": {"list": {"type": ["DT_FLOAT"]}}, "padding": {"s": "VkFMSUQ="}, "use_cudnn_on_gpu": {"b": true}, "leakyrelu_alpha": {"f": 0.2}, "epsilon": {"f": 0.0}, "T": {"type": "DT_FLOAT"}, "explicit_paddings": {"list": {}}, "dilations": {"list": {"i": ["1", "1", "1", "1"]}}}}, {"name": "StatefulPartitionedCall/5_unetpp/x_0_1/x_0_1_b_act/Relu", "op": "_FusedConv2D", "input": ["StatefulPartitionedCall/5_unetpp/x_0_1/x_0_1_b_conv/separable_conv2d/depthwise", "StatefulPartitionedCall/5_unetpp/x_0_1/x_0_1_b_conv/separable_conv2d_weights", "StatefulPartitionedCall/5_unetpp/x_0_1/x_0_1_b_conv/separable_conv2d_bn_offset"], "device": "/device:CPU:0", "attr": {"num_host_args": {"i": "0"}, "data_format": {"s": "TkhXQw=="}, "filter_format": {"s": "SFdJTw=="}, "_input_shapes": {"list": {"shape": [{"dim": [{"size": "-3"}, {"size": "128"}, {"size": "128"}, {"size": "16"}]}, {"dim": [{"size": "1"}, {"size": "1"}, {"size": "16"}, {"size": "16"}]}]}}, "strides": {"list": {"i": ["1", "1", "1", "1"]}}, "num_args": {"i": "1"}, "fused_ops": {"list": {"s": ["Qmlhc0FkZA==", "UmVsdQ=="]}}, "TArgs": {"list": {"type": ["DT_FLOAT"]}}, "padding": {"s": "VkFMSUQ="}, "use_cudnn_on_gpu": {"b": true}, "leakyrelu_alpha": {"f": 0.2}, "epsilon": {"f": 0.0}, "T": {"type": "DT_FLOAT"}, "explicit_paddings": {"list": {}}, "dilations": {"list": {"i": ["1", "1", "1", "1"]}}}}, {"name": "StatefulPartitionedCall/5_unetpp/up_2_0/resize/ResizeBilinear", "op": "ResizeBilinear", "input": ["StatefulPartitionedCall/5_unetpp/x_2_0/x_2_0_b_act/Relu", "StatefulPartitionedCall/5_unetpp/up_2_0/mul"], "attr": {"T": {"type": "DT_FLOAT"}, "align_corners": {"b": false}, "half_pixel_centers": {"b": true}}}, {"name": "StatefulPartitionedCall/5_unetpp/maxpool/MaxPool_2", "op": "MaxPool", "input": ["StatefulPartitionedCall/5_unetpp/x_2_0/x_2_0_b_act/Relu"], "attr": {"ksize": {"list": {"i": ["1", "2", "2", "1"]}}, "data_format": {"s": "TkhXQw=="}, "T": {"type": "DT_FLOAT"}, "explicit_paddings": {"list": {}}, "padding": {"s": "U0FNRQ=="}, "strides": {"list": {"i": ["1", "2", "2", "1"]}}}}, {"name": "StatefulPartitionedCall/5_unetpp/merge_1_1/concat", "op": "ConcatV2", "input": ["StatefulPartitionedCall/5_unetpp/x_1_0/x_1_0_b_act/Relu", "StatefulPartitionedCall/5_unetpp/up_2_0/resize/ResizeBilinear", "StatefulPartitionedCall/5_unetpp/merge_1_1/concat/axis"], "attr": {"N": {"i": "2"}, "T": {"type": "DT_FLOAT"}, "Tidx": {"type": "DT_INT32"}}}, {"name": "StatefulPartitionedCall/5_unetpp/x_3_0/x_3_0_a_conv/separable_conv2d/depthwise", "op": "DepthwiseConv2dNative", "input": ["StatefulPartitionedCall/5_unetpp/maxpool/MaxPool_2", "StatefulPartitionedCall/5_unetpp/x_3_0/x_3_0_a_conv/separable_conv2d/ReadVariableOp"], "attr": {"padding": {"s": "U0FNRQ=="}, "data_format": {"s": "TkhXQw=="}, "_input_shapes": {"list": {"shape": [{"dim": [{"size": "-3"}, {"size": "-22"}, {"size": "-23"}, {"size": "64"}]}, {"dim": [{"size": "3"}, {"size": "3"}, {"size": "64"}, {"size": "1"}]}]}}, "strides": {"list": {"i": ["1", "1", "1", "1"]}}, "T": {"type": "DT_FLOAT"}, "explicit_paddings": {"list": {}}, "dilations": {"list": {"i": ["1", "1", "1", "1"]}}}}, {"name": "StatefulPartitionedCall/5_unetpp/x_1_1/x_1_1_a_conv/separable_conv2d/depthwise", "op": "DepthwiseConv2dNative", "input": ["StatefulPartitionedCall/5_unetpp/merge_1_1/concat", "StatefulPartitionedCall/5_unetpp/x_1_1/x_1_1_a_conv/separable_conv2d/ReadVariableOp"], "attr": {"padding": {"s": "U0FNRQ=="}, "_input_shapes": {"list": {"shape": [{"dim": [{"size": "-3"}, {"size": "64"}, {"size": "64"}, {"size": "96"}]}, {"dim": [{"size": "3"}, {"size": "3"}, {"size": "96"}, {"size": "1"}]}]}}, "data_format": {"s": "TkhXQw=="}, "strides": {"list": {"i": ["1", "1", "1", "1"]}}, "T": {"type": "DT_FLOAT"}, "explicit_paddings": {"list": {}}, "dilations": {"list": {"i": ["1", "1", "1", "1"]}}}}, {"name": "StatefulPartitionedCall/5_unetpp/x_3_0/x_3_0_a_act/Relu", "op": "_FusedConv2D", "input": ["StatefulPartitionedCall/5_unetpp/x_3_0/x_3_0_a_conv/separable_conv2d/depthwise", "StatefulPartitionedCall/5_unetpp/x_3_0/x_3_0_a_conv/separable_conv2d_weights", "StatefulPartitionedCall/5_unetpp/x_3_0/x_3_0_a_conv/separable_conv2d_bn_offset"], "device": "/device:CPU:0", "attr": {"num_host_args": {"i": "0"}, "_input_shapes": {"list": {"shape": [{"dim": [{"size": "-3"}, {"size": "-22"}, {"size": "-23"}, {"size": "64"}]}, {"dim": [{"size": "1"}, {"size": "1"}, {"size": "64"}, {"size": "128"}]}]}}, "filter_format": {"s": "SFdJTw=="}, "data_format": {"s": "TkhXQw=="}, "fused_ops": {"list": {"s": ["Qmlhc0FkZA==", "UmVsdQ=="]}}, "num_args": {"i": "1"}, "strides": {"list": {"i": ["1", "1", "1", "1"]}}, "TArgs": {"list": {"type": ["DT_FLOAT"]}}, "padding": {"s": "VkFMSUQ="}, "use_cudnn_on_gpu": {"b": true}, "leakyrelu_alpha": {"f": 0.2}, "epsilon": {"f": 0.0}, "T": {"type": "DT_FLOAT"}, "explicit_paddings": {"list": {}}, "dilations": {"list": {"i": ["1", "1", "1", "1"]}}}}, {"name": "StatefulPartitionedCall/5_unetpp/x_1_1/x_1_1_a_act/Relu", "op": "_FusedConv2D", "input": ["StatefulPartitionedCall/5_unetpp/x_1_1/x_1_1_a_conv/separable_conv2d/depthwise", "StatefulPartitionedCall/5_unetpp/x_1_1/x_1_1_a_conv/separable_conv2d_weights", "StatefulPartitionedCall/5_unetpp/x_1_1/x_1_1_a_conv/separable_conv2d_bn_offset"], "device": "/device:CPU:0", "attr": {"num_host_args": {"i": "0"}, "data_format": {"s": "TkhXQw=="}, "filter_format": {"s": "SFdJTw=="}, "_input_shapes": {"list": {"shape": [{"dim": [{"size": "-3"}, {"size": "64"}, {"size": "64"}, {"size": "96"}]}, {"dim": [{"size": "1"}, {"size": "1"}, {"size": "96"}, {"size": "32"}]}]}}, "strides": {"list": {"i": ["1", "1", "1", "1"]}}, "num_args": {"i": "1"}, "fused_ops": {"list": {"s": ["Qmlhc0FkZA==", "UmVsdQ=="]}}, "TArgs": {"list": {"type": ["DT_FLOAT"]}}, "padding": {"s": "VkFMSUQ="}, "use_cudnn_on_gpu": {"b": true}, "leakyrelu_alpha": {"f": 0.2}, "epsilon": {"f": 0.0}, "T": {"type": "DT_FLOAT"}, "explicit_paddings": {"list": {}}, "dilations": {"list": {"i": ["1", "1", "1", "1"]}}}}, {"name": "StatefulPartitionedCall/5_unetpp/x_3_0/x_3_0_b_conv/separable_conv2d/depthwise", "op": "DepthwiseConv2dNative", "input": ["StatefulPartitionedCall/5_unetpp/x_3_0/x_3_0_a_act/Relu", "StatefulPartitionedCall/5_unetpp/x_3_0/x_3_0_b_conv/separable_conv2d/ReadVariableOp"], "attr": {"padding": {"s": "U0FNRQ=="}, "_input_shapes": {"list": {"shape": [{"dim": [{"size": "-3"}, {"size": "-24"}, {"size": "-25"}, {"size": "128"}]}, {"dim": [{"size": "3"}, {"size": "3"}, {"size": "128"}, {"size": "1"}]}]}}, "data_format": {"s": "TkhXQw=="}, "strides": {"list": {"i": ["1", "1", "1", "1"]}}, "T": {"type": "DT_FLOAT"}, "explicit_paddings": {"list": {}}, "dilations": {"list": {"i": ["1", "1", "1", "1"]}}}}, {"name": "StatefulPartitionedCall/5_unetpp/x_1_1/x_1_1_b_conv/separable_conv2d/depthwise", "op": "DepthwiseConv2dNative", "input": ["StatefulPartitionedCall/5_unetpp/x_1_1/x_1_1_a_act/Relu", "StatefulPartitionedCall/5_unetpp/x_1_1/x_1_1_b_conv/separable_conv2d/ReadVariableOp"], "attr": {"padding": {"s": "U0FNRQ=="}, "data_format": {"s": "TkhXQw=="}, "_input_shapes": {"list": {"shape": [{"dim": [{"size": "-3"}, {"size": "64"}, {"size": "64"}, {"size": "32"}]}, {"dim": [{"size": "3"}, {"size": "3"}, {"size": "32"}, {"size": "1"}]}]}}, "strides": {"list": {"i": ["1", "1", "1", "1"]}}, "T": {"type": "DT_FLOAT"}, "explicit_paddings": {"list": {}}, "dilations": {"list": {"i": ["1", "1", "1", "1"]}}}}, {"name": "StatefulPartitionedCall/5_unetpp/x_3_0/x_3_0_b_act/Relu", "op": "_FusedConv2D", "input": ["StatefulPartitionedCall/5_unetpp/x_3_0/x_3_0_b_conv/separable_conv2d/depthwise", "StatefulPartitionedCall/5_unetpp/x_3_0/x_3_0_b_conv/separable_conv2d_weights", "StatefulPartitionedCall/5_unetpp/x_3_0/x_3_0_b_conv/separable_conv2d_bn_offset"], "device": "/device:CPU:0", "attr": {"num_host_args": {"i": "0"}, "data_format": {"s": "TkhXQw=="}, "filter_format": {"s": "SFdJTw=="}, "_input_shapes": {"list": {"shape": [{"dim": [{"size": "-3"}, {"size": "-24"}, {"size": "-25"}, {"size": "128"}]}, {"dim": [{"size": "1"}, {"size": "1"}, {"size": "128"}, {"size": "128"}]}]}}, "strides": {"list": {"i": ["1", "1", "1", "1"]}}, "num_args": {"i": "1"}, "fused_ops": {"list": {"s": ["Qmlhc0FkZA==", "UmVsdQ=="]}}, "TArgs": {"list": {"type": ["DT_FLOAT"]}}, "padding": {"s": "VkFMSUQ="}, "use_cudnn_on_gpu": {"b": true}, "leakyrelu_alpha": {"f": 0.2}, "epsilon": {"f": 0.0}, "T": {"type": "DT_FLOAT"}, "explicit_paddings": {"list": {}}, "dilations": {"list": {"i": ["1", "1", "1", "1"]}}}}, {"name": "StatefulPartitionedCall/5_unetpp/x_1_1/x_1_1_b_act/Relu", "op": "_FusedConv2D", "input": ["StatefulPartitionedCall/5_unetpp/x_1_1/x_1_1_b_conv/separable_conv2d/depthwise", "StatefulPartitionedCall/5_unetpp/x_1_1/x_1_1_b_conv/separable_conv2d_weights", "StatefulPartitionedCall/5_unetpp/x_1_1/x_1_1_b_conv/separable_conv2d_bn_offset"], "device": "/device:CPU:0", "attr": {"num_host_args": {"i": "0"}, "_input_shapes": {"list": {"shape": [{"dim": [{"size": "-3"}, {"size": "64"}, {"size": "64"}, {"size": "32"}]}, {"dim": [{"size": "1"}, {"size": "1"}, {"size": "32"}, {"size": "32"}]}]}}, "filter_format": {"s": "SFdJTw=="}, "data_format": {"s": "TkhXQw=="}, "fused_ops": {"list": {"s": ["Qmlhc0FkZA==", "UmVsdQ=="]}}, "num_args": {"i": "1"}, "strides": {"list": {"i": ["1", "1", "1", "1"]}}, "TArgs": {"list": {"type": ["DT_FLOAT"]}}, "padding": {"s": "VkFMSUQ="}, "use_cudnn_on_gpu": {"b": true}, "leakyrelu_alpha": {"f": 0.2}, "epsilon": {"f": 0.0}, "T": {"type": "DT_FLOAT"}, "explicit_paddings": {"list": {}}, "dilations": {"list": {"i": ["1", "1", "1", "1"]}}}}, {"name": "StatefulPartitionedCall/5_unetpp/up_3_0/resize/ResizeBilinear", "op": "ResizeBilinear", "input": ["StatefulPartitionedCall/5_unetpp/x_3_0/x_3_0_b_act/Relu", "StatefulPartitionedCall/5_unetpp/up_3_0/mul"], "attr": {"T": {"type": "DT_FLOAT"}, "align_corners": {"b": false}, "half_pixel_centers": {"b": true}}}, {"name": "StatefulPartitionedCall/5_unetpp/up_1_1/resize/ResizeBilinear", "op": "ResizeBilinear", "input": ["StatefulPartitionedCall/5_unetpp/x_1_1/x_1_1_b_act/Relu", "StatefulPartitionedCall/5_unetpp/up_1_1/mul"], "attr": {"T": {"type": "DT_FLOAT"}, "align_corners": {"b": false}, "half_pixel_centers": {"b": true}}}, {"name": "StatefulPartitionedCall/5_unetpp/merge_2_1/concat", "op": "ConcatV2", "input": ["StatefulPartitionedCall/5_unetpp/x_2_0/x_2_0_b_act/Relu", "StatefulPartitionedCall/5_unetpp/up_3_0/resize/ResizeBilinear", "StatefulPartitionedCall/5_unetpp/merge_2_1/concat/axis"], "attr": {"N": {"i": "2"}, "T": {"type": "DT_FLOAT"}, "Tidx": {"type": "DT_INT32"}}}, {"name": "StatefulPartitionedCall/5_unetpp/merge_0_2/concat", "op": "ConcatV2", "input": ["StatefulPartitionedCall/5_unetpp/x_0_0/x_0_0_b_act/Relu", "StatefulPartitionedCall/5_unetpp/x_0_1/x_0_1_b_act/Relu", "StatefulPartitionedCall/5_unetpp/up_1_1/resize/ResizeBilinear", "StatefulPartitionedCall/5_unetpp/merge_0_2/concat/axis"], "attr": {"N": {"i": "3"}, "Tidx": {"type": "DT_INT32"}, "T": {"type": "DT_FLOAT"}}}, {"name": "StatefulPartitionedCall/5_unetpp/x_2_1/x_2_1_a_conv/separable_conv2d/depthwise", "op": "DepthwiseConv2dNative", "input": ["StatefulPartitionedCall/5_unetpp/merge_2_1/concat", "StatefulPartitionedCall/5_unetpp/x_2_1/x_2_1_a_conv/separable_conv2d/ReadVariableOp"], "attr": {"padding": {"s": "U0FNRQ=="}, "_input_shapes": {"list": {"shape": [{"dim": [{"size": "-3"}, {"size": "32"}, {"size": "32"}, {"size": "192"}]}, {"dim": [{"size": "3"}, {"size": "3"}, {"size": "192"}, {"size": "1"}]}]}}, "data_format": {"s": "TkhXQw=="}, "strides": {"list": {"i": ["1", "1", "1", "1"]}}, "T": {"type": "DT_FLOAT"}, "explicit_paddings": {"list": {}}, "dilations": {"list": {"i": ["1", "1", "1", "1"]}}}}, {"name": "StatefulPartitionedCall/5_unetpp/x_0_2/x_0_2_a_conv/separable_conv2d/depthwise", "op": "DepthwiseConv2dNative", "input": ["StatefulPartitionedCall/5_unetpp/merge_0_2/concat", "StatefulPartitionedCall/5_unetpp/x_0_2/x_0_2_a_conv/separable_conv2d/ReadVariableOp"], "attr": {"padding": {"s": "U0FNRQ=="}, "data_format": {"s": "TkhXQw=="}, "_input_shapes": {"list": {"shape": [{"dim": [{"size": "-3"}, {"size": "128"}, {"size": "128"}, {"size": "64"}]}, {"dim": [{"size": "3"}, {"size": "3"}, {"size": "64"}, {"size": "1"}]}]}}, "strides": {"list": {"i": ["1", "1", "1", "1"]}}, "T": {"type": "DT_FLOAT"}, "explicit_paddings": {"list": {}}, "dilations": {"list": {"i": ["1", "1", "1", "1"]}}}}, {"name": "StatefulPartitionedCall/5_unetpp/x_2_1/x_2_1_a_act/Relu", "op": "_FusedConv2D", "input": ["StatefulPartitionedCall/5_unetpp/x_2_1/x_2_1_a_conv/separable_conv2d/depthwise", "StatefulPartitionedCall/5_unetpp/x_2_1/x_2_1_a_conv/separable_conv2d_weights", "StatefulPartitionedCall/5_unetpp/x_2_1/x_2_1_a_conv/separable_conv2d_bn_offset"], "device": "/device:CPU:0", "attr": {"num_host_args": {"i": "0"}, "_input_shapes": {"list": {"shape": [{"dim": [{"size": "-3"}, {"size": "32"}, {"size": "32"}, {"size": "192"}]}, {"dim": [{"size": "1"}, {"size": "1"}, {"size": "192"}, {"size": "64"}]}]}}, "filter_format": {"s": "SFdJTw=="}, "data_format": {"s": "TkhXQw=="}, "strides": {"list": {"i": ["1", "1", "1", "1"]}}, "num_args": {"i": "1"}, "fused_ops": {"list": {"s": ["Qmlhc0FkZA==", "UmVsdQ=="]}}, "TArgs": {"list": {"type": ["DT_FLOAT"]}}, "padding": {"s": "VkFMSUQ="}, "use_cudnn_on_gpu": {"b": true}, "leakyrelu_alpha": {"f": 0.2}, "epsilon": {"f": 0.0}, "T": {"type": "DT_FLOAT"}, "explicit_paddings": {"list": {}}, "dilations": {"list": {"i": ["1", "1", "1", "1"]}}}}, {"name": "StatefulPartitionedCall/5_unetpp/x_0_2/x_0_2_a_act/Relu", "op": "_FusedConv2D", "input": ["StatefulPartitionedCall/5_unetpp/x_0_2/x_0_2_a_conv/separable_conv2d/depthwise", "StatefulPartitionedCall/5_unetpp/x_0_2/x_0_2_a_conv/separable_conv2d_weights", "StatefulPartitionedCall/5_unetpp/x_0_2/x_0_2_a_conv/separable_conv2d_bn_offset"], "device": "/device:CPU:0", "attr": {"num_host_args": {"i": "0"}, "_input_shapes": {"list": {"shape": [{"dim": [{"size": "-3"}, {"size": "128"}, {"size": "128"}, {"size": "64"}]}, {"dim": [{"size": "1"}, {"size": "1"}, {"size": "64"}, {"size": "16"}]}]}}, "filter_format": {"s": "SFdJTw=="}, "data_format": {"s": "TkhXQw=="}, "strides": {"list": {"i": ["1", "1", "1", "1"]}}, "num_args": {"i": "1"}, "fused_ops": {"list": {"s": ["Qmlhc0FkZA==", "UmVsdQ=="]}}, "TArgs": {"list": {"type": ["DT_FLOAT"]}}, "padding": {"s": "VkFMSUQ="}, "use_cudnn_on_gpu": {"b": true}, "leakyrelu_alpha": {"f": 0.2}, "epsilon": {"f": 0.0}, "T": {"type": "DT_FLOAT"}, "explicit_paddings": {"list": {}}, "dilations": {"list": {"i": ["1", "1", "1", "1"]}}}}, {"name": "StatefulPartitionedCall/5_unetpp/x_2_1/x_2_1_b_conv/separable_conv2d/depthwise", "op": "DepthwiseConv2dNative", "input": ["StatefulPartitionedCall/5_unetpp/x_2_1/x_2_1_a_act/Relu", "StatefulPartitionedCall/5_unetpp/x_2_1/x_2_1_b_conv/separable_conv2d/ReadVariableOp"], "attr": {"padding": {"s": "U0FNRQ=="}, "data_format": {"s": "TkhXQw=="}, "_input_shapes": {"list": {"shape": [{"dim": [{"size": "-3"}, {"size": "32"}, {"size": "32"}, {"size": "64"}]}, {"dim": [{"size": "3"}, {"size": "3"}, {"size": "64"}, {"size": "1"}]}]}}, "strides": {"list": {"i": ["1", "1", "1", "1"]}}, "T": {"type": "DT_FLOAT"}, "explicit_paddings": {"list": {}}, "dilations": {"list": {"i": ["1", "1", "1", "1"]}}}}, {"name": "StatefulPartitionedCall/5_unetpp/x_0_2/x_0_2_b_conv/separable_conv2d/depthwise", "op": "DepthwiseConv2dNative", "input": ["StatefulPartitionedCall/5_unetpp/x_0_2/x_0_2_a_act/Relu", "StatefulPartitionedCall/5_unetpp/x_0_2/x_0_2_b_conv/separable_conv2d/ReadVariableOp"], "attr": {"padding": {"s": "U0FNRQ=="}, "data_format": {"s": "TkhXQw=="}, "_input_shapes": {"list": {"shape": [{"dim": [{"size": "-3"}, {"size": "128"}, {"size": "128"}, {"size": "16"}]}, {"dim": [{"size": "3"}, {"size": "3"}, {"size": "16"}, {"size": "1"}]}]}}, "strides": {"list": {"i": ["1", "1", "1", "1"]}}, "T": {"type": "DT_FLOAT"}, "explicit_paddings": {"list": {}}, "dilations": {"list": {"i": ["1", "1", "1", "1"]}}}}, {"name": "StatefulPartitionedCall/5_unetpp/x_2_1/x_2_1_b_act/Relu", "op": "_FusedConv2D", "input": ["StatefulPartitionedCall/5_unetpp/x_2_1/x_2_1_b_conv/separable_conv2d/depthwise", "StatefulPartitionedCall/5_unetpp/x_2_1/x_2_1_b_conv/separable_conv2d_weights", "StatefulPartitionedCall/5_unetpp/x_2_1/x_2_1_b_conv/separable_conv2d_bn_offset"], "device": "/device:CPU:0", "attr": {"num_host_args": {"i": "0"}, "_input_shapes": {"list": {"shape": [{"dim": [{"size": "-3"}, {"size": "32"}, {"size": "32"}, {"size": "64"}]}, {"dim": [{"size": "1"}, {"size": "1"}, {"size": "64"}, {"size": "64"}]}]}}, "filter_format": {"s": "SFdJTw=="}, "data_format": {"s": "TkhXQw=="}, "strides": {"list": {"i": ["1", "1", "1", "1"]}}, "num_args": {"i": "1"}, "fused_ops": {"list": {"s": ["Qmlhc0FkZA==", "UmVsdQ=="]}}, "TArgs": {"list": {"type": ["DT_FLOAT"]}}, "padding": {"s": "VkFMSUQ="}, "use_cudnn_on_gpu": {"b": true}, "leakyrelu_alpha": {"f": 0.2}, "epsilon": {"f": 0.0}, "T": {"type": "DT_FLOAT"}, "explicit_paddings": {"list": {}}, "dilations": {"list": {"i": ["1", "1", "1", "1"]}}}}, {"name": "StatefulPartitionedCall/5_unetpp/x_0_2/x_0_2_b_act/Relu", "op": "_FusedConv2D", "input": ["StatefulPartitionedCall/5_unetpp/x_0_2/x_0_2_b_conv/separable_conv2d/depthwise", "StatefulPartitionedCall/5_unetpp/x_0_2/x_0_2_b_conv/separable_conv2d_weights", "StatefulPartitionedCall/5_unetpp/x_0_2/x_0_2_b_conv/separable_conv2d_bn_offset"], "device": "/device:CPU:0", "attr": {"num_host_args": {"i": "0"}, "_input_shapes": {"list": {"shape": [{"dim": [{"size": "-3"}, {"size": "128"}, {"size": "128"}, {"size": "16"}]}, {"dim": [{"size": "1"}, {"size": "1"}, {"size": "16"}, {"size": "16"}]}]}}, "filter_format": {"s": "SFdJTw=="}, "data_format": {"s": "TkhXQw=="}, "strides": {"list": {"i": ["1", "1", "1", "1"]}}, "num_args": {"i": "1"}, "fused_ops": {"list": {"s": ["Qmlhc0FkZA==", "UmVsdQ=="]}}, "TArgs": {"list": {"type": ["DT_FLOAT"]}}, "padding": {"s": "VkFMSUQ="}, "use_cudnn_on_gpu": {"b": true}, "leakyrelu_alpha": {"f": 0.2}, "epsilon": {"f": 0.0}, "T": {"type": "DT_FLOAT"}, "explicit_paddings": {"list": {}}, "dilations": {"list": {"i": ["1", "1", "1", "1"]}}}}, {"name": "StatefulPartitionedCall/5_unetpp/up_2_1/resize/ResizeBilinear", "op": "ResizeBilinear", "input": ["StatefulPartitionedCall/5_unetpp/x_2_1/x_2_1_b_act/Relu", "StatefulPartitionedCall/5_unetpp/up_2_1/mul"], "attr": {"T": {"type": "DT_FLOAT"}, "align_corners": {"b": false}, "half_pixel_centers": {"b": true}}}, {"name": "StatefulPartitionedCall/5_unetpp/merge_1_2/concat", "op": "ConcatV2", "input": ["StatefulPartitionedCall/5_unetpp/x_1_0/x_1_0_b_act/Relu", "StatefulPartitionedCall/5_unetpp/x_1_1/x_1_1_b_act/Relu", "StatefulPartitionedCall/5_unetpp/up_2_1/resize/ResizeBilinear", "StatefulPartitionedCall/5_unetpp/merge_1_2/concat/axis"], "attr": {"N": {"i": "3"}, "Tidx": {"type": "DT_INT32"}, "T": {"type": "DT_FLOAT"}}}, {"name": "StatefulPartitionedCall/5_unetpp/x_1_2/x_1_2_a_conv/separable_conv2d/depthwise", "op": "DepthwiseConv2dNative", "input": ["StatefulPartitionedCall/5_unetpp/merge_1_2/concat", "StatefulPartitionedCall/5_unetpp/x_1_2/x_1_2_a_conv/separable_conv2d/ReadVariableOp"], "attr": {"padding": {"s": "U0FNRQ=="}, "data_format": {"s": "TkhXQw=="}, "_input_shapes": {"list": {"shape": [{"dim": [{"size": "-3"}, {"size": "64"}, {"size": "64"}, {"size": "128"}]}, {"dim": [{"size": "3"}, {"size": "3"}, {"size": "128"}, {"size": "1"}]}]}}, "strides": {"list": {"i": ["1", "1", "1", "1"]}}, "T": {"type": "DT_FLOAT"}, "explicit_paddings": {"list": {}}, "dilations": {"list": {"i": ["1", "1", "1", "1"]}}}}, {"name": "StatefulPartitionedCall/5_unetpp/x_1_2/x_1_2_a_act/Relu", "op": "_FusedConv2D", "input": ["StatefulPartitionedCall/5_unetpp/x_1_2/x_1_2_a_conv/separable_conv2d/depthwise", "StatefulPartitionedCall/5_unetpp/x_1_2/x_1_2_a_conv/separable_conv2d_weights", "StatefulPartitionedCall/5_unetpp/x_1_2/x_1_2_a_conv/separable_conv2d_bn_offset"], "device": "/device:CPU:0", "attr": {"num_host_args": {"i": "0"}, "data_format": {"s": "TkhXQw=="}, "filter_format": {"s": "SFdJTw=="}, "_input_shapes": {"list": {"shape": [{"dim": [{"size": "-3"}, {"size": "64"}, {"size": "64"}, {"size": "128"}]}, {"dim": [{"size": "1"}, {"size": "1"}, {"size": "128"}, {"size": "32"}]}]}}, "strides": {"list": {"i": ["1", "1", "1", "1"]}}, "num_args": {"i": "1"}, "fused_ops": {"list": {"s": ["Qmlhc0FkZA==", "UmVsdQ=="]}}, "TArgs": {"list": {"type": ["DT_FLOAT"]}}, "padding": {"s": "VkFMSUQ="}, "use_cudnn_on_gpu": {"b": true}, "leakyrelu_alpha": {"f": 0.2}, "epsilon": {"f": 0.0}, "T": {"type": "DT_FLOAT"}, "explicit_paddings": {"list": {}}, "dilations": {"list": {"i": ["1", "1", "1", "1"]}}}}, {"name": "StatefulPartitionedCall/5_unetpp/x_1_2/x_1_2_b_conv/separable_conv2d/depthwise", "op": "DepthwiseConv2dNative", "input": ["StatefulPartitionedCall/5_unetpp/x_1_2/x_1_2_a_act/Relu", "StatefulPartitionedCall/5_unetpp/x_1_2/x_1_2_b_conv/separable_conv2d/ReadVariableOp"], "attr": {"padding": {"s": "U0FNRQ=="}, "data_format": {"s": "TkhXQw=="}, "_input_shapes": {"list": {"shape": [{"dim": [{"size": "-3"}, {"size": "64"}, {"size": "64"}, {"size": "32"}]}, {"dim": [{"size": "3"}, {"size": "3"}, {"size": "32"}, {"size": "1"}]}]}}, "strides": {"list": {"i": ["1", "1", "1", "1"]}}, "T": {"type": "DT_FLOAT"}, "explicit_paddings": {"list": {}}, "dilations": {"list": {"i": ["1", "1", "1", "1"]}}}}, {"name": "StatefulPartitionedCall/5_unetpp/x_1_2/x_1_2_b_act/Relu", "op": "_FusedConv2D", "input": ["StatefulPartitionedCall/5_unetpp/x_1_2/x_1_2_b_conv/separable_conv2d/depthwise", "StatefulPartitionedCall/5_unetpp/x_1_2/x_1_2_b_conv/separable_conv2d_weights", "StatefulPartitionedCall/5_unetpp/x_1_2/x_1_2_b_conv/separable_conv2d_bn_offset"], "device": "/device:CPU:0", "attr": {"num_host_args": {"i": "0"}, "_input_shapes": {"list": {"shape": [{"dim": [{"size": "-3"}, {"size": "64"}, {"size": "64"}, {"size": "32"}]}, {"dim": [{"size": "1"}, {"size": "1"}, {"size": "32"}, {"size": "32"}]}]}}, "filter_format": {"s": "SFdJTw=="}, "data_format": {"s": "TkhXQw=="}, "fused_ops": {"list": {"s": ["Qmlhc0FkZA==", "UmVsdQ=="]}}, "num_args": {"i": "1"}, "strides": {"list": {"i": ["1", "1", "1", "1"]}}, "TArgs": {"list": {"type": ["DT_FLOAT"]}}, "padding": {"s": "VkFMSUQ="}, "use_cudnn_on_gpu": {"b": true}, "leakyrelu_alpha": {"f": 0.2}, "epsilon": {"f": 0.0}, "T": {"type": "DT_FLOAT"}, "explicit_paddings": {"list": {}}, "dilations": {"list": {"i": ["1", "1", "1", "1"]}}}}, {"name": "StatefulPartitionedCall/5_unetpp/up_1_2/resize/ResizeBilinear", "op": "ResizeBilinear", "input": ["StatefulPartitionedCall/5_unetpp/x_1_2/x_1_2_b_act/Relu", "StatefulPartitionedCall/5_unetpp/up_1_2/mul"], "attr": {"T": {"type": "DT_FLOAT"}, "align_corners": {"b": false}, "half_pixel_centers": {"b": true}}}, {"name": "StatefulPartitionedCall/5_unetpp/merge_0_3/concat", "op": "ConcatV2", "input": ["StatefulPartitionedCall/5_unetpp/x_0_0/x_0_0_b_act/Relu", "StatefulPartitionedCall/5_unetpp/x_0_1/x_0_1_b_act/Relu", "StatefulPartitionedCall/5_unetpp/x_0_2/x_0_2_b_act/Relu", "StatefulPartitionedCall/5_unetpp/up_1_2/resize/ResizeBilinear", "StatefulPartitionedCall/5_unetpp/merge_0_3/concat/axis"], "attr": {"N": {"i": "4"}, "T": {"type": "DT_FLOAT"}, "Tidx": {"type": "DT_INT32"}}}, {"name": "StatefulPartitionedCall/5_unetpp/x_0_3/x_0_3_a_conv/separable_conv2d/depthwise", "op": "DepthwiseConv2dNative", "input": ["StatefulPartitionedCall/5_unetpp/merge_0_3/concat", "StatefulPartitionedCall/5_unetpp/x_0_3/x_0_3_a_conv/separable_conv2d/ReadVariableOp"], "attr": {"padding": {"s": "U0FNRQ=="}, "data_format": {"s": "TkhXQw=="}, "_input_shapes": {"list": {"shape": [{"dim": [{"size": "-3"}, {"size": "128"}, {"size": "128"}, {"size": "80"}]}, {"dim": [{"size": "3"}, {"size": "3"}, {"size": "80"}, {"size": "1"}]}]}}, "strides": {"list": {"i": ["1", "1", "1", "1"]}}, "T": {"type": "DT_FLOAT"}, "explicit_paddings": {"list": {}}, "dilations": {"list": {"i": ["1", "1", "1", "1"]}}}}, {"name": "StatefulPartitionedCall/5_unetpp/x_0_3/x_0_3_a_act/Relu", "op": "_FusedConv2D", "input": ["StatefulPartitionedCall/5_unetpp/x_0_3/x_0_3_a_conv/separable_conv2d/depthwise", "StatefulPartitionedCall/5_unetpp/x_0_3/x_0_3_a_conv/separable_conv2d_weights", "StatefulPartitionedCall/5_unetpp/x_0_3/x_0_3_a_conv/separable_conv2d_bn_offset"], "device": "/device:CPU:0", "attr": {"num_host_args": {"i": "0"}, "data_format": {"s": "TkhXQw=="}, "filter_format": {"s": "SFdJTw=="}, "_input_shapes": {"list": {"shape": [{"dim": [{"size": "-3"}, {"size": "128"}, {"size": "128"}, {"size": "80"}]}, {"dim": [{"size": "1"}, {"size": "1"}, {"size": "80"}, {"size": "16"}]}]}}, "fused_ops": {"list": {"s": ["Qmlhc0FkZA==", "UmVsdQ=="]}}, "num_args": {"i": "1"}, "strides": {"list": {"i": ["1", "1", "1", "1"]}}, "TArgs": {"list": {"type": ["DT_FLOAT"]}}, "padding": {"s": "VkFMSUQ="}, "use_cudnn_on_gpu": {"b": true}, "leakyrelu_alpha": {"f": 0.2}, "epsilon": {"f": 0.0}, "T": {"type": "DT_FLOAT"}, "explicit_paddings": {"list": {}}, "dilations": {"list": {"i": ["1", "1", "1", "1"]}}}}, {"name": "StatefulPartitionedCall/5_unetpp/x_0_3/x_0_3_b_conv/separable_conv2d/depthwise", "op": "DepthwiseConv2dNative", "input": ["StatefulPartitionedCall/5_unetpp/x_0_3/x_0_3_a_act/Relu", "StatefulPartitionedCall/5_unetpp/x_0_3/x_0_3_b_conv/separable_conv2d/ReadVariableOp"], "attr": {"padding": {"s": "U0FNRQ=="}, "data_format": {"s": "TkhXQw=="}, "_input_shapes": {"list": {"shape": [{"dim": [{"size": "-3"}, {"size": "128"}, {"size": "128"}, {"size": "16"}]}, {"dim": [{"size": "3"}, {"size": "3"}, {"size": "16"}, {"size": "1"}]}]}}, "strides": {"list": {"i": ["1", "1", "1", "1"]}}, "T": {"type": "DT_FLOAT"}, "explicit_paddings": {"list": {}}, "dilations": {"list": {"i": ["1", "1", "1", "1"]}}}}, {"name": "StatefulPartitionedCall/5_unetpp/x_0_3/x_0_3_b_act/Relu", "op": "_FusedConv2D", "input": ["StatefulPartitionedCall/5_unetpp/x_0_3/x_0_3_b_conv/separable_conv2d/depthwise", "StatefulPartitionedCall/5_unetpp/x_0_3/x_0_3_b_conv/separable_conv2d_weights", "StatefulPartitionedCall/5_unetpp/x_0_3/x_0_3_b_conv/separable_conv2d_bn_offset"], "device": "/device:CPU:0", "attr": {"num_host_args": {"i": "0"}, "data_format": {"s": "TkhXQw=="}, "filter_format": {"s": "SFdJTw=="}, "_input_shapes": {"list": {"shape": [{"dim": [{"size": "-3"}, {"size": "128"}, {"size": "128"}, {"size": "16"}]}, {"dim": [{"size": "1"}, {"size": "1"}, {"size": "16"}, {"size": "16"}]}]}}, "strides": {"list": {"i": ["1", "1", "1", "1"]}}, "num_args": {"i": "1"}, "fused_ops": {"list": {"s": ["Qmlhc0FkZA==", "UmVsdQ=="]}}, "TArgs": {"list": {"type": ["DT_FLOAT"]}}, "padding": {"s": "VkFMSUQ="}, "use_cudnn_on_gpu": {"b": true}, "leakyrelu_alpha": {"f": 0.2}, "epsilon": {"f": 0.0}, "T": {"type": "DT_FLOAT"}, "explicit_paddings": {"list": {}}, "dilations": {"list": {"i": ["1", "1", "1", "1"]}}}}, {"name": "StatefulPartitionedCall/5_unetpp/segmentation/BiasAdd", "op": "_FusedConv2D", "input": ["StatefulPartitionedCall/5_unetpp/x_0_3/x_0_3_b_act/Relu", "StatefulPartitionedCall/5_unetpp/segmentation/Conv2D/ReadVariableOp", "StatefulPartitionedCall/5_unetpp/segmentation/BiasAdd/ReadVariableOp"], "device": "/device:CPU:0", "attr": {"num_host_args": {"i": "0"}, "_input_shapes": {"list": {"shape": [{"dim": [{"size": "-3"}, {"size": "128"}, {"size": "128"}, {"size": "16"}]}, {"dim": [{"size": "1"}, {"size": "1"}, {"size": "16"}, {"size": "1"}]}]}}, "filter_format": {"s": "SFdJTw=="}, "data_format": {"s": "TkhXQw=="}, "fused_ops": {"list": {"s": ["Qmlhc0FkZA=="]}}, "num_args": {"i": "1"}, "strides": {"list": {"i": ["1", "1", "1", "1"]}}, "TArgs": {"list": {"type": ["DT_FLOAT"]}}, "padding": {"s": "VkFMSUQ="}, "use_cudnn_on_gpu": {"b": true}, "leakyrelu_alpha": {"f": 0.2}, "epsilon": {"f": 0.0}, "T": {"type": "DT_FLOAT"}, "explicit_paddings": {"list": {}}, "dilations": {"list": {"i": ["1", "1", "1", "1"]}}}}, {"name": "StatefulPartitionedCall/5_unetpp/corners/BiasAdd", "op": "_FusedConv2D", "input": ["StatefulPartitionedCall/5_unetpp/x_0_3/x_0_3_b_act/Relu", "StatefulPartitionedCall/5_unetpp/corners/Conv2D/ReadVariableOp", "StatefulPartitionedCall/5_unetpp/corners/BiasAdd/ReadVariableOp"], "device": "/device:CPU:0", "attr": {"num_host_args": {"i": "0"}, "_input_shapes": {"list": {"shape": [{"dim": [{"size": "-3"}, {"size": "128"}, {"size": "128"}, {"size": "16"}]}, {"dim": [{"size": "1"}, {"size": "1"}, {"size": "16"}, {"size": "4"}]}]}}, "filter_format": {"s": "SFdJTw=="}, "data_format": {"s": "TkhXQw=="}, "fused_ops": {"list": {"s": ["Qmlhc0FkZA=="]}}, "num_args": {"i": "1"}, "strides": {"list": {"i": ["1", "1", "1", "1"]}}, "TArgs": {"list": {"type": ["DT_FLOAT"]}}, "padding": {"s": "VkFMSUQ="}, "use_cudnn_on_gpu": {"b": true}, "leakyrelu_alpha": {"f": 0.2}, "epsilon": {"f": 0.0}, "T": {"type": "DT_FLOAT"}, "explicit_paddings": {"list": {}}, "dilations": {"list": {"i": ["1", "1", "1", "1"]}}}}, {"name": "StatefulPartitionedCall/5_unetpp/segmentation/Sigmoid", "op": "Sigmoid", "input": ["StatefulPartitionedCall/5_unetpp/segmentation/BiasAdd"], "attr": {"T": {"type": "DT_FLOAT"}}}, {"name": "StatefulPartitionedCall/5_unetpp/corners/Sigmoid", "op": "Sigmoid", "input": ["StatefulPartitionedCall/5_unetpp/corners/BiasAdd"], "attr": {"_input_shapes": {"list": {"shape": [{"dim": [{"size": "-3"}, {"size": "128"}, {"size": "128"}, {"size": "4"}]}]}}, "T": {"type": "DT_FLOAT"}}}, {"name": "Identity_1", "op": "Identity", "input": ["StatefulPartitionedCall/5_unetpp/segmentation/Sigmoid"], "attr": {"T": {"type": "DT_FLOAT"}}}, {"name": "Identity", "op": "Identity", "input": ["StatefulPartitionedCall/5_unetpp/corners/Sigmoid"], "attr": {"T": {"type": "DT_FLOAT"}}}], "library": {}, "versions": {"producer": 2129}}, "weightsManifest": [{"paths": ["group1-shard1of1.bin"], "weights": [{"name": "StatefulPartitionedCall/5_unetpp/corners/Conv2D/ReadVariableOp", "shape": [1, 1, 16, 4], "dtype": "float32", "quantization": {"dtype": "uint8", "min": -1.2675837867400224, "scale": 0.00741277068269019, "original_dtype": "float32"}}, {"name": "StatefulPartitionedCall/5_unetpp/corners/BiasAdd/ReadVariableOp", "shape": [4], "dtype": "float32", "quantization": {"dtype": "uint8", "min": -0.5188741087913513, "scale": 0.0009579834984798058, "original_dtype": "float32"}}, {"name": "StatefulPartitionedCall/5_unetpp/up_1_0/mul", "shape": [2], "dtype": "int32"}, {"name": "StatefulPartitionedCall/5_unetpp/merge_0_1/concat/axis", "shape": [], "dtype": "int32"}, {"name": "StatefulPartitionedCall/5_unetpp/x_0_1/x_0_1_a_conv/separable_conv2d/ReadVariableOp", "shape": [3, 3, 48, 1], "dtype": "float32", "quantization": {"dtype": "uint8", "min": -0.4650576612528633, "scale": 0.003780956595551734, "original_dtype": "float32"}}, {"name": "StatefulPartitionedCall/5_unetpp/x_0_1/x_0_1_b_conv/separable_conv2d/ReadVariableOp", "shape": [3, 3, 16, 1], "dtype": "float32", "quantization": {"dtype": "uint8", "min": -0.40784257627000997, "scale": 0.0030664855358647366, "original_dtype": "float32"}}, {"name": "StatefulPartitionedCall/5_unetpp/up_1_1/mul", "shape": [2], "dtype": "int32"}, {"name": "StatefulPartitionedCall/5_unetpp/merge_0_2/concat/axis", "shape": [], "dtype": "int32"}, {"name": "StatefulPartitionedCall/5_unetpp/x_0_2/x_0_2_a_conv/separable_conv2d/ReadVariableOp", "shape": [3, 3, 64, 1], "dtype": "float32", "quantization": {"dtype": "uint8", "min": -0.4883045875558666, "scale": 0.00351298264428681, "original_dtype": "float32"}}, {"name": "StatefulPartitionedCall/5_unetpp/x_0_2/x_0_2_b_conv/separable_conv2d/ReadVariableOp", "shape": [3, 3, 16, 1], "dtype": "float32", "quantization": {"dtype": "uint8", "min": -0.4341659522524067, "scale": 0.0031011853732314763, "original_dtype": "float32"}}, {"name": "StatefulPartitionedCall/5_unetpp/up_2_0/mul", "shape": [2], "dtype": "int32"}, {"name": "StatefulPartitionedCall/5_unetpp/merge_1_1/concat/axis", "shape": [], "dtype": "int32"}, {"name": "StatefulPartitionedCall/5_unetpp/x_1_1/x_1_1_a_conv/separable_conv2d/ReadVariableOp", "shape": [3, 3, 96, 1], "dtype": "float32", "quantization": {"dtype": "uint8", "min": -0.4997511148452759, "scale": 0.0032663471558514764, "original_dtype": "float32"}}, {"name": "StatefulPartitionedCall/5_unetpp/x_1_1/x_1_1_b_conv/separable_conv2d/ReadVariableOp", "shape": [3, 3, 32, 1], "dtype": "float32", "quantization": {"dtype": "uint8", "min": -0.4175112689242644, "scale": 0.0033135814993989236, "original_dtype": "float32"}}, {"name": "StatefulPartitionedCall/5_unetpp/x_0_0/x_0_0_a_conv/separable_conv2d/ReadVariableOp", "shape": [3, 3, 3, 1], "dtype": "float32", "quantization": {"dtype": "uint8", "min": -0.4909213295169905, "scale": 0.0036635920113208247, "original_dtype": "float32"}}, {"name": "StatefulPartitionedCall/5_unetpp/x_0_0/x_0_0_b_conv/separable_conv2d/ReadVariableOp", "shape": [3, 3, 16, 1], "dtype": "float32", "quantization": {"dtype": "uint8", "min": -0.3780715886284324, "scale": 0.003150596571903603, "original_dtype": "float32"}}, {"name": "StatefulPartitionedCall/5_unetpp/x_1_0/x_1_0_a_conv/separable_conv2d/ReadVariableOp", "shape": [3, 3, 16, 1], "dtype": "float32", "quantization": {"dtype": "uint8", "min": -0.42127523352118096, "scale": 0.0036632629001841824, "original_dtype": "float32"}}, {"name": "StatefulPartitionedCall/5_unetpp/x_1_0/x_1_0_b_conv/separable_conv2d/ReadVariableOp", "shape": [3, 3, 32, 1], "dtype": "float32", "quantization": {"dtype": "uint8", "min": -0.4213232858508241, "scale": 0.0028467789584515142, "original_dtype": "float32"}}, {"name": "StatefulPartitionedCall/5_unetpp/x_2_0/x_2_0_a_conv/separable_conv2d/ReadVariableOp", "shape": [3, 3, 32, 1], "dtype": "float32", "quantization": {"dtype": "uint8", "min": -0.39134531757410834, "scale": 0.003033684632357429, "original_dtype": "float32"}}, {"name": "StatefulPartitionedCall/5_unetpp/x_2_0/x_2_0_b_conv/separable_conv2d/ReadVariableOp", "shape": [3, 3, 64, 1], "dtype": "float32", "quantization": {"dtype": "uint8", "min": -0.27864638216355264, "scale": 0.0024021239841685573, "original_dtype": "float32"}}, {"name": "StatefulPartitionedCall/5_unetpp/x_3_0/x_3_0_a_conv/separable_conv2d/ReadVariableOp", "shape": [3, 3, 64, 1], "dtype": "float32", "quantization": {"dtype": "uint8", "min": -0.2915574382333194, "scale": 0.002513426191666547, "original_dtype": "float32"}}, {"name": "StatefulPartitionedCall/5_unetpp/x_3_0/x_3_0_b_conv/separable_conv2d/ReadVariableOp", "shape": [3, 3, 128, 1], "dtype": "float32", "quantization": {"dtype": "uint8", "min": -0.4344772266406639, "scale": 0.003316620050692091, "original_dtype": "float32"}}, {"name": "StatefulPartitionedCall/5_unetpp/up_3_0/mul", "shape": [2], "dtype": "int32"}, {"name": "StatefulPartitionedCall/5_unetpp/merge_2_1/concat/axis", "shape": [], "dtype": "int32"}, {"name": "StatefulPartitionedCall/5_unetpp/x_2_1/x_2_1_a_conv/separable_conv2d/ReadVariableOp", "shape": [3, 3, 192, 1], "dtype": "float32", "quantization": {"dtype": "uint8", "min": -0.4028002810244467, "scale": 0.003328927942350799, "original_dtype": "float32"}}, {"name": "StatefulPartitionedCall/5_unetpp/x_2_1/x_2_1_b_conv/separable_conv2d/ReadVariableOp", "shape": [3, 3, 64, 1], "dtype": "float32", "quantization": {"dtype": "uint8", "min": -0.465281613667806, "scale": 0.0034211883357926913, "original_dtype": "float32"}}, {"name": "StatefulPartitionedCall/5_unetpp/up_2_1/mul", "shape": [2], "dtype": "int32"}, {"name": "StatefulPartitionedCall/5_unetpp/merge_1_2/concat/axis", "shape": [], "dtype": "int32"}, {"name": "StatefulPartitionedCall/5_unetpp/x_1_2/x_1_2_a_conv/separable_conv2d/ReadVariableOp", "shape": [3, 3, 128, 1], "dtype": "float32", "quantization": {"dtype": "uint8", "min": -0.42514106280663433, "scale": 0.003149193057826921, "original_dtype": "float32"}}, {"name": "StatefulPartitionedCall/5_unetpp/x_1_2/x_1_2_b_conv/separable_conv2d/ReadVariableOp", "shape": [3, 3, 32, 1], "dtype": "float32", "quantization": {"dtype": "uint8", "min": -0.41911255541969744, "scale": 0.003037047503041286, "original_dtype": "float32"}}, {"name": "StatefulPartitionedCall/5_unetpp/up_1_2/mul", "shape": [2], "dtype": "int32"}, {"name": "StatefulPartitionedCall/5_unetpp/merge_0_3/concat/axis", "shape": [], "dtype": "int32"}, {"name": "StatefulPartitionedCall/5_unetpp/x_0_3/x_0_3_a_conv/separable_conv2d/ReadVariableOp", "shape": [3, 3, 80, 1], "dtype": "float32", "quantization": {"dtype": "uint8", "min": -0.36188763076183844, "scale": 0.0029184486351761163, "original_dtype": "float32"}}, {"name": "StatefulPartitionedCall/5_unetpp/x_0_3/x_0_3_b_conv/separable_conv2d/ReadVariableOp", "shape": [3, 3, 16, 1], "dtype": "float32", "quantization": {"dtype": "uint8", "min": -0.41024445225210754, "scale": 0.0031079125170614206, "original_dtype": "float32"}}, {"name": "StatefulPartitionedCall/5_unetpp/segmentation/Conv2D/ReadVariableOp", "shape": [1, 1, 16, 1], "dtype": "float32", "quantization": {"dtype": "uint8", "min": -0.8958511392275492, "scale": 0.007528160833844951, "original_dtype": "float32"}}, {"name": "StatefulPartitionedCall/5_unetpp/segmentation/BiasAdd/ReadVariableOp", "shape": [1], "dtype": "float32", "quantization": {"dtype": "uint8", "min": -0.3003653883934021, "scale": 1.0, "original_dtype": "float32"}}, {"name": "StatefulPartitionedCall/5_unetpp/x_0_0/x_0_0_a_conv/separable_conv2d_weights", "shape": [1, 1, 3, 16], "dtype": "float32", "quantization": {"dtype": "uint8", "min": -7.7648374875386565, "scale": 0.06525073518940047, "original_dtype": "float32"}}, {"name": "StatefulPartitionedCall/5_unetpp/x_0_0/x_0_0_a_conv/separable_conv2d_bn_offset", "shape": [16], "dtype": "float32", "quantization": {"dtype": "uint8", "min": -0.6466239989972582, "scale": 0.005300196713092281, "original_dtype": "float32"}}, {"name": "StatefulPartitionedCall/5_unetpp/x_0_0/x_0_0_b_conv/separable_conv2d_weights", "shape": [1, 1, 16, 16], "dtype": "float32", "quantization": {"dtype": "uint8", "min": -1.8201291963165882, "scale": 0.015690768933763692, "original_dtype": "float32"}}, {"name": "StatefulPartitionedCall/5_unetpp/x_0_0/x_0_0_b_conv/separable_conv2d_bn_offset", "shape": [16], "dtype": "float32", "quantization": {"dtype": "uint8", "min": -0.644297391760583, "scale": 0.006782077808006137, "original_dtype": "float32"}}, {"name": "StatefulPartitionedCall/5_unetpp/x_1_0/x_1_0_a_conv/separable_conv2d_weights", "shape": [1, 1, 16, 32], "dtype": "float32", "quantization": {"dtype": "uint8", "min": -2.252242728775623, "scale": 0.018017941830204984, "original_dtype": "float32"}}, {"name": "StatefulPartitionedCall/5_unetpp/x_0_2/x_0_2_b_conv/separable_conv2d_weights", "shape": [1, 1, 16, 16], "dtype": "float32", "quantization": {"dtype": "uint8", "min": -1.4401056415894453, "scale": 0.012308595227260216, "original_dtype": "float32"}}, {"name": "StatefulPartitionedCall/5_unetpp/x_1_0/x_1_0_a_conv/separable_conv2d_bn_offset", "shape": [32], "dtype": "float32", "quantization": {"dtype": "uint8", "min": -1.2219520718443628, "scale": 0.009546500561284085, "original_dtype": "float32"}}, {"name": "StatefulPartitionedCall/5_unetpp/x_1_0/x_1_0_b_conv/separable_conv2d_weights", "shape": [1, 1, 32, 32], "dtype": "float32", "quantization": {"dtype": "uint8", "min": -1.9125731734668507, "scale": 0.014826148631525975, "original_dtype": "float32"}}, {"name": "StatefulPartitionedCall/5_unetpp/x_0_2/x_0_2_b_conv/separable_conv2d_bn_offset", "shape": [16], "dtype": "float32", "quantization": {"dtype": "uint8", "min": -0.774066456042084, "scale": 0.004930359592624739, "original_dtype": "float32"}}, {"name": "StatefulPartitionedCall/5_unetpp/x_1_0/x_1_0_b_conv/separable_conv2d_bn_offset", "shape": [32], "dtype": "float32", "quantization": {"dtype": "uint8", "min": -0.9701052644673516, "scale": 0.011150635223762662, "original_dtype": "float32"}}, {"name": "StatefulPartitionedCall/5_unetpp/x_0_3/x_0_3_b_conv/separable_conv2d_bn_offset", "shape": [16], "dtype": "float32", "quantization": {"dtype": "uint8", "min": -1.2593794219634113, "scale": 0.01155393965104047, "original_dtype": "float32"}}, {"name": "StatefulPartitionedCall/5_unetpp/x_2_0/x_2_0_a_conv/separable_conv2d_weights", "shape": [1, 1, 32, 64], "dtype": "float32", "quantization": {"dtype": "uint8", "min": -1.9601182170942717, "scale": 0.013803649416156843, "original_dtype": "float32"}}, {"name": "StatefulPartitionedCall/5_unetpp/x_2_0/x_2_0_a_conv/separable_conv2d_bn_offset", "shape": [64], "dtype": "float32", "quantization": {"dtype": "uint8", "min": -1.6359749289119945, "scale": 0.01652499928193934, "original_dtype": "float32"}}, {"name": "StatefulPartitionedCall/5_unetpp/x_1_2/x_1_2_a_conv/separable_conv2d_weights", "shape": [1, 1, 128, 32], "dtype": "float32", "quantization": {"dtype": "uint8", "min": -1.594649393418256, "scale": 0.014237941012663, "original_dtype": "float32"}}, {"name": "StatefulPartitionedCall/5_unetpp/x_0_1/x_0_1_a_conv/separable_conv2d_weights", "shape": [1, 1, 48, 16], "dtype": "float32", "quantization": {"dtype": "uint8", "min": -2.018424387539134, "scale": 0.016409954370236863, "original_dtype": "float32"}}, {"name": "StatefulPartitionedCall/5_unetpp/x_0_1/x_0_1_a_conv/separable_conv2d_bn_offset", "shape": [16], "dtype": "float32", "quantization": {"dtype": "uint8", "min": -0.8152473543204513, "scale": 0.008672844194898418, "original_dtype": "float32"}}, {"name": "StatefulPartitionedCall/5_unetpp/x_1_2/x_1_2_a_conv/separable_conv2d_bn_offset", "shape": [32], "dtype": "float32", "quantization": {"dtype": "uint8", "min": -0.8742387322818531, "scale": 0.00780570296680226, "original_dtype": "float32"}}, {"name": "StatefulPartitionedCall/5_unetpp/x_2_0/x_2_0_b_conv/separable_conv2d_weights", "shape": [1, 1, 64, 64], "dtype": "float32", "quantization": {"dtype": "uint8", "min": -1.7507527912364287, "scale": 0.012686614429249484, "original_dtype": "float32"}}, {"name": "StatefulPartitionedCall/5_unetpp/x_2_0/x_2_0_b_conv/separable_conv2d_bn_offset", "shape": [64], "dtype": "float32", "quantization": {"dtype": "uint8", "min": -1.4022732734680174, "scale": 0.013747777190862917, "original_dtype": "float32"}}, {"name": "StatefulPartitionedCall/5_unetpp/x_0_1/x_0_1_b_conv/separable_conv2d_weights", "shape": [1, 1, 16, 16], "dtype": "float32", "quantization": {"dtype": "uint8", "min": -1.917182476380292, "scale": 0.015215733939526127, "original_dtype": "float32"}}, {"name": "StatefulPartitionedCall/5_unetpp/x_0_1/x_0_1_b_conv/separable_conv2d_bn_offset", "shape": [16], "dtype": "float32", "quantization": {"dtype": "uint8", "min": -0.8135853115250082, "scale": 0.009141407994663014, "original_dtype": "float32"}}, {"name": "StatefulPartitionedCall/5_unetpp/x_1_2/x_1_2_b_conv/separable_conv2d_weights", "shape": [1, 1, 32, 32], "dtype": "float32", "quantization": {"dtype": "uint8", "min": -2.991202532076368, "scale": 0.023929620256610946, "original_dtype": "float32"}}, {"name": "StatefulPartitionedCall/5_unetpp/x_3_0/x_3_0_a_conv/separable_conv2d_weights", "shape": [1, 1, 64, 128], "dtype": "float32", "quantization": {"dtype": "uint8", "min": -1.6264414506800033, "scale": 0.011617438933428596, "original_dtype": "float32"}}, {"name": "StatefulPartitionedCall/5_unetpp/x_3_0/x_3_0_a_conv/separable_conv2d_bn_offset", "shape": [128], "dtype": "float32", "quantization": {"dtype": "uint8", "min": -1.6069592167349422, "scale": 0.015159992610707003, "original_dtype": "float32"}}, {"name": "StatefulPartitionedCall/5_unetpp/x_1_2/x_1_2_b_conv/separable_conv2d_bn_offset", "shape": [32], "dtype": "float32", "quantization": {"dtype": "uint8", "min": -1.644644432441861, "scale": 0.011264687893437405, "original_dtype": "float32"}}, {"name": "StatefulPartitionedCall/5_unetpp/x_1_1/x_1_1_a_conv/separable_conv2d_weights", "shape": [1, 1, 96, 32], "dtype": "float32", "quantization": {"dtype": "uint8", "min": -1.3639521318323473, "scale": 0.010103349124684054, "original_dtype": "float32"}}, {"name": "StatefulPartitionedCall/5_unetpp/x_1_1/x_1_1_a_conv/separable_conv2d_bn_offset", "shape": [32], "dtype": "float32", "quantization": {"dtype": "uint8", "min": -1.5131784738278855, "scale": 0.013390959945379519, "original_dtype": "float32"}}, {"name": "StatefulPartitionedCall/5_unetpp/x_3_0/x_3_0_b_conv/separable_conv2d_weights", "shape": [1, 1, 128, 128], "dtype": "float32", "quantization": {"dtype": "uint8", "min": -1.4294109568876379, "scale": 0.010828870885512407, "original_dtype": "float32"}}, {"name": "StatefulPartitionedCall/5_unetpp/x_3_0/x_3_0_b_conv/separable_conv2d_bn_offset", "shape": [128], "dtype": "float32", "quantization": {"dtype": "uint8", "min": -1.7988876361472932, "scale": 0.016353523964975393, "original_dtype": "float32"}}, {"name": "StatefulPartitionedCall/5_unetpp/x_1_1/x_1_1_b_conv/separable_conv2d_weights", "shape": [1, 1, 32, 32], "dtype": "float32", "quantization": {"dtype": "uint8", "min": -1.6091021836972703, "scale": 0.011493587026409074, "original_dtype": "float32"}}, {"name": "StatefulPartitionedCall/5_unetpp/x_1_1/x_1_1_b_conv/separable_conv2d_bn_offset", "shape": [32], "dtype": "float32", "quantization": {"dtype": "uint8", "min": -0.8452732857535867, "scale": 0.007480294564191033, "original_dtype": "float32"}}, {"name": "StatefulPartitionedCall/5_unetpp/x_0_3/x_0_3_a_conv/separable_conv2d_weights", "shape": [1, 1, 80, 16], "dtype": "float32", "quantization": {"dtype": "uint8", "min": -1.4059948523839316, "scale": 0.011815082793142282, "original_dtype": "float32"}}, {"name": "StatefulPartitionedCall/5_unetpp/x_2_1/x_2_1_a_conv/separable_conv2d_weights", "shape": [1, 1, 192, 64], "dtype": "float32", "quantization": {"dtype": "uint8", "min": -1.4745749136980844, "scale": 0.011430813284481273, "original_dtype": "float32"}}, {"name": "StatefulPartitionedCall/5_unetpp/x_2_1/x_2_1_a_conv/separable_conv2d_bn_offset", "shape": [64], "dtype": "float32", "quantization": {"dtype": "uint8", "min": -0.9742008527119954, "scale": 0.00716324156405879, "original_dtype": "float32"}}, {"name": "StatefulPartitionedCall/5_unetpp/x_0_3/x_0_3_a_conv/separable_conv2d_bn_offset", "shape": [16], "dtype": "float32", "quantization": {"dtype": "uint8", "min": -0.9335782929962757, "scale": 0.008335520473181033, "original_dtype": "float32"}}, {"name": "StatefulPartitionedCall/5_unetpp/x_0_2/x_0_2_a_conv/separable_conv2d_weights", "shape": [1, 1, 64, 16], "dtype": "float32", "quantization": {"dtype": "uint8", "min": -1.7234935550128712, "scale": 0.01401214272368188, "original_dtype": "float32"}}, {"name": "StatefulPartitionedCall/5_unetpp/x_0_2/x_0_2_a_conv/separable_conv2d_bn_offset", "shape": [16], "dtype": "float32", "quantization": {"dtype": "uint8", "min": -0.9771602527768004, "scale": 0.009771602527768004, "original_dtype": "float32"}}, {"name": "StatefulPartitionedCall/5_unetpp/x_2_1/x_2_1_b_conv/separable_conv2d_weights", "shape": [1, 1, 64, 64], "dtype": "float32", "quantization": {"dtype": "uint8", "min": -2.352819517547009, "scale": 0.01897435094795975, "original_dtype": "float32"}}, {"name": "StatefulPartitionedCall/5_unetpp/x_2_1/x_2_1_b_conv/separable_conv2d_bn_offset", "shape": [64], "dtype": "float32", "quantization": {"dtype": "uint8", "min": -1.4782687804278205, "scale": 0.011199005912331974, "original_dtype": "float32"}}, {"name": "StatefulPartitionedCall/5_unetpp/x_0_3/x_0_3_b_conv/separable_conv2d_weights", "shape": [1, 1, 16, 16], "dtype": "float32", "quantization": {"dtype": "uint8", "min": -1.4706312483432247, "scale": 0.013744217274235745, "original_dtype": "float32"}}]}]}