{"format": "graph-model", "generatedBy": "2.17.0", "convertedBy": "TensorFlow.js Converter v4.22.0", "signature": {"inputs": {"input_1": {"name": "input_1:0", "dtype": "DT_FLOAT", "tensorShape": {"dim": [{"size": "-1"}, {"size": "128"}, {"size": "128"}, {"size": "3"}]}}}, "outputs": {"output_layer": {"name": "Identity:0", "dtype": "DT_FLOAT", "tensorShape": {"dim": [{"size": "-1"}, {"size": "128"}, {"size": "128"}, {"size": "5"}]}}}}, "modelTopology": {"node": [{"name": "StatefulPartitionedCall/U-Net_plus_plus_4levels/up_1_0/strided_slice/stack", "op": "Const", "attr": {"value": {"tensor": {"dtype": "DT_INT32", "tensorShape": {"dim": [{"size": "1"}]}}}, "dtype": {"type": "DT_INT32"}}}, {"name": "StatefulPartitionedCall/U-Net_plus_plus_4levels/up_1_0/strided_slice/stack_1", "op": "Const", "attr": {"value": {"tensor": {"dtype": "DT_INT32", "tensorShape": {"dim": [{"size": "1"}]}}}, "dtype": {"type": "DT_INT32"}}}, {"name": "StatefulPartitionedCall/U-Net_plus_plus_4levels/up_1_0/strided_slice/stack_2", "op": "Const", "attr": {"value": {"tensor": {"dtype": "DT_INT32", "tensorShape": {"dim": [{"size": "1"}]}}}, "dtype": {"type": "DT_INT32"}}}, {"name": "StatefulPartitionedCall/U-Net_plus_plus_4levels/up_1_0/stack/1", "op": "Const", "attr": {"value": {"tensor": {"dtype": "DT_INT32", "tensorShape": {}}}, "dtype": {"type": "DT_INT32"}}}, {"name": "StatefulPartitionedCall/U-Net_plus_plus_4levels/up_1_0/stack/2", "op": "Const", "attr": {"value": {"tensor": {"dtype": "DT_INT32", "tensorShape": {}}}, "dtype": {"type": "DT_INT32"}}}, {"name": "StatefulPartitionedCall/U-Net_plus_plus_4levels/up_1_0/stack/3", "op": "Const", "attr": {"value": {"tensor": {"dtype": "DT_INT32", "tensorShape": {}}}, "dtype": {"type": "DT_INT32"}}}, {"name": "StatefulPartitionedCall/U-Net_plus_plus_4levels/up_1_0/conv2d_transpose/ReadVariableOp", "op": "Const", "attr": {"value": {"tensor": {"dtype": "DT_FLOAT", "tensorShape": {"dim": [{"size": "2"}, {"size": "2"}, {"size": "16"}, {"size": "32"}]}}}, "dtype": {"type": "DT_FLOAT"}}}, {"name": "StatefulPartitionedCall/U-Net_plus_plus_4levels/up_1_0/BiasAdd/ReadVariableOp", "op": "Const", "attr": {"value": {"tensor": {"dtype": "DT_FLOAT", "tensorShape": {"dim": [{"size": "16"}]}}}, "dtype": {"type": "DT_FLOAT"}}}, {"name": "StatefulPartitionedCall/U-Net_plus_plus_4levels/merge_0_1/concat/axis", "op": "Const", "attr": {"value": {"tensor": {"dtype": "DT_INT32", "tensorShape": {}}}, "dtype": {"type": "DT_INT32"}}}, {"name": "StatefulPartitionedCall/U-Net_plus_plus_4levels/up_1_1/strided_slice/stack", "op": "Const", "attr": {"value": {"tensor": {"dtype": "DT_INT32", "tensorShape": {"dim": [{"size": "1"}]}}}, "dtype": {"type": "DT_INT32"}}}, {"name": "StatefulPartitionedCall/U-Net_plus_plus_4levels/up_1_1/strided_slice/stack_1", "op": "Const", "attr": {"value": {"tensor": {"dtype": "DT_INT32", "tensorShape": {"dim": [{"size": "1"}]}}}, "dtype": {"type": "DT_INT32"}}}, {"name": "StatefulPartitionedCall/U-Net_plus_plus_4levels/up_1_1/strided_slice/stack_2", "op": "Const", "attr": {"value": {"tensor": {"dtype": "DT_INT32", "tensorShape": {"dim": [{"size": "1"}]}}}, "dtype": {"type": "DT_INT32"}}}, {"name": "StatefulPartitionedCall/U-Net_plus_plus_4levels/up_1_1/stack/1", "op": "Const", "attr": {"value": {"tensor": {"dtype": "DT_INT32", "tensorShape": {}}}, "dtype": {"type": "DT_INT32"}}}, {"name": "StatefulPartitionedCall/U-Net_plus_plus_4levels/up_1_1/stack/2", "op": "Const", "attr": {"value": {"tensor": {"dtype": "DT_INT32", "tensorShape": {}}}, "dtype": {"type": "DT_INT32"}}}, {"name": "StatefulPartitionedCall/U-Net_plus_plus_4levels/up_1_1/stack/3", "op": "Const", "attr": {"value": {"tensor": {"dtype": "DT_INT32", "tensorShape": {}}}, "dtype": {"type": "DT_INT32"}}}, {"name": "StatefulPartitionedCall/U-Net_plus_plus_4levels/up_1_1/conv2d_transpose/ReadVariableOp", "op": "Const", "attr": {"value": {"tensor": {"dtype": "DT_FLOAT", "tensorShape": {"dim": [{"size": "2"}, {"size": "2"}, {"size": "16"}, {"size": "32"}]}}}, "dtype": {"type": "DT_FLOAT"}}}, {"name": "StatefulPartitionedCall/U-Net_plus_plus_4levels/up_1_1/BiasAdd/ReadVariableOp", "op": "Const", "attr": {"value": {"tensor": {"dtype": "DT_FLOAT", "tensorShape": {"dim": [{"size": "16"}]}}}, "dtype": {"type": "DT_FLOAT"}}}, {"name": "StatefulPartitionedCall/U-Net_plus_plus_4levels/merge_0_2/concat/axis", "op": "Const", "attr": {"value": {"tensor": {"dtype": "DT_INT32", "tensorShape": {}}}, "dtype": {"type": "DT_INT32"}}}, {"name": "StatefulPartitionedCall/U-Net_plus_plus_4levels/up_1_2/strided_slice/stack", "op": "Const", "attr": {"value": {"tensor": {"dtype": "DT_INT32", "tensorShape": {"dim": [{"size": "1"}]}}}, "dtype": {"type": "DT_INT32"}}}, {"name": "StatefulPartitionedCall/U-Net_plus_plus_4levels/up_1_2/strided_slice/stack_1", "op": "Const", "attr": {"value": {"tensor": {"dtype": "DT_INT32", "tensorShape": {"dim": [{"size": "1"}]}}}, "dtype": {"type": "DT_INT32"}}}, {"name": "StatefulPartitionedCall/U-Net_plus_plus_4levels/up_1_2/strided_slice/stack_2", "op": "Const", "attr": {"value": {"tensor": {"dtype": "DT_INT32", "tensorShape": {"dim": [{"size": "1"}]}}}, "dtype": {"type": "DT_INT32"}}}, {"name": "StatefulPartitionedCall/U-Net_plus_plus_4levels/up_1_2/stack/1", "op": "Const", "attr": {"value": {"tensor": {"dtype": "DT_INT32", "tensorShape": {}}}, "dtype": {"type": "DT_INT32"}}}, {"name": "StatefulPartitionedCall/U-Net_plus_plus_4levels/up_1_2/stack/2", "op": "Const", "attr": {"value": {"tensor": {"dtype": "DT_INT32", "tensorShape": {}}}, "dtype": {"type": "DT_INT32"}}}, {"name": "StatefulPartitionedCall/U-Net_plus_plus_4levels/up_1_2/stack/3", "op": "Const", "attr": {"value": {"tensor": {"dtype": "DT_INT32", "tensorShape": {}}}, "dtype": {"type": "DT_INT32"}}}, {"name": "StatefulPartitionedCall/U-Net_plus_plus_4levels/up_1_2/conv2d_transpose/ReadVariableOp", "op": "Const", "attr": {"value": {"tensor": {"dtype": "DT_FLOAT", "tensorShape": {"dim": [{"size": "2"}, {"size": "2"}, {"size": "16"}, {"size": "32"}]}}}, "dtype": {"type": "DT_FLOAT"}}}, {"name": "StatefulPartitionedCall/U-Net_plus_plus_4levels/up_2_0/strided_slice/stack", "op": "Const", "attr": {"value": {"tensor": {"dtype": "DT_INT32", "tensorShape": {"dim": [{"size": "1"}]}}}, "dtype": {"type": "DT_INT32"}}}, {"name": "StatefulPartitionedCall/U-Net_plus_plus_4levels/up_2_0/strided_slice/stack_1", "op": "Const", "attr": {"value": {"tensor": {"dtype": "DT_INT32", "tensorShape": {"dim": [{"size": "1"}]}}}, "dtype": {"type": "DT_INT32"}}}, {"name": "StatefulPartitionedCall/U-Net_plus_plus_4levels/up_2_0/strided_slice/stack_2", "op": "Const", "attr": {"value": {"tensor": {"dtype": "DT_INT32", "tensorShape": {"dim": [{"size": "1"}]}}}, "dtype": {"type": "DT_INT32"}}}, {"name": "StatefulPartitionedCall/U-Net_plus_plus_4levels/up_2_0/stack/1", "op": "Const", "attr": {"value": {"tensor": {"dtype": "DT_INT32", "tensorShape": {}}}, "dtype": {"type": "DT_INT32"}}}, {"name": "StatefulPartitionedCall/U-Net_plus_plus_4levels/up_2_0/stack/2", "op": "Const", "attr": {"value": {"tensor": {"dtype": "DT_INT32", "tensorShape": {}}}, "dtype": {"type": "DT_INT32"}}}, {"name": "StatefulPartitionedCall/U-Net_plus_plus_4levels/up_2_0/stack/3", "op": "Const", "attr": {"value": {"tensor": {"dtype": "DT_INT32", "tensorShape": {}}}, "dtype": {"type": "DT_INT32"}}}, {"name": "StatefulPartitionedCall/U-Net_plus_plus_4levels/up_2_0/conv2d_transpose/ReadVariableOp", "op": "Const", "attr": {"value": {"tensor": {"dtype": "DT_FLOAT", "tensorShape": {"dim": [{"size": "2"}, {"size": "2"}, {"size": "32"}, {"size": "64"}]}}}, "dtype": {"type": "DT_FLOAT"}}}, {"name": "StatefulPartitionedCall/U-Net_plus_plus_4levels/up_2_0/BiasAdd/ReadVariableOp", "op": "Const", "attr": {"value": {"tensor": {"dtype": "DT_FLOAT", "tensorShape": {"dim": [{"size": "32"}]}}}, "dtype": {"type": "DT_FLOAT"}}}, {"name": "StatefulPartitionedCall/U-Net_plus_plus_4levels/merge_1_1/concat/axis", "op": "Const", "attr": {"value": {"tensor": {"dtype": "DT_INT32", "tensorShape": {}}}, "dtype": {"type": "DT_INT32"}}}, {"name": "StatefulPartitionedCall/U-Net_plus_plus_4levels/up_2_1/strided_slice/stack", "op": "Const", "attr": {"value": {"tensor": {"dtype": "DT_INT32", "tensorShape": {"dim": [{"size": "1"}]}}}, "dtype": {"type": "DT_INT32"}}}, {"name": "StatefulPartitionedCall/U-Net_plus_plus_4levels/up_2_1/strided_slice/stack_1", "op": "Const", "attr": {"value": {"tensor": {"dtype": "DT_INT32", "tensorShape": {"dim": [{"size": "1"}]}}}, "dtype": {"type": "DT_INT32"}}}, {"name": "StatefulPartitionedCall/U-Net_plus_plus_4levels/up_2_1/strided_slice/stack_2", "op": "Const", "attr": {"value": {"tensor": {"dtype": "DT_INT32", "tensorShape": {"dim": [{"size": "1"}]}}}, "dtype": {"type": "DT_INT32"}}}, {"name": "StatefulPartitionedCall/U-Net_plus_plus_4levels/up_2_1/stack/1", "op": "Const", "attr": {"value": {"tensor": {"dtype": "DT_INT32", "tensorShape": {}}}, "dtype": {"type": "DT_INT32"}}}, {"name": "StatefulPartitionedCall/U-Net_plus_plus_4levels/up_2_1/stack/2", "op": "Const", "attr": {"value": {"tensor": {"dtype": "DT_INT32", "tensorShape": {}}}, "dtype": {"type": "DT_INT32"}}}, {"name": "StatefulPartitionedCall/U-Net_plus_plus_4levels/up_2_1/stack/3", "op": "Const", "attr": {"value": {"tensor": {"dtype": "DT_INT32", "tensorShape": {}}}, "dtype": {"type": "DT_INT32"}}}, {"name": "StatefulPartitionedCall/U-Net_plus_plus_4levels/up_2_1/conv2d_transpose/ReadVariableOp", "op": "Const", "attr": {"value": {"tensor": {"dtype": "DT_FLOAT", "tensorShape": {"dim": [{"size": "2"}, {"size": "2"}, {"size": "32"}, {"size": "64"}]}}}, "dtype": {"type": "DT_FLOAT"}}}, {"name": "StatefulPartitionedCall/U-Net_plus_plus_4levels/up_3_0/strided_slice/stack", "op": "Const", "attr": {"value": {"tensor": {"dtype": "DT_INT32", "tensorShape": {"dim": [{"size": "1"}]}}}, "dtype": {"type": "DT_INT32"}}}, {"name": "StatefulPartitionedCall/U-Net_plus_plus_4levels/up_3_0/strided_slice/stack_1", "op": "Const", "attr": {"value": {"tensor": {"dtype": "DT_INT32", "tensorShape": {"dim": [{"size": "1"}]}}}, "dtype": {"type": "DT_INT32"}}}, {"name": "StatefulPartitionedCall/U-Net_plus_plus_4levels/up_3_0/strided_slice/stack_2", "op": "Const", "attr": {"value": {"tensor": {"dtype": "DT_INT32", "tensorShape": {"dim": [{"size": "1"}]}}}, "dtype": {"type": "DT_INT32"}}}, {"name": "StatefulPartitionedCall/U-Net_plus_plus_4levels/up_3_0/stack/1", "op": "Const", "attr": {"value": {"tensor": {"dtype": "DT_INT32", "tensorShape": {}}}, "dtype": {"type": "DT_INT32"}}}, {"name": "StatefulPartitionedCall/U-Net_plus_plus_4levels/up_3_0/stack/2", "op": "Const", "attr": {"value": {"tensor": {"dtype": "DT_INT32", "tensorShape": {}}}, "dtype": {"type": "DT_INT32"}}}, {"name": "StatefulPartitionedCall/U-Net_plus_plus_4levels/up_3_0/stack/3", "op": "Const", "attr": {"value": {"tensor": {"dtype": "DT_INT32", "tensorShape": {}}}, "dtype": {"type": "DT_INT32"}}}, {"name": "StatefulPartitionedCall/U-Net_plus_plus_4levels/up_3_0/conv2d_transpose/ReadVariableOp", "op": "Const", "attr": {"value": {"tensor": {"dtype": "DT_FLOAT", "tensorShape": {"dim": [{"size": "2"}, {"size": "2"}, {"size": "64"}, {"size": "128"}]}}}, "dtype": {"type": "DT_FLOAT"}}}, {"name": "StatefulPartitionedCall/U-Net_plus_plus_4levels/up_3_0/BiasAdd/ReadVariableOp", "op": "Const", "attr": {"value": {"tensor": {"dtype": "DT_FLOAT", "tensorShape": {"dim": [{"size": "64"}]}}}, "dtype": {"type": "DT_FLOAT"}}}, {"name": "StatefulPartitionedCall/U-Net_plus_plus_4levels/merge_2_1/concat/axis", "op": "Const", "attr": {"value": {"tensor": {"dtype": "DT_INT32", "tensorShape": {}}}, "dtype": {"type": "DT_INT32"}}}, {"name": "StatefulPartitionedCall/U-Net_plus_plus_4levels/up_2_1/BiasAdd/ReadVariableOp", "op": "Const", "attr": {"value": {"tensor": {"dtype": "DT_FLOAT", "tensorShape": {"dim": [{"size": "32"}]}}}, "dtype": {"type": "DT_FLOAT"}}}, {"name": "StatefulPartitionedCall/U-Net_plus_plus_4levels/merge_1_2/concat/axis", "op": "Const", "attr": {"value": {"tensor": {"dtype": "DT_INT32", "tensorShape": {}}}, "dtype": {"type": "DT_INT32"}}}, {"name": "StatefulPartitionedCall/U-Net_plus_plus_4levels/up_1_2/BiasAdd/ReadVariableOp", "op": "Const", "attr": {"value": {"tensor": {"dtype": "DT_FLOAT", "tensorShape": {"dim": [{"size": "16"}]}}}, "dtype": {"type": "DT_FLOAT"}}}, {"name": "StatefulPartitionedCall/U-Net_plus_plus_4levels/merge_0_3/concat/axis", "op": "Const", "attr": {"value": {"tensor": {"dtype": "DT_INT32", "tensorShape": {}}}, "dtype": {"type": "DT_INT32"}}}, {"name": "StatefulPartitionedCall/U-Net_plus_plus_4levels/output_layer/Conv2D/ReadVariableOp", "op": "Const", "attr": {"value": {"tensor": {"dtype": "DT_FLOAT", "tensorShape": {"dim": [{"size": "1"}, {"size": "1"}, {"size": "16"}, {"size": "5"}]}}}, "dtype": {"type": "DT_FLOAT"}}}, {"name": "StatefulPartitionedCall/U-Net_plus_plus_4levels/output_layer/BiasAdd/ReadVariableOp", "op": "Const", "attr": {"value": {"tensor": {"dtype": "DT_FLOAT", "tensorShape": {"dim": [{"size": "5"}]}}}, "dtype": {"type": "DT_FLOAT"}}}, {"name": "input_1", "op": "Placeholder", "attr": {"shape": {"shape": {"dim": [{"size": "-1"}, {"size": "128"}, {"size": "128"}, {"size": "3"}]}}, "dtype": {"type": "DT_FLOAT"}}}, {"name": "StatefulPartitionedCall/U-Net_plus_plus_4levels/x_0_0_a_conv/Conv2D_weights", "op": "Const", "attr": {"value": {"tensor": {"dtype": "DT_FLOAT", "tensorShape": {"dim": [{"size": "3"}, {"size": "3"}, {"size": "3"}, {"size": "16"}]}}}, "dtype": {"type": "DT_FLOAT"}}}, {"name": "StatefulPartitionedCall/U-Net_plus_plus_4levels/x_0_0_a_conv/Conv2D_bn_offset", "op": "Const", "attr": {"value": {"tensor": {"dtype": "DT_FLOAT", "tensorShape": {"dim": [{"size": "16"}]}}}, "dtype": {"type": "DT_FLOAT"}}}, {"name": "StatefulPartitionedCall/U-Net_plus_plus_4levels/x_0_2_a_conv/Conv2D_weights", "op": "Const", "attr": {"value": {"tensor": {"dtype": "DT_FLOAT", "tensorShape": {"dim": [{"size": "3"}, {"size": "3"}, {"size": "48"}, {"size": "16"}]}}}, "dtype": {"type": "DT_FLOAT"}}}, {"name": "StatefulPartitionedCall/U-Net_plus_plus_4levels/x_0_0_b_conv/Conv2D_weights", "op": "Const", "attr": {"value": {"tensor": {"dtype": "DT_FLOAT", "tensorShape": {"dim": [{"size": "3"}, {"size": "3"}, {"size": "16"}, {"size": "16"}]}}}, "dtype": {"type": "DT_FLOAT"}}}, {"name": "StatefulPartitionedCall/U-Net_plus_plus_4levels/x_0_0_b_conv/Conv2D_bn_offset", "op": "Const", "attr": {"value": {"tensor": {"dtype": "DT_FLOAT", "tensorShape": {"dim": [{"size": "16"}]}}}, "dtype": {"type": "DT_FLOAT"}}}, {"name": "StatefulPartitionedCall/U-Net_plus_plus_4levels/x_0_2_a_conv/Conv2D_bn_offset", "op": "Const", "attr": {"value": {"tensor": {"dtype": "DT_FLOAT", "tensorShape": {"dim": [{"size": "16"}]}}}, "dtype": {"type": "DT_FLOAT"}}}, {"name": "StatefulPartitionedCall/U-Net_plus_plus_4levels/x_1_0_a_conv/Conv2D_weights", "op": "Const", "attr": {"value": {"tensor": {"dtype": "DT_FLOAT", "tensorShape": {"dim": [{"size": "3"}, {"size": "3"}, {"size": "16"}, {"size": "32"}]}}}, "dtype": {"type": "DT_FLOAT"}}}, {"name": "StatefulPartitionedCall/U-Net_plus_plus_4levels/x_0_3_a_conv/Conv2D_bn_offset", "op": "Const", "attr": {"value": {"tensor": {"dtype": "DT_FLOAT", "tensorShape": {"dim": [{"size": "16"}]}}}, "dtype": {"type": "DT_FLOAT"}}}, {"name": "StatefulPartitionedCall/U-Net_plus_plus_4levels/x_1_0_a_conv/Conv2D_bn_offset", "op": "Const", "attr": {"value": {"tensor": {"dtype": "DT_FLOAT", "tensorShape": {"dim": [{"size": "32"}]}}}, "dtype": {"type": "DT_FLOAT"}}}, {"name": "StatefulPartitionedCall/U-Net_plus_plus_4levels/x_1_0_b_conv/Conv2D_weights", "op": "Const", "attr": {"value": {"tensor": {"dtype": "DT_FLOAT", "tensorShape": {"dim": [{"size": "3"}, {"size": "3"}, {"size": "32"}, {"size": "32"}]}}}, "dtype": {"type": "DT_FLOAT"}}}, {"name": "StatefulPartitionedCall/U-Net_plus_plus_4levels/x_0_2_b_conv/Conv2D_weights", "op": "Const", "attr": {"value": {"tensor": {"dtype": "DT_FLOAT", "tensorShape": {"dim": [{"size": "3"}, {"size": "3"}, {"size": "16"}, {"size": "16"}]}}}, "dtype": {"type": "DT_FLOAT"}}}, {"name": "StatefulPartitionedCall/U-Net_plus_plus_4levels/x_1_0_b_conv/Conv2D_bn_offset", "op": "Const", "attr": {"value": {"tensor": {"dtype": "DT_FLOAT", "tensorShape": {"dim": [{"size": "32"}]}}}, "dtype": {"type": "DT_FLOAT"}}}, {"name": "StatefulPartitionedCall/U-Net_plus_plus_4levels/x_2_0_a_conv/Conv2D_weights", "op": "Const", "attr": {"value": {"tensor": {"dtype": "DT_FLOAT", "tensorShape": {"dim": [{"size": "3"}, {"size": "3"}, {"size": "32"}, {"size": "64"}]}}}, "dtype": {"type": "DT_FLOAT"}}}, {"name": "StatefulPartitionedCall/U-Net_plus_plus_4levels/x_0_2_b_conv/Conv2D_bn_offset", "op": "Const", "attr": {"value": {"tensor": {"dtype": "DT_FLOAT", "tensorShape": {"dim": [{"size": "16"}]}}}, "dtype": {"type": "DT_FLOAT"}}}, {"name": "StatefulPartitionedCall/U-Net_plus_plus_4levels/x_2_0_a_conv/Conv2D_bn_offset", "op": "Const", "attr": {"value": {"tensor": {"dtype": "DT_FLOAT", "tensorShape": {"dim": [{"size": "64"}]}}}, "dtype": {"type": "DT_FLOAT"}}}, {"name": "StatefulPartitionedCall/U-Net_plus_plus_4levels/x_2_0_b_conv/Conv2D_weights", "op": "Const", "attr": {"value": {"tensor": {"dtype": "DT_FLOAT", "tensorShape": {"dim": [{"size": "3"}, {"size": "3"}, {"size": "64"}, {"size": "64"}]}}}, "dtype": {"type": "DT_FLOAT"}}}, {"name": "StatefulPartitionedCall/U-Net_plus_plus_4levels/x_2_0_b_conv/Conv2D_bn_offset", "op": "Const", "attr": {"value": {"tensor": {"dtype": "DT_FLOAT", "tensorShape": {"dim": [{"size": "64"}]}}}, "dtype": {"type": "DT_FLOAT"}}}, {"name": "StatefulPartitionedCall/U-Net_plus_plus_4levels/x_1_2_a_conv/Conv2D_weights", "op": "Const", "attr": {"value": {"tensor": {"dtype": "DT_FLOAT", "tensorShape": {"dim": [{"size": "3"}, {"size": "3"}, {"size": "96"}, {"size": "32"}]}}}, "dtype": {"type": "DT_FLOAT"}}}, {"name": "StatefulPartitionedCall/U-Net_plus_plus_4levels/x_0_1_a_conv/Conv2D_weights", "op": "Const", "attr": {"value": {"tensor": {"dtype": "DT_FLOAT", "tensorShape": {"dim": [{"size": "3"}, {"size": "3"}, {"size": "32"}, {"size": "16"}]}}}, "dtype": {"type": "DT_FLOAT"}}}, {"name": "StatefulPartitionedCall/U-Net_plus_plus_4levels/x_0_3_b_conv/Conv2D_weights", "op": "Const", "attr": {"value": {"tensor": {"dtype": "DT_FLOAT", "tensorShape": {"dim": [{"size": "3"}, {"size": "3"}, {"size": "16"}, {"size": "16"}]}}}, "dtype": {"type": "DT_FLOAT"}}}, {"name": "StatefulPartitionedCall/U-Net_plus_plus_4levels/x_0_1_a_conv/Conv2D_bn_offset", "op": "Const", "attr": {"value": {"tensor": {"dtype": "DT_FLOAT", "tensorShape": {"dim": [{"size": "16"}]}}}, "dtype": {"type": "DT_FLOAT"}}}, {"name": "StatefulPartitionedCall/U-Net_plus_plus_4levels/x_1_2_a_conv/Conv2D_bn_offset", "op": "Const", "attr": {"value": {"tensor": {"dtype": "DT_FLOAT", "tensorShape": {"dim": [{"size": "32"}]}}}, "dtype": {"type": "DT_FLOAT"}}}, {"name": "StatefulPartitionedCall/U-Net_plus_plus_4levels/x_0_1_b_conv/Conv2D_weights", "op": "Const", "attr": {"value": {"tensor": {"dtype": "DT_FLOAT", "tensorShape": {"dim": [{"size": "3"}, {"size": "3"}, {"size": "16"}, {"size": "16"}]}}}, "dtype": {"type": "DT_FLOAT"}}}, {"name": "StatefulPartitionedCall/U-Net_plus_plus_4levels/x_0_1_b_conv/Conv2D_bn_offset", "op": "Const", "attr": {"value": {"tensor": {"dtype": "DT_FLOAT", "tensorShape": {"dim": [{"size": "16"}]}}}, "dtype": {"type": "DT_FLOAT"}}}, {"name": "StatefulPartitionedCall/U-Net_plus_plus_4levels/x_3_0_a_conv/Conv2D_weights", "op": "Const", "attr": {"value": {"tensor": {"dtype": "DT_FLOAT", "tensorShape": {"dim": [{"size": "3"}, {"size": "3"}, {"size": "64"}, {"size": "128"}]}}}, "dtype": {"type": "DT_FLOAT"}}}, {"name": "StatefulPartitionedCall/U-Net_plus_plus_4levels/x_1_2_b_conv/Conv2D_weights", "op": "Const", "attr": {"value": {"tensor": {"dtype": "DT_FLOAT", "tensorShape": {"dim": [{"size": "3"}, {"size": "3"}, {"size": "32"}, {"size": "32"}]}}}, "dtype": {"type": "DT_FLOAT"}}}, {"name": "StatefulPartitionedCall/U-Net_plus_plus_4levels/x_3_0_a_conv/Conv2D_bn_offset", "op": "Const", "attr": {"value": {"tensor": {"dtype": "DT_FLOAT", "tensorShape": {"dim": [{"size": "128"}]}}}, "dtype": {"type": "DT_FLOAT"}}}, {"name": "StatefulPartitionedCall/U-Net_plus_plus_4levels/x_0_3_b_conv/Conv2D_bn_offset", "op": "Const", "attr": {"value": {"tensor": {"dtype": "DT_FLOAT", "tensorShape": {"dim": [{"size": "16"}]}}}, "dtype": {"type": "DT_FLOAT"}}}, {"name": "StatefulPartitionedCall/U-Net_plus_plus_4levels/x_3_0_b_conv/Conv2D_weights", "op": "Const", "attr": {"value": {"tensor": {"dtype": "DT_FLOAT", "tensorShape": {"dim": [{"size": "3"}, {"size": "3"}, {"size": "128"}, {"size": "128"}]}}}, "dtype": {"type": "DT_FLOAT"}}}, {"name": "StatefulPartitionedCall/U-Net_plus_plus_4levels/x_1_2_b_conv/Conv2D_bn_offset", "op": "Const", "attr": {"value": {"tensor": {"dtype": "DT_FLOAT", "tensorShape": {"dim": [{"size": "32"}]}}}, "dtype": {"type": "DT_FLOAT"}}}, {"name": "StatefulPartitionedCall/U-Net_plus_plus_4levels/x_3_0_b_conv/Conv2D_bn_offset", "op": "Const", "attr": {"value": {"tensor": {"dtype": "DT_FLOAT", "tensorShape": {"dim": [{"size": "128"}]}}}, "dtype": {"type": "DT_FLOAT"}}}, {"name": "StatefulPartitionedCall/U-Net_plus_plus_4levels/x_1_1_a_conv/Conv2D_weights", "op": "Const", "attr": {"value": {"tensor": {"dtype": "DT_FLOAT", "tensorShape": {"dim": [{"size": "3"}, {"size": "3"}, {"size": "64"}, {"size": "32"}]}}}, "dtype": {"type": "DT_FLOAT"}}}, {"name": "StatefulPartitionedCall/U-Net_plus_plus_4levels/x_1_1_a_conv/Conv2D_bn_offset", "op": "Const", "attr": {"value": {"tensor": {"dtype": "DT_FLOAT", "tensorShape": {"dim": [{"size": "32"}]}}}, "dtype": {"type": "DT_FLOAT"}}}, {"name": "StatefulPartitionedCall/U-Net_plus_plus_4levels/x_1_1_b_conv/Conv2D_weights", "op": "Const", "attr": {"value": {"tensor": {"dtype": "DT_FLOAT", "tensorShape": {"dim": [{"size": "3"}, {"size": "3"}, {"size": "32"}, {"size": "32"}]}}}, "dtype": {"type": "DT_FLOAT"}}}, {"name": "StatefulPartitionedCall/U-Net_plus_plus_4levels/x_1_1_b_conv/Conv2D_bn_offset", "op": "Const", "attr": {"value": {"tensor": {"dtype": "DT_FLOAT", "tensorShape": {"dim": [{"size": "32"}]}}}, "dtype": {"type": "DT_FLOAT"}}}, {"name": "StatefulPartitionedCall/U-Net_plus_plus_4levels/x_2_1_a_conv/Conv2D_weights", "op": "Const", "attr": {"value": {"tensor": {"dtype": "DT_FLOAT", "tensorShape": {"dim": [{"size": "3"}, {"size": "3"}, {"size": "128"}, {"size": "64"}]}}}, "dtype": {"type": "DT_FLOAT"}}}, {"name": "StatefulPartitionedCall/U-Net_plus_plus_4levels/x_2_1_a_conv/Conv2D_bn_offset", "op": "Const", "attr": {"value": {"tensor": {"dtype": "DT_FLOAT", "tensorShape": {"dim": [{"size": "64"}]}}}, "dtype": {"type": "DT_FLOAT"}}}, {"name": "StatefulPartitionedCall/U-Net_plus_plus_4levels/x_2_1_b_conv/Conv2D_weights", "op": "Const", "attr": {"value": {"tensor": {"dtype": "DT_FLOAT", "tensorShape": {"dim": [{"size": "3"}, {"size": "3"}, {"size": "64"}, {"size": "64"}]}}}, "dtype": {"type": "DT_FLOAT"}}}, {"name": "StatefulPartitionedCall/U-Net_plus_plus_4levels/x_2_1_b_conv/Conv2D_bn_offset", "op": "Const", "attr": {"value": {"tensor": {"dtype": "DT_FLOAT", "tensorShape": {"dim": [{"size": "64"}]}}}, "dtype": {"type": "DT_FLOAT"}}}, {"name": "StatefulPartitionedCall/U-Net_plus_plus_4levels/x_0_3_a_conv/Conv2D_weights", "op": "Const", "attr": {"value": {"tensor": {"dtype": "DT_FLOAT", "tensorShape": {"dim": [{"size": "3"}, {"size": "3"}, {"size": "64"}, {"size": "16"}]}}}, "dtype": {"type": "DT_FLOAT"}}}, {"name": "StatefulPartitionedCall/U-Net_plus_plus_4levels/x_0_0_a_act/Relu", "op": "_FusedConv2D", "input": ["input_1", "StatefulPartitionedCall/U-Net_plus_plus_4levels/x_0_0_a_conv/Conv2D_weights", "StatefulPartitionedCall/U-Net_plus_plus_4levels/x_0_0_a_conv/Conv2D_bn_offset"], "device": "/device:CPU:0", "attr": {"num_host_args": {"i": "0"}, "data_format": {"s": "TkhXQw=="}, "filter_format": {"s": "SFdJTw=="}, "_input_shapes": {"list": {"shape": [{"dim": [{"size": "-2"}, {"size": "128"}, {"size": "128"}, {"size": "-15"}]}, {"dim": [{"size": "3"}, {"size": "3"}, {"size": "3"}, {"size": "16"}]}]}}, "fused_ops": {"list": {"s": ["Qmlhc0FkZA==", "UmVsdQ=="]}}, "num_args": {"i": "1"}, "strides": {"list": {"i": ["1", "1", "1", "1"]}}, "TArgs": {"list": {"type": ["DT_FLOAT"]}}, "padding": {"s": "U0FNRQ=="}, "use_cudnn_on_gpu": {"b": true}, "leakyrelu_alpha": {"f": 0.2}, "epsilon": {"f": 0.0}, "T": {"type": "DT_FLOAT"}, "explicit_paddings": {"list": {}}, "dilations": {"list": {"i": ["1", "1", "1", "1"]}}}}, {"name": "StatefulPartitionedCall/U-Net_plus_plus_4levels/x_0_0_b_act/Relu", "op": "_FusedConv2D", "input": ["StatefulPartitionedCall/U-Net_plus_plus_4levels/x_0_0_a_act/Relu", "StatefulPartitionedCall/U-Net_plus_plus_4levels/x_0_0_b_conv/Conv2D_weights", "StatefulPartitionedCall/U-Net_plus_plus_4levels/x_0_0_b_conv/Conv2D_bn_offset"], "device": "/device:CPU:0", "attr": {"num_host_args": {"i": "0"}, "data_format": {"s": "TkhXQw=="}, "filter_format": {"s": "SFdJTw=="}, "_input_shapes": {"list": {"shape": [{"dim": [{"size": "-2"}, {"size": "128"}, {"size": "128"}, {"size": "16"}]}, {"dim": [{"size": "3"}, {"size": "3"}, {"size": "16"}, {"size": "16"}]}]}}, "strides": {"list": {"i": ["1", "1", "1", "1"]}}, "num_args": {"i": "1"}, "fused_ops": {"list": {"s": ["Qmlhc0FkZA==", "UmVsdQ=="]}}, "TArgs": {"list": {"type": ["DT_FLOAT"]}}, "padding": {"s": "U0FNRQ=="}, "use_cudnn_on_gpu": {"b": true}, "leakyrelu_alpha": {"f": 0.2}, "epsilon": {"f": 0.0}, "T": {"type": "DT_FLOAT"}, "explicit_paddings": {"list": {}}, "dilations": {"list": {"i": ["1", "1", "1", "1"]}}}}, {"name": "StatefulPartitionedCall/U-Net_plus_plus_4levels/maxpool/MaxPool", "op": "MaxPool", "input": ["StatefulPartitionedCall/U-Net_plus_plus_4levels/x_0_0_b_act/Relu"], "attr": {"padding": {"s": "U0FNRQ=="}, "data_format": {"s": "TkhXQw=="}, "T": {"type": "DT_FLOAT"}, "explicit_paddings": {"list": {}}, "ksize": {"list": {"i": ["1", "2", "2", "1"]}}, "strides": {"list": {"i": ["1", "2", "2", "1"]}}}}, {"name": "StatefulPartitionedCall/U-Net_plus_plus_4levels/x_1_0_a_act/Relu", "op": "_FusedConv2D", "input": ["StatefulPartitionedCall/U-Net_plus_plus_4levels/maxpool/MaxPool", "StatefulPartitionedCall/U-Net_plus_plus_4levels/x_1_0_a_conv/Conv2D_weights", "StatefulPartitionedCall/U-Net_plus_plus_4levels/x_1_0_a_conv/Conv2D_bn_offset"], "device": "/device:CPU:0", "attr": {"num_host_args": {"i": "0"}, "data_format": {"s": "TkhXQw=="}, "filter_format": {"s": "SFdJTw=="}, "_input_shapes": {"list": {"shape": [{"dim": [{"size": "-2"}, {"size": "64"}, {"size": "64"}, {"size": "16"}]}, {"dim": [{"size": "3"}, {"size": "3"}, {"size": "16"}, {"size": "32"}]}]}}, "fused_ops": {"list": {"s": ["Qmlhc0FkZA==", "UmVsdQ=="]}}, "num_args": {"i": "1"}, "strides": {"list": {"i": ["1", "1", "1", "1"]}}, "TArgs": {"list": {"type": ["DT_FLOAT"]}}, "padding": {"s": "U0FNRQ=="}, "use_cudnn_on_gpu": {"b": true}, "leakyrelu_alpha": {"f": 0.2}, "epsilon": {"f": 0.0}, "T": {"type": "DT_FLOAT"}, "explicit_paddings": {"list": {}}, "dilations": {"list": {"i": ["1", "1", "1", "1"]}}}}, {"name": "StatefulPartitionedCall/U-Net_plus_plus_4levels/x_1_0_b_act/Relu", "op": "_FusedConv2D", "input": ["StatefulPartitionedCall/U-Net_plus_plus_4levels/x_1_0_a_act/Relu", "StatefulPartitionedCall/U-Net_plus_plus_4levels/x_1_0_b_conv/Conv2D_weights", "StatefulPartitionedCall/U-Net_plus_plus_4levels/x_1_0_b_conv/Conv2D_bn_offset"], "device": "/device:CPU:0", "attr": {"num_host_args": {"i": "0"}, "data_format": {"s": "TkhXQw=="}, "filter_format": {"s": "SFdJTw=="}, "_input_shapes": {"list": {"shape": [{"dim": [{"size": "-2"}, {"size": "64"}, {"size": "64"}, {"size": "32"}]}, {"dim": [{"size": "3"}, {"size": "3"}, {"size": "32"}, {"size": "32"}]}]}}, "fused_ops": {"list": {"s": ["Qmlhc0FkZA==", "UmVsdQ=="]}}, "num_args": {"i": "1"}, "strides": {"list": {"i": ["1", "1", "1", "1"]}}, "TArgs": {"list": {"type": ["DT_FLOAT"]}}, "padding": {"s": "U0FNRQ=="}, "use_cudnn_on_gpu": {"b": true}, "leakyrelu_alpha": {"f": 0.2}, "epsilon": {"f": 0.0}, "T": {"type": "DT_FLOAT"}, "explicit_paddings": {"list": {}}, "dilations": {"list": {"i": ["1", "1", "1", "1"]}}}}, {"name": "StatefulPartitionedCall/U-Net_plus_plus_4levels/up_1_0/Shape", "op": "Shape", "input": ["StatefulPartitionedCall/U-Net_plus_plus_4levels/x_1_0_b_act/Relu"], "attr": {"T": {"type": "DT_FLOAT"}, "out_type": {"type": "DT_INT32"}}, "experimentalType": {"typeId": "TFT_PRODUCT", "args": [{"typeId": "TFT_SHAPE_TENSOR", "args": [{"typeId": "TFT_INT32"}]}]}}, {"name": "StatefulPartitionedCall/U-Net_plus_plus_4levels/maxpool/MaxPool_1", "op": "MaxPool", "input": ["StatefulPartitionedCall/U-Net_plus_plus_4levels/x_1_0_b_act/Relu"], "attr": {"ksize": {"list": {"i": ["1", "2", "2", "1"]}}, "data_format": {"s": "TkhXQw=="}, "T": {"type": "DT_FLOAT"}, "explicit_paddings": {"list": {}}, "padding": {"s": "U0FNRQ=="}, "strides": {"list": {"i": ["1", "2", "2", "1"]}}}}, {"name": "StatefulPartitionedCall/U-Net_plus_plus_4levels/up_1_0/strided_slice", "op": "StridedSlice", "input": ["StatefulPartitionedCall/U-Net_plus_plus_4levels/up_1_0/Shape", "StatefulPartitionedCall/U-Net_plus_plus_4levels/up_1_0/strided_slice/stack", "StatefulPartitionedCall/U-Net_plus_plus_4levels/up_1_0/strided_slice/stack_1", "StatefulPartitionedCall/U-Net_plus_plus_4levels/up_1_0/strided_slice/stack_2"], "attr": {"shrink_axis_mask": {"i": "1"}, "new_axis_mask": {"i": "0"}, "Index": {"type": "DT_INT32"}, "begin_mask": {"i": "0"}, "end_mask": {"i": "0"}, "T": {"type": "DT_INT32"}, "ellipsis_mask": {"i": "0"}}}, {"name": "StatefulPartitionedCall/U-Net_plus_plus_4levels/x_2_0_a_act/Relu", "op": "_FusedConv2D", "input": ["StatefulPartitionedCall/U-Net_plus_plus_4levels/maxpool/MaxPool_1", "StatefulPartitionedCall/U-Net_plus_plus_4levels/x_2_0_a_conv/Conv2D_weights", "StatefulPartitionedCall/U-Net_plus_plus_4levels/x_2_0_a_conv/Conv2D_bn_offset"], "device": "/device:CPU:0", "attr": {"num_host_args": {"i": "0"}, "data_format": {"s": "TkhXQw=="}, "filter_format": {"s": "SFdJTw=="}, "_input_shapes": {"list": {"shape": [{"dim": [{"size": "-2"}, {"size": "32"}, {"size": "32"}, {"size": "32"}]}, {"dim": [{"size": "3"}, {"size": "3"}, {"size": "32"}, {"size": "64"}]}]}}, "fused_ops": {"list": {"s": ["Qmlhc0FkZA==", "UmVsdQ=="]}}, "num_args": {"i": "1"}, "strides": {"list": {"i": ["1", "1", "1", "1"]}}, "TArgs": {"list": {"type": ["DT_FLOAT"]}}, "padding": {"s": "U0FNRQ=="}, "use_cudnn_on_gpu": {"b": true}, "leakyrelu_alpha": {"f": 0.2}, "epsilon": {"f": 0.0}, "T": {"type": "DT_FLOAT"}, "explicit_paddings": {"list": {}}, "dilations": {"list": {"i": ["1", "1", "1", "1"]}}}}, {"name": "StatefulPartitionedCall/U-Net_plus_plus_4levels/up_1_0/stack", "op": "Pack", "input": ["StatefulPartitionedCall/U-Net_plus_plus_4levels/up_1_0/strided_slice", "StatefulPartitionedCall/U-Net_plus_plus_4levels/up_1_0/stack/1", "StatefulPartitionedCall/U-Net_plus_plus_4levels/up_1_0/stack/2", "StatefulPartitionedCall/U-Net_plus_plus_4levels/up_1_0/stack/3"], "attr": {"N": {"i": "4"}, "axis": {"i": "0"}, "T": {"type": "DT_INT32"}}}, {"name": "StatefulPartitionedCall/U-Net_plus_plus_4levels/x_2_0_b_act/Relu", "op": "_FusedConv2D", "input": ["StatefulPartitionedCall/U-Net_plus_plus_4levels/x_2_0_a_act/Relu", "StatefulPartitionedCall/U-Net_plus_plus_4levels/x_2_0_b_conv/Conv2D_weights", "StatefulPartitionedCall/U-Net_plus_plus_4levels/x_2_0_b_conv/Conv2D_bn_offset"], "device": "/device:CPU:0", "attr": {"num_host_args": {"i": "0"}, "_input_shapes": {"list": {"shape": [{"dim": [{"size": "-2"}, {"size": "32"}, {"size": "32"}, {"size": "64"}]}, {"dim": [{"size": "3"}, {"size": "3"}, {"size": "64"}, {"size": "64"}]}]}}, "filter_format": {"s": "SFdJTw=="}, "data_format": {"s": "TkhXQw=="}, "strides": {"list": {"i": ["1", "1", "1", "1"]}}, "num_args": {"i": "1"}, "fused_ops": {"list": {"s": ["Qmlhc0FkZA==", "UmVsdQ=="]}}, "TArgs": {"list": {"type": ["DT_FLOAT"]}}, "padding": {"s": "U0FNRQ=="}, "use_cudnn_on_gpu": {"b": true}, "leakyrelu_alpha": {"f": 0.2}, "epsilon": {"f": 0.0}, "T": {"type": "DT_FLOAT"}, "explicit_paddings": {"list": {}}, "dilations": {"list": {"i": ["1", "1", "1", "1"]}}}}, {"name": "StatefulPartitionedCall/U-Net_plus_plus_4levels/up_1_0/conv2d_transpose", "op": "Conv2DBackpropInput", "input": ["StatefulPartitionedCall/U-Net_plus_plus_4levels/up_1_0/stack", "StatefulPartitionedCall/U-Net_plus_plus_4levels/up_1_0/conv2d_transpose/ReadVariableOp", "StatefulPartitionedCall/U-Net_plus_plus_4levels/x_1_0_b_act/Relu"], "attr": {"padding": {"s": "U0FNRQ=="}, "data_format": {"s": "TkhXQw=="}, "use_cudnn_on_gpu": {"b": true}, "strides": {"list": {"i": ["1", "2", "2", "1"]}}, "T": {"type": "DT_FLOAT"}, "explicit_paddings": {"list": {}}, "dilations": {"list": {"i": ["1", "1", "1", "1"]}}}}, {"name": "StatefulPartitionedCall/U-Net_plus_plus_4levels/up_2_0/Shape", "op": "Shape", "input": ["StatefulPartitionedCall/U-Net_plus_plus_4levels/x_2_0_b_act/Relu"], "attr": {"T": {"type": "DT_FLOAT"}, "out_type": {"type": "DT_INT32"}}, "experimentalType": {"typeId": "TFT_PRODUCT", "args": [{"typeId": "TFT_SHAPE_TENSOR", "args": [{"typeId": "TFT_INT32"}]}]}}, {"name": "StatefulPartitionedCall/U-Net_plus_plus_4levels/maxpool/MaxPool_2", "op": "MaxPool", "input": ["StatefulPartitionedCall/U-Net_plus_plus_4levels/x_2_0_b_act/Relu"], "attr": {"ksize": {"list": {"i": ["1", "2", "2", "1"]}}, "data_format": {"s": "TkhXQw=="}, "T": {"type": "DT_FLOAT"}, "explicit_paddings": {"list": {}}, "padding": {"s": "U0FNRQ=="}, "strides": {"list": {"i": ["1", "2", "2", "1"]}}}}, {"name": "StatefulPartitionedCall/U-Net_plus_plus_4levels/up_1_0/BiasAdd", "op": "BiasAdd", "input": ["StatefulPartitionedCall/U-Net_plus_plus_4levels/up_1_0/conv2d_transpose", "StatefulPartitionedCall/U-Net_plus_plus_4levels/up_1_0/BiasAdd/ReadVariableOp"], "attr": {"_input_shapes": {"list": {"shape": [{"dim": [{"size": "-2"}, {"size": "128"}, {"size": "128"}, {"size": "16"}]}, {"dim": [{"size": "16"}]}]}}, "T": {"type": "DT_FLOAT"}, "data_format": {"s": "TkhXQw=="}}}, {"name": "StatefulPartitionedCall/U-Net_plus_plus_4levels/up_2_0/strided_slice", "op": "StridedSlice", "input": ["StatefulPartitionedCall/U-Net_plus_plus_4levels/up_2_0/Shape", "StatefulPartitionedCall/U-Net_plus_plus_4levels/up_2_0/strided_slice/stack", "StatefulPartitionedCall/U-Net_plus_plus_4levels/up_2_0/strided_slice/stack_1", "StatefulPartitionedCall/U-Net_plus_plus_4levels/up_2_0/strided_slice/stack_2"], "attr": {"shrink_axis_mask": {"i": "1"}, "new_axis_mask": {"i": "0"}, "Index": {"type": "DT_INT32"}, "begin_mask": {"i": "0"}, "end_mask": {"i": "0"}, "T": {"type": "DT_INT32"}, "ellipsis_mask": {"i": "0"}}}, {"name": "StatefulPartitionedCall/U-Net_plus_plus_4levels/x_3_0_a_act/Relu", "op": "_FusedConv2D", "input": ["StatefulPartitionedCall/U-Net_plus_plus_4levels/maxpool/MaxPool_2", "StatefulPartitionedCall/U-Net_plus_plus_4levels/x_3_0_a_conv/Conv2D_weights", "StatefulPartitionedCall/U-Net_plus_plus_4levels/x_3_0_a_conv/Conv2D_bn_offset"], "device": "/device:CPU:0", "attr": {"num_host_args": {"i": "0"}, "data_format": {"s": "TkhXQw=="}, "filter_format": {"s": "SFdJTw=="}, "_input_shapes": {"list": {"shape": [{"dim": [{"size": "-2"}, {"size": "-16"}, {"size": "-17"}, {"size": "64"}]}, {"dim": [{"size": "3"}, {"size": "3"}, {"size": "64"}, {"size": "128"}]}]}}, "strides": {"list": {"i": ["1", "1", "1", "1"]}}, "num_args": {"i": "1"}, "fused_ops": {"list": {"s": ["Qmlhc0FkZA==", "UmVsdQ=="]}}, "TArgs": {"list": {"type": ["DT_FLOAT"]}}, "padding": {"s": "U0FNRQ=="}, "use_cudnn_on_gpu": {"b": true}, "leakyrelu_alpha": {"f": 0.2}, "epsilon": {"f": 0.0}, "T": {"type": "DT_FLOAT"}, "explicit_paddings": {"list": {}}, "dilations": {"list": {"i": ["1", "1", "1", "1"]}}}}, {"name": "StatefulPartitionedCall/U-Net_plus_plus_4levels/merge_0_1/concat", "op": "ConcatV2", "input": ["StatefulPartitionedCall/U-Net_plus_plus_4levels/x_0_0_b_act/Relu", "StatefulPartitionedCall/U-Net_plus_plus_4levels/up_1_0/BiasAdd", "StatefulPartitionedCall/U-Net_plus_plus_4levels/merge_0_1/concat/axis"], "attr": {"N": {"i": "2"}, "T": {"type": "DT_FLOAT"}, "Tidx": {"type": "DT_INT32"}}}, {"name": "StatefulPartitionedCall/U-Net_plus_plus_4levels/up_2_0/stack", "op": "Pack", "input": ["StatefulPartitionedCall/U-Net_plus_plus_4levels/up_2_0/strided_slice", "StatefulPartitionedCall/U-Net_plus_plus_4levels/up_2_0/stack/1", "StatefulPartitionedCall/U-Net_plus_plus_4levels/up_2_0/stack/2", "StatefulPartitionedCall/U-Net_plus_plus_4levels/up_2_0/stack/3"], "attr": {"N": {"i": "4"}, "axis": {"i": "0"}, "T": {"type": "DT_INT32"}}}, {"name": "StatefulPartitionedCall/U-Net_plus_plus_4levels/x_3_0_b_act/Relu", "op": "_FusedConv2D", "input": ["StatefulPartitionedCall/U-Net_plus_plus_4levels/x_3_0_a_act/Relu", "StatefulPartitionedCall/U-Net_plus_plus_4levels/x_3_0_b_conv/Conv2D_weights", "StatefulPartitionedCall/U-Net_plus_plus_4levels/x_3_0_b_conv/Conv2D_bn_offset"], "device": "/device:CPU:0", "attr": {"num_host_args": {"i": "0"}, "data_format": {"s": "TkhXQw=="}, "filter_format": {"s": "SFdJTw=="}, "_input_shapes": {"list": {"shape": [{"dim": [{"size": "-2"}, {"size": "-16"}, {"size": "-17"}, {"size": "128"}]}, {"dim": [{"size": "3"}, {"size": "3"}, {"size": "128"}, {"size": "128"}]}]}}, "strides": {"list": {"i": ["1", "1", "1", "1"]}}, "num_args": {"i": "1"}, "fused_ops": {"list": {"s": ["Qmlhc0FkZA==", "UmVsdQ=="]}}, "TArgs": {"list": {"type": ["DT_FLOAT"]}}, "padding": {"s": "U0FNRQ=="}, "use_cudnn_on_gpu": {"b": true}, "leakyrelu_alpha": {"f": 0.2}, "epsilon": {"f": 0.0}, "T": {"type": "DT_FLOAT"}, "explicit_paddings": {"list": {}}, "dilations": {"list": {"i": ["1", "1", "1", "1"]}}}}, {"name": "StatefulPartitionedCall/U-Net_plus_plus_4levels/x_0_1_a_act/Relu", "op": "_FusedConv2D", "input": ["StatefulPartitionedCall/U-Net_plus_plus_4levels/merge_0_1/concat", "StatefulPartitionedCall/U-Net_plus_plus_4levels/x_0_1_a_conv/Conv2D_weights", "StatefulPartitionedCall/U-Net_plus_plus_4levels/x_0_1_a_conv/Conv2D_bn_offset"], "device": "/device:CPU:0", "attr": {"num_host_args": {"i": "0"}, "data_format": {"s": "TkhXQw=="}, "filter_format": {"s": "SFdJTw=="}, "_input_shapes": {"list": {"shape": [{"dim": [{"size": "-2"}, {"size": "128"}, {"size": "128"}, {"size": "32"}]}, {"dim": [{"size": "3"}, {"size": "3"}, {"size": "32"}, {"size": "16"}]}]}}, "fused_ops": {"list": {"s": ["Qmlhc0FkZA==", "UmVsdQ=="]}}, "num_args": {"i": "1"}, "strides": {"list": {"i": ["1", "1", "1", "1"]}}, "TArgs": {"list": {"type": ["DT_FLOAT"]}}, "padding": {"s": "U0FNRQ=="}, "use_cudnn_on_gpu": {"b": true}, "leakyrelu_alpha": {"f": 0.2}, "epsilon": {"f": 0.0}, "T": {"type": "DT_FLOAT"}, "explicit_paddings": {"list": {}}, "dilations": {"list": {"i": ["1", "1", "1", "1"]}}}}, {"name": "StatefulPartitionedCall/U-Net_plus_plus_4levels/up_2_0/conv2d_transpose", "op": "Conv2DBackpropInput", "input": ["StatefulPartitionedCall/U-Net_plus_plus_4levels/up_2_0/stack", "StatefulPartitionedCall/U-Net_plus_plus_4levels/up_2_0/conv2d_transpose/ReadVariableOp", "StatefulPartitionedCall/U-Net_plus_plus_4levels/x_2_0_b_act/Relu"], "attr": {"padding": {"s": "U0FNRQ=="}, "data_format": {"s": "TkhXQw=="}, "use_cudnn_on_gpu": {"b": true}, "strides": {"list": {"i": ["1", "2", "2", "1"]}}, "T": {"type": "DT_FLOAT"}, "explicit_paddings": {"list": {}}, "dilations": {"list": {"i": ["1", "1", "1", "1"]}}}}, {"name": "StatefulPartitionedCall/U-Net_plus_plus_4levels/up_3_0/Shape", "op": "Shape", "input": ["StatefulPartitionedCall/U-Net_plus_plus_4levels/x_3_0_b_act/Relu"], "attr": {"T": {"type": "DT_FLOAT"}, "out_type": {"type": "DT_INT32"}}, "experimentalType": {"typeId": "TFT_PRODUCT", "args": [{"typeId": "TFT_SHAPE_TENSOR", "args": [{"typeId": "TFT_INT32"}]}]}}, {"name": "StatefulPartitionedCall/U-Net_plus_plus_4levels/x_0_1_b_act/Relu", "op": "_FusedConv2D", "input": ["StatefulPartitionedCall/U-Net_plus_plus_4levels/x_0_1_a_act/Relu", "StatefulPartitionedCall/U-Net_plus_plus_4levels/x_0_1_b_conv/Conv2D_weights", "StatefulPartitionedCall/U-Net_plus_plus_4levels/x_0_1_b_conv/Conv2D_bn_offset"], "device": "/device:CPU:0", "attr": {"num_host_args": {"i": "0"}, "_input_shapes": {"list": {"shape": [{"dim": [{"size": "-2"}, {"size": "128"}, {"size": "128"}, {"size": "16"}]}, {"dim": [{"size": "3"}, {"size": "3"}, {"size": "16"}, {"size": "16"}]}]}}, "filter_format": {"s": "SFdJTw=="}, "data_format": {"s": "TkhXQw=="}, "fused_ops": {"list": {"s": ["Qmlhc0FkZA==", "UmVsdQ=="]}}, "num_args": {"i": "1"}, "strides": {"list": {"i": ["1", "1", "1", "1"]}}, "TArgs": {"list": {"type": ["DT_FLOAT"]}}, "padding": {"s": "U0FNRQ=="}, "use_cudnn_on_gpu": {"b": true}, "leakyrelu_alpha": {"f": 0.2}, "epsilon": {"f": 0.0}, "T": {"type": "DT_FLOAT"}, "explicit_paddings": {"list": {}}, "dilations": {"list": {"i": ["1", "1", "1", "1"]}}}}, {"name": "StatefulPartitionedCall/U-Net_plus_plus_4levels/up_2_0/BiasAdd", "op": "BiasAdd", "input": ["StatefulPartitionedCall/U-Net_plus_plus_4levels/up_2_0/conv2d_transpose", "StatefulPartitionedCall/U-Net_plus_plus_4levels/up_2_0/BiasAdd/ReadVariableOp"], "attr": {"data_format": {"s": "TkhXQw=="}, "T": {"type": "DT_FLOAT"}, "_input_shapes": {"list": {"shape": [{"dim": [{"size": "-2"}, {"size": "64"}, {"size": "64"}, {"size": "32"}]}, {"dim": [{"size": "32"}]}]}}}}, {"name": "StatefulPartitionedCall/U-Net_plus_plus_4levels/up_3_0/strided_slice", "op": "StridedSlice", "input": ["StatefulPartitionedCall/U-Net_plus_plus_4levels/up_3_0/Shape", "StatefulPartitionedCall/U-Net_plus_plus_4levels/up_3_0/strided_slice/stack", "StatefulPartitionedCall/U-Net_plus_plus_4levels/up_3_0/strided_slice/stack_1", "StatefulPartitionedCall/U-Net_plus_plus_4levels/up_3_0/strided_slice/stack_2"], "attr": {"shrink_axis_mask": {"i": "1"}, "Index": {"type": "DT_INT32"}, "new_axis_mask": {"i": "0"}, "begin_mask": {"i": "0"}, "T": {"type": "DT_INT32"}, "end_mask": {"i": "0"}, "ellipsis_mask": {"i": "0"}}}, {"name": "StatefulPartitionedCall/U-Net_plus_plus_4levels/merge_1_1/concat", "op": "ConcatV2", "input": ["StatefulPartitionedCall/U-Net_plus_plus_4levels/x_1_0_b_act/Relu", "StatefulPartitionedCall/U-Net_plus_plus_4levels/up_2_0/BiasAdd", "StatefulPartitionedCall/U-Net_plus_plus_4levels/merge_1_1/concat/axis"], "attr": {"N": {"i": "2"}, "Tidx": {"type": "DT_INT32"}, "T": {"type": "DT_FLOAT"}}}, {"name": "StatefulPartitionedCall/U-Net_plus_plus_4levels/up_3_0/stack", "op": "Pack", "input": ["StatefulPartitionedCall/U-Net_plus_plus_4levels/up_3_0/strided_slice", "StatefulPartitionedCall/U-Net_plus_plus_4levels/up_3_0/stack/1", "StatefulPartitionedCall/U-Net_plus_plus_4levels/up_3_0/stack/2", "StatefulPartitionedCall/U-Net_plus_plus_4levels/up_3_0/stack/3"], "attr": {"N": {"i": "4"}, "axis": {"i": "0"}, "T": {"type": "DT_INT32"}}}, {"name": "StatefulPartitionedCall/U-Net_plus_plus_4levels/x_1_1_a_act/Relu", "op": "_FusedConv2D", "input": ["StatefulPartitionedCall/U-Net_plus_plus_4levels/merge_1_1/concat", "StatefulPartitionedCall/U-Net_plus_plus_4levels/x_1_1_a_conv/Conv2D_weights", "StatefulPartitionedCall/U-Net_plus_plus_4levels/x_1_1_a_conv/Conv2D_bn_offset"], "device": "/device:CPU:0", "attr": {"num_host_args": {"i": "0"}, "data_format": {"s": "TkhXQw=="}, "filter_format": {"s": "SFdJTw=="}, "_input_shapes": {"list": {"shape": [{"dim": [{"size": "-2"}, {"size": "64"}, {"size": "64"}, {"size": "64"}]}, {"dim": [{"size": "3"}, {"size": "3"}, {"size": "64"}, {"size": "32"}]}]}}, "strides": {"list": {"i": ["1", "1", "1", "1"]}}, "num_args": {"i": "1"}, "fused_ops": {"list": {"s": ["Qmlhc0FkZA==", "UmVsdQ=="]}}, "TArgs": {"list": {"type": ["DT_FLOAT"]}}, "padding": {"s": "U0FNRQ=="}, "use_cudnn_on_gpu": {"b": true}, "leakyrelu_alpha": {"f": 0.2}, "epsilon": {"f": 0.0}, "T": {"type": "DT_FLOAT"}, "explicit_paddings": {"list": {}}, "dilations": {"list": {"i": ["1", "1", "1", "1"]}}}}, {"name": "StatefulPartitionedCall/U-Net_plus_plus_4levels/up_3_0/conv2d_transpose", "op": "Conv2DBackpropInput", "input": ["StatefulPartitionedCall/U-Net_plus_plus_4levels/up_3_0/stack", "StatefulPartitionedCall/U-Net_plus_plus_4levels/up_3_0/conv2d_transpose/ReadVariableOp", "StatefulPartitionedCall/U-Net_plus_plus_4levels/x_3_0_b_act/Relu"], "attr": {"padding": {"s": "U0FNRQ=="}, "data_format": {"s": "TkhXQw=="}, "strides": {"list": {"i": ["1", "2", "2", "1"]}}, "use_cudnn_on_gpu": {"b": true}, "T": {"type": "DT_FLOAT"}, "explicit_paddings": {"list": {}}, "dilations": {"list": {"i": ["1", "1", "1", "1"]}}}}, {"name": "StatefulPartitionedCall/U-Net_plus_plus_4levels/x_1_1_b_act/Relu", "op": "_FusedConv2D", "input": ["StatefulPartitionedCall/U-Net_plus_plus_4levels/x_1_1_a_act/Relu", "StatefulPartitionedCall/U-Net_plus_plus_4levels/x_1_1_b_conv/Conv2D_weights", "StatefulPartitionedCall/U-Net_plus_plus_4levels/x_1_1_b_conv/Conv2D_bn_offset"], "device": "/device:CPU:0", "attr": {"num_host_args": {"i": "0"}, "_input_shapes": {"list": {"shape": [{"dim": [{"size": "-2"}, {"size": "64"}, {"size": "64"}, {"size": "32"}]}, {"dim": [{"size": "3"}, {"size": "3"}, {"size": "32"}, {"size": "32"}]}]}}, "filter_format": {"s": "SFdJTw=="}, "data_format": {"s": "TkhXQw=="}, "strides": {"list": {"i": ["1", "1", "1", "1"]}}, "num_args": {"i": "1"}, "fused_ops": {"list": {"s": ["Qmlhc0FkZA==", "UmVsdQ=="]}}, "TArgs": {"list": {"type": ["DT_FLOAT"]}}, "padding": {"s": "U0FNRQ=="}, "use_cudnn_on_gpu": {"b": true}, "leakyrelu_alpha": {"f": 0.2}, "epsilon": {"f": 0.0}, "T": {"type": "DT_FLOAT"}, "explicit_paddings": {"list": {}}, "dilations": {"list": {"i": ["1", "1", "1", "1"]}}}}, {"name": "StatefulPartitionedCall/U-Net_plus_plus_4levels/up_3_0/BiasAdd", "op": "BiasAdd", "input": ["StatefulPartitionedCall/U-Net_plus_plus_4levels/up_3_0/conv2d_transpose", "StatefulPartitionedCall/U-Net_plus_plus_4levels/up_3_0/BiasAdd/ReadVariableOp"], "attr": {"_input_shapes": {"list": {"shape": [{"dim": [{"size": "-2"}, {"size": "32"}, {"size": "32"}, {"size": "64"}]}, {"dim": [{"size": "64"}]}]}}, "T": {"type": "DT_FLOAT"}, "data_format": {"s": "TkhXQw=="}}}, {"name": "StatefulPartitionedCall/U-Net_plus_plus_4levels/up_1_1/Shape", "op": "Shape", "input": ["StatefulPartitionedCall/U-Net_plus_plus_4levels/x_1_1_b_act/Relu"], "attr": {"T": {"type": "DT_FLOAT"}, "out_type": {"type": "DT_INT32"}}, "experimentalType": {"typeId": "TFT_PRODUCT", "args": [{"typeId": "TFT_SHAPE_TENSOR", "args": [{"typeId": "TFT_INT32"}]}]}}, {"name": "StatefulPartitionedCall/U-Net_plus_plus_4levels/merge_2_1/concat", "op": "ConcatV2", "input": ["StatefulPartitionedCall/U-Net_plus_plus_4levels/x_2_0_b_act/Relu", "StatefulPartitionedCall/U-Net_plus_plus_4levels/up_3_0/BiasAdd", "StatefulPartitionedCall/U-Net_plus_plus_4levels/merge_2_1/concat/axis"], "attr": {"N": {"i": "2"}, "T": {"type": "DT_FLOAT"}, "Tidx": {"type": "DT_INT32"}}}, {"name": "StatefulPartitionedCall/U-Net_plus_plus_4levels/up_1_1/strided_slice", "op": "StridedSlice", "input": ["StatefulPartitionedCall/U-Net_plus_plus_4levels/up_1_1/Shape", "StatefulPartitionedCall/U-Net_plus_plus_4levels/up_1_1/strided_slice/stack", "StatefulPartitionedCall/U-Net_plus_plus_4levels/up_1_1/strided_slice/stack_1", "StatefulPartitionedCall/U-Net_plus_plus_4levels/up_1_1/strided_slice/stack_2"], "attr": {"shrink_axis_mask": {"i": "1"}, "Index": {"type": "DT_INT32"}, "new_axis_mask": {"i": "0"}, "begin_mask": {"i": "0"}, "end_mask": {"i": "0"}, "T": {"type": "DT_INT32"}, "ellipsis_mask": {"i": "0"}}}, {"name": "StatefulPartitionedCall/U-Net_plus_plus_4levels/x_2_1_a_act/Relu", "op": "_FusedConv2D", "input": ["StatefulPartitionedCall/U-Net_plus_plus_4levels/merge_2_1/concat", "StatefulPartitionedCall/U-Net_plus_plus_4levels/x_2_1_a_conv/Conv2D_weights", "StatefulPartitionedCall/U-Net_plus_plus_4levels/x_2_1_a_conv/Conv2D_bn_offset"], "device": "/device:CPU:0", "attr": {"num_host_args": {"i": "0"}, "_input_shapes": {"list": {"shape": [{"dim": [{"size": "-2"}, {"size": "32"}, {"size": "32"}, {"size": "128"}]}, {"dim": [{"size": "3"}, {"size": "3"}, {"size": "128"}, {"size": "64"}]}]}}, "filter_format": {"s": "SFdJTw=="}, "data_format": {"s": "TkhXQw=="}, "strides": {"list": {"i": ["1", "1", "1", "1"]}}, "num_args": {"i": "1"}, "fused_ops": {"list": {"s": ["Qmlhc0FkZA==", "UmVsdQ=="]}}, "TArgs": {"list": {"type": ["DT_FLOAT"]}}, "padding": {"s": "U0FNRQ=="}, "use_cudnn_on_gpu": {"b": true}, "leakyrelu_alpha": {"f": 0.2}, "epsilon": {"f": 0.0}, "T": {"type": "DT_FLOAT"}, "explicit_paddings": {"list": {}}, "dilations": {"list": {"i": ["1", "1", "1", "1"]}}}}, {"name": "StatefulPartitionedCall/U-Net_plus_plus_4levels/up_1_1/stack", "op": "Pack", "input": ["StatefulPartitionedCall/U-Net_plus_plus_4levels/up_1_1/strided_slice", "StatefulPartitionedCall/U-Net_plus_plus_4levels/up_1_1/stack/1", "StatefulPartitionedCall/U-Net_plus_plus_4levels/up_1_1/stack/2", "StatefulPartitionedCall/U-Net_plus_plus_4levels/up_1_1/stack/3"], "attr": {"N": {"i": "4"}, "axis": {"i": "0"}, "T": {"type": "DT_INT32"}}}, {"name": "StatefulPartitionedCall/U-Net_plus_plus_4levels/x_2_1_b_act/Relu", "op": "_FusedConv2D", "input": ["StatefulPartitionedCall/U-Net_plus_plus_4levels/x_2_1_a_act/Relu", "StatefulPartitionedCall/U-Net_plus_plus_4levels/x_2_1_b_conv/Conv2D_weights", "StatefulPartitionedCall/U-Net_plus_plus_4levels/x_2_1_b_conv/Conv2D_bn_offset"], "device": "/device:CPU:0", "attr": {"num_host_args": {"i": "0"}, "data_format": {"s": "TkhXQw=="}, "filter_format": {"s": "SFdJTw=="}, "_input_shapes": {"list": {"shape": [{"dim": [{"size": "-2"}, {"size": "32"}, {"size": "32"}, {"size": "64"}]}, {"dim": [{"size": "3"}, {"size": "3"}, {"size": "64"}, {"size": "64"}]}]}}, "strides": {"list": {"i": ["1", "1", "1", "1"]}}, "num_args": {"i": "1"}, "fused_ops": {"list": {"s": ["Qmlhc0FkZA==", "UmVsdQ=="]}}, "TArgs": {"list": {"type": ["DT_FLOAT"]}}, "padding": {"s": "U0FNRQ=="}, "use_cudnn_on_gpu": {"b": true}, "leakyrelu_alpha": {"f": 0.2}, "epsilon": {"f": 0.0}, "T": {"type": "DT_FLOAT"}, "explicit_paddings": {"list": {}}, "dilations": {"list": {"i": ["1", "1", "1", "1"]}}}}, {"name": "StatefulPartitionedCall/U-Net_plus_plus_4levels/up_1_1/conv2d_transpose", "op": "Conv2DBackpropInput", "input": ["StatefulPartitionedCall/U-Net_plus_plus_4levels/up_1_1/stack", "StatefulPartitionedCall/U-Net_plus_plus_4levels/up_1_1/conv2d_transpose/ReadVariableOp", "StatefulPartitionedCall/U-Net_plus_plus_4levels/x_1_1_b_act/Relu"], "attr": {"padding": {"s": "U0FNRQ=="}, "data_format": {"s": "TkhXQw=="}, "use_cudnn_on_gpu": {"b": true}, "strides": {"list": {"i": ["1", "2", "2", "1"]}}, "T": {"type": "DT_FLOAT"}, "explicit_paddings": {"list": {}}, "dilations": {"list": {"i": ["1", "1", "1", "1"]}}}}, {"name": "StatefulPartitionedCall/U-Net_plus_plus_4levels/up_2_1/Shape", "op": "Shape", "input": ["StatefulPartitionedCall/U-Net_plus_plus_4levels/x_2_1_b_act/Relu"], "attr": {"T": {"type": "DT_FLOAT"}, "out_type": {"type": "DT_INT32"}}, "experimentalType": {"typeId": "TFT_PRODUCT", "args": [{"typeId": "TFT_SHAPE_TENSOR", "args": [{"typeId": "TFT_INT32"}]}]}}, {"name": "StatefulPartitionedCall/U-Net_plus_plus_4levels/up_1_1/BiasAdd", "op": "BiasAdd", "input": ["StatefulPartitionedCall/U-Net_plus_plus_4levels/up_1_1/conv2d_transpose", "StatefulPartitionedCall/U-Net_plus_plus_4levels/up_1_1/BiasAdd/ReadVariableOp"], "attr": {"_input_shapes": {"list": {"shape": [{"dim": [{"size": "-2"}, {"size": "128"}, {"size": "128"}, {"size": "16"}]}, {"dim": [{"size": "16"}]}]}}, "T": {"type": "DT_FLOAT"}, "data_format": {"s": "TkhXQw=="}}}, {"name": "StatefulPartitionedCall/U-Net_plus_plus_4levels/up_2_1/strided_slice", "op": "StridedSlice", "input": ["StatefulPartitionedCall/U-Net_plus_plus_4levels/up_2_1/Shape", "StatefulPartitionedCall/U-Net_plus_plus_4levels/up_2_1/strided_slice/stack", "StatefulPartitionedCall/U-Net_plus_plus_4levels/up_2_1/strided_slice/stack_1", "StatefulPartitionedCall/U-Net_plus_plus_4levels/up_2_1/strided_slice/stack_2"], "attr": {"shrink_axis_mask": {"i": "1"}, "Index": {"type": "DT_INT32"}, "new_axis_mask": {"i": "0"}, "begin_mask": {"i": "0"}, "end_mask": {"i": "0"}, "T": {"type": "DT_INT32"}, "ellipsis_mask": {"i": "0"}}}, {"name": "StatefulPartitionedCall/U-Net_plus_plus_4levels/merge_0_2/concat", "op": "ConcatV2", "input": ["StatefulPartitionedCall/U-Net_plus_plus_4levels/x_0_0_b_act/Relu", "StatefulPartitionedCall/U-Net_plus_plus_4levels/x_0_1_b_act/Relu", "StatefulPartitionedCall/U-Net_plus_plus_4levels/up_1_1/BiasAdd", "StatefulPartitionedCall/U-Net_plus_plus_4levels/merge_0_2/concat/axis"], "attr": {"N": {"i": "3"}, "Tidx": {"type": "DT_INT32"}, "T": {"type": "DT_FLOAT"}}}, {"name": "StatefulPartitionedCall/U-Net_plus_plus_4levels/up_2_1/stack", "op": "Pack", "input": ["StatefulPartitionedCall/U-Net_plus_plus_4levels/up_2_1/strided_slice", "StatefulPartitionedCall/U-Net_plus_plus_4levels/up_2_1/stack/1", "StatefulPartitionedCall/U-Net_plus_plus_4levels/up_2_1/stack/2", "StatefulPartitionedCall/U-Net_plus_plus_4levels/up_2_1/stack/3"], "attr": {"N": {"i": "4"}, "axis": {"i": "0"}, "T": {"type": "DT_INT32"}}}, {"name": "StatefulPartitionedCall/U-Net_plus_plus_4levels/x_0_2_a_act/Relu", "op": "_FusedConv2D", "input": ["StatefulPartitionedCall/U-Net_plus_plus_4levels/merge_0_2/concat", "StatefulPartitionedCall/U-Net_plus_plus_4levels/x_0_2_a_conv/Conv2D_weights", "StatefulPartitionedCall/U-Net_plus_plus_4levels/x_0_2_a_conv/Conv2D_bn_offset"], "device": "/device:CPU:0", "attr": {"num_host_args": {"i": "0"}, "_input_shapes": {"list": {"shape": [{"dim": [{"size": "-2"}, {"size": "128"}, {"size": "128"}, {"size": "48"}]}, {"dim": [{"size": "3"}, {"size": "3"}, {"size": "48"}, {"size": "16"}]}]}}, "filter_format": {"s": "SFdJTw=="}, "data_format": {"s": "TkhXQw=="}, "strides": {"list": {"i": ["1", "1", "1", "1"]}}, "num_args": {"i": "1"}, "fused_ops": {"list": {"s": ["Qmlhc0FkZA==", "UmVsdQ=="]}}, "TArgs": {"list": {"type": ["DT_FLOAT"]}}, "padding": {"s": "U0FNRQ=="}, "use_cudnn_on_gpu": {"b": true}, "leakyrelu_alpha": {"f": 0.2}, "epsilon": {"f": 0.0}, "T": {"type": "DT_FLOAT"}, "explicit_paddings": {"list": {}}, "dilations": {"list": {"i": ["1", "1", "1", "1"]}}}}, {"name": "StatefulPartitionedCall/U-Net_plus_plus_4levels/up_2_1/conv2d_transpose", "op": "Conv2DBackpropInput", "input": ["StatefulPartitionedCall/U-Net_plus_plus_4levels/up_2_1/stack", "StatefulPartitionedCall/U-Net_plus_plus_4levels/up_2_1/conv2d_transpose/ReadVariableOp", "StatefulPartitionedCall/U-Net_plus_plus_4levels/x_2_1_b_act/Relu"], "attr": {"padding": {"s": "U0FNRQ=="}, "data_format": {"s": "TkhXQw=="}, "strides": {"list": {"i": ["1", "2", "2", "1"]}}, "use_cudnn_on_gpu": {"b": true}, "T": {"type": "DT_FLOAT"}, "explicit_paddings": {"list": {}}, "dilations": {"list": {"i": ["1", "1", "1", "1"]}}}}, {"name": "StatefulPartitionedCall/U-Net_plus_plus_4levels/x_0_2_b_act/Relu", "op": "_FusedConv2D", "input": ["StatefulPartitionedCall/U-Net_plus_plus_4levels/x_0_2_a_act/Relu", "StatefulPartitionedCall/U-Net_plus_plus_4levels/x_0_2_b_conv/Conv2D_weights", "StatefulPartitionedCall/U-Net_plus_plus_4levels/x_0_2_b_conv/Conv2D_bn_offset"], "device": "/device:CPU:0", "attr": {"num_host_args": {"i": "0"}, "data_format": {"s": "TkhXQw=="}, "filter_format": {"s": "SFdJTw=="}, "_input_shapes": {"list": {"shape": [{"dim": [{"size": "-2"}, {"size": "128"}, {"size": "128"}, {"size": "16"}]}, {"dim": [{"size": "3"}, {"size": "3"}, {"size": "16"}, {"size": "16"}]}]}}, "fused_ops": {"list": {"s": ["Qmlhc0FkZA==", "UmVsdQ=="]}}, "num_args": {"i": "1"}, "strides": {"list": {"i": ["1", "1", "1", "1"]}}, "TArgs": {"list": {"type": ["DT_FLOAT"]}}, "padding": {"s": "U0FNRQ=="}, "use_cudnn_on_gpu": {"b": true}, "leakyrelu_alpha": {"f": 0.2}, "epsilon": {"f": 0.0}, "T": {"type": "DT_FLOAT"}, "explicit_paddings": {"list": {}}, "dilations": {"list": {"i": ["1", "1", "1", "1"]}}}}, {"name": "StatefulPartitionedCall/U-Net_plus_plus_4levels/up_2_1/BiasAdd", "op": "BiasAdd", "input": ["StatefulPartitionedCall/U-Net_plus_plus_4levels/up_2_1/conv2d_transpose", "StatefulPartitionedCall/U-Net_plus_plus_4levels/up_2_1/BiasAdd/ReadVariableOp"], "attr": {"data_format": {"s": "TkhXQw=="}, "T": {"type": "DT_FLOAT"}, "_input_shapes": {"list": {"shape": [{"dim": [{"size": "-2"}, {"size": "64"}, {"size": "64"}, {"size": "32"}]}, {"dim": [{"size": "32"}]}]}}}}, {"name": "StatefulPartitionedCall/U-Net_plus_plus_4levels/merge_1_2/concat", "op": "ConcatV2", "input": ["StatefulPartitionedCall/U-Net_plus_plus_4levels/x_1_0_b_act/Relu", "StatefulPartitionedCall/U-Net_plus_plus_4levels/x_1_1_b_act/Relu", "StatefulPartitionedCall/U-Net_plus_plus_4levels/up_2_1/BiasAdd", "StatefulPartitionedCall/U-Net_plus_plus_4levels/merge_1_2/concat/axis"], "attr": {"N": {"i": "3"}, "Tidx": {"type": "DT_INT32"}, "T": {"type": "DT_FLOAT"}}}, {"name": "StatefulPartitionedCall/U-Net_plus_plus_4levels/x_1_2_a_act/Relu", "op": "_FusedConv2D", "input": ["StatefulPartitionedCall/U-Net_plus_plus_4levels/merge_1_2/concat", "StatefulPartitionedCall/U-Net_plus_plus_4levels/x_1_2_a_conv/Conv2D_weights", "StatefulPartitionedCall/U-Net_plus_plus_4levels/x_1_2_a_conv/Conv2D_bn_offset"], "device": "/device:CPU:0", "attr": {"num_host_args": {"i": "0"}, "_input_shapes": {"list": {"shape": [{"dim": [{"size": "-2"}, {"size": "64"}, {"size": "64"}, {"size": "96"}]}, {"dim": [{"size": "3"}, {"size": "3"}, {"size": "96"}, {"size": "32"}]}]}}, "filter_format": {"s": "SFdJTw=="}, "data_format": {"s": "TkhXQw=="}, "fused_ops": {"list": {"s": ["Qmlhc0FkZA==", "UmVsdQ=="]}}, "num_args": {"i": "1"}, "strides": {"list": {"i": ["1", "1", "1", "1"]}}, "TArgs": {"list": {"type": ["DT_FLOAT"]}}, "padding": {"s": "U0FNRQ=="}, "use_cudnn_on_gpu": {"b": true}, "leakyrelu_alpha": {"f": 0.2}, "epsilon": {"f": 0.0}, "T": {"type": "DT_FLOAT"}, "explicit_paddings": {"list": {}}, "dilations": {"list": {"i": ["1", "1", "1", "1"]}}}}, {"name": "StatefulPartitionedCall/U-Net_plus_plus_4levels/x_1_2_b_act/Relu", "op": "_FusedConv2D", "input": ["StatefulPartitionedCall/U-Net_plus_plus_4levels/x_1_2_a_act/Relu", "StatefulPartitionedCall/U-Net_plus_plus_4levels/x_1_2_b_conv/Conv2D_weights", "StatefulPartitionedCall/U-Net_plus_plus_4levels/x_1_2_b_conv/Conv2D_bn_offset"], "device": "/device:CPU:0", "attr": {"num_host_args": {"i": "0"}, "data_format": {"s": "TkhXQw=="}, "filter_format": {"s": "SFdJTw=="}, "_input_shapes": {"list": {"shape": [{"dim": [{"size": "-2"}, {"size": "64"}, {"size": "64"}, {"size": "32"}]}, {"dim": [{"size": "3"}, {"size": "3"}, {"size": "32"}, {"size": "32"}]}]}}, "fused_ops": {"list": {"s": ["Qmlhc0FkZA==", "UmVsdQ=="]}}, "num_args": {"i": "1"}, "strides": {"list": {"i": ["1", "1", "1", "1"]}}, "TArgs": {"list": {"type": ["DT_FLOAT"]}}, "padding": {"s": "U0FNRQ=="}, "use_cudnn_on_gpu": {"b": true}, "leakyrelu_alpha": {"f": 0.2}, "epsilon": {"f": 0.0}, "T": {"type": "DT_FLOAT"}, "explicit_paddings": {"list": {}}, "dilations": {"list": {"i": ["1", "1", "1", "1"]}}}}, {"name": "StatefulPartitionedCall/U-Net_plus_plus_4levels/up_1_2/Shape", "op": "Shape", "input": ["StatefulPartitionedCall/U-Net_plus_plus_4levels/x_1_2_b_act/Relu"], "attr": {"T": {"type": "DT_FLOAT"}, "out_type": {"type": "DT_INT32"}}, "experimentalType": {"typeId": "TFT_PRODUCT", "args": [{"typeId": "TFT_SHAPE_TENSOR", "args": [{"typeId": "TFT_INT32"}]}]}}, {"name": "StatefulPartitionedCall/U-Net_plus_plus_4levels/up_1_2/strided_slice", "op": "StridedSlice", "input": ["StatefulPartitionedCall/U-Net_plus_plus_4levels/up_1_2/Shape", "StatefulPartitionedCall/U-Net_plus_plus_4levels/up_1_2/strided_slice/stack", "StatefulPartitionedCall/U-Net_plus_plus_4levels/up_1_2/strided_slice/stack_1", "StatefulPartitionedCall/U-Net_plus_plus_4levels/up_1_2/strided_slice/stack_2"], "attr": {"shrink_axis_mask": {"i": "1"}, "new_axis_mask": {"i": "0"}, "Index": {"type": "DT_INT32"}, "begin_mask": {"i": "0"}, "T": {"type": "DT_INT32"}, "end_mask": {"i": "0"}, "ellipsis_mask": {"i": "0"}}}, {"name": "StatefulPartitionedCall/U-Net_plus_plus_4levels/up_1_2/stack", "op": "Pack", "input": ["StatefulPartitionedCall/U-Net_plus_plus_4levels/up_1_2/strided_slice", "StatefulPartitionedCall/U-Net_plus_plus_4levels/up_1_2/stack/1", "StatefulPartitionedCall/U-Net_plus_plus_4levels/up_1_2/stack/2", "StatefulPartitionedCall/U-Net_plus_plus_4levels/up_1_2/stack/3"], "attr": {"N": {"i": "4"}, "axis": {"i": "0"}, "T": {"type": "DT_INT32"}}}, {"name": "StatefulPartitionedCall/U-Net_plus_plus_4levels/up_1_2/conv2d_transpose", "op": "Conv2DBackpropInput", "input": ["StatefulPartitionedCall/U-Net_plus_plus_4levels/up_1_2/stack", "StatefulPartitionedCall/U-Net_plus_plus_4levels/up_1_2/conv2d_transpose/ReadVariableOp", "StatefulPartitionedCall/U-Net_plus_plus_4levels/x_1_2_b_act/Relu"], "attr": {"padding": {"s": "U0FNRQ=="}, "data_format": {"s": "TkhXQw=="}, "use_cudnn_on_gpu": {"b": true}, "strides": {"list": {"i": ["1", "2", "2", "1"]}}, "T": {"type": "DT_FLOAT"}, "explicit_paddings": {"list": {}}, "dilations": {"list": {"i": ["1", "1", "1", "1"]}}}}, {"name": "StatefulPartitionedCall/U-Net_plus_plus_4levels/up_1_2/BiasAdd", "op": "BiasAdd", "input": ["StatefulPartitionedCall/U-Net_plus_plus_4levels/up_1_2/conv2d_transpose", "StatefulPartitionedCall/U-Net_plus_plus_4levels/up_1_2/BiasAdd/ReadVariableOp"], "attr": {"data_format": {"s": "TkhXQw=="}, "T": {"type": "DT_FLOAT"}, "_input_shapes": {"list": {"shape": [{"dim": [{"size": "-2"}, {"size": "128"}, {"size": "128"}, {"size": "16"}]}, {"dim": [{"size": "16"}]}]}}}}, {"name": "StatefulPartitionedCall/U-Net_plus_plus_4levels/merge_0_3/concat", "op": "ConcatV2", "input": ["StatefulPartitionedCall/U-Net_plus_plus_4levels/x_0_0_b_act/Relu", "StatefulPartitionedCall/U-Net_plus_plus_4levels/x_0_1_b_act/Relu", "StatefulPartitionedCall/U-Net_plus_plus_4levels/x_0_2_b_act/Relu", "StatefulPartitionedCall/U-Net_plus_plus_4levels/up_1_2/BiasAdd", "StatefulPartitionedCall/U-Net_plus_plus_4levels/merge_0_3/concat/axis"], "attr": {"N": {"i": "4"}, "T": {"type": "DT_FLOAT"}, "Tidx": {"type": "DT_INT32"}}}, {"name": "StatefulPartitionedCall/U-Net_plus_plus_4levels/x_0_3_a_act/Relu", "op": "_FusedConv2D", "input": ["StatefulPartitionedCall/U-Net_plus_plus_4levels/merge_0_3/concat", "StatefulPartitionedCall/U-Net_plus_plus_4levels/x_0_3_a_conv/Conv2D_weights", "StatefulPartitionedCall/U-Net_plus_plus_4levels/x_0_3_a_conv/Conv2D_bn_offset"], "device": "/device:CPU:0", "attr": {"num_host_args": {"i": "0"}, "_input_shapes": {"list": {"shape": [{"dim": [{"size": "-2"}, {"size": "128"}, {"size": "128"}, {"size": "64"}]}, {"dim": [{"size": "3"}, {"size": "3"}, {"size": "64"}, {"size": "16"}]}]}}, "filter_format": {"s": "SFdJTw=="}, "data_format": {"s": "TkhXQw=="}, "strides": {"list": {"i": ["1", "1", "1", "1"]}}, "num_args": {"i": "1"}, "fused_ops": {"list": {"s": ["Qmlhc0FkZA==", "UmVsdQ=="]}}, "TArgs": {"list": {"type": ["DT_FLOAT"]}}, "padding": {"s": "U0FNRQ=="}, "use_cudnn_on_gpu": {"b": true}, "leakyrelu_alpha": {"f": 0.2}, "epsilon": {"f": 0.0}, "T": {"type": "DT_FLOAT"}, "explicit_paddings": {"list": {}}, "dilations": {"list": {"i": ["1", "1", "1", "1"]}}}}, {"name": "StatefulPartitionedCall/U-Net_plus_plus_4levels/x_0_3_b_act/Relu", "op": "_FusedConv2D", "input": ["StatefulPartitionedCall/U-Net_plus_plus_4levels/x_0_3_a_act/Relu", "StatefulPartitionedCall/U-Net_plus_plus_4levels/x_0_3_b_conv/Conv2D_weights", "StatefulPartitionedCall/U-Net_plus_plus_4levels/x_0_3_b_conv/Conv2D_bn_offset"], "device": "/device:CPU:0", "attr": {"num_host_args": {"i": "0"}, "data_format": {"s": "TkhXQw=="}, "filter_format": {"s": "SFdJTw=="}, "_input_shapes": {"list": {"shape": [{"dim": [{"size": "-2"}, {"size": "128"}, {"size": "128"}, {"size": "16"}]}, {"dim": [{"size": "3"}, {"size": "3"}, {"size": "16"}, {"size": "16"}]}]}}, "strides": {"list": {"i": ["1", "1", "1", "1"]}}, "num_args": {"i": "1"}, "fused_ops": {"list": {"s": ["Qmlhc0FkZA==", "UmVsdQ=="]}}, "TArgs": {"list": {"type": ["DT_FLOAT"]}}, "padding": {"s": "U0FNRQ=="}, "use_cudnn_on_gpu": {"b": true}, "leakyrelu_alpha": {"f": 0.2}, "epsilon": {"f": 0.0}, "T": {"type": "DT_FLOAT"}, "explicit_paddings": {"list": {}}, "dilations": {"list": {"i": ["1", "1", "1", "1"]}}}}, {"name": "StatefulPartitionedCall/U-Net_plus_plus_4levels/output_layer/BiasAdd", "op": "_FusedConv2D", "input": ["StatefulPartitionedCall/U-Net_plus_plus_4levels/x_0_3_b_act/Relu", "StatefulPartitionedCall/U-Net_plus_plus_4levels/output_layer/Conv2D/ReadVariableOp", "StatefulPartitionedCall/U-Net_plus_plus_4levels/output_layer/BiasAdd/ReadVariableOp"], "device": "/device:CPU:0", "attr": {"num_host_args": {"i": "0"}, "data_format": {"s": "TkhXQw=="}, "filter_format": {"s": "SFdJTw=="}, "_input_shapes": {"list": {"shape": [{"dim": [{"size": "-2"}, {"size": "128"}, {"size": "128"}, {"size": "16"}]}, {"dim": [{"size": "1"}, {"size": "1"}, {"size": "16"}, {"size": "5"}]}]}}, "fused_ops": {"list": {"s": ["Qmlhc0FkZA=="]}}, "num_args": {"i": "1"}, "strides": {"list": {"i": ["1", "1", "1", "1"]}}, "TArgs": {"list": {"type": ["DT_FLOAT"]}}, "padding": {"s": "VkFMSUQ="}, "use_cudnn_on_gpu": {"b": true}, "leakyrelu_alpha": {"f": 0.2}, "epsilon": {"f": 0.0}, "T": {"type": "DT_FLOAT"}, "explicit_paddings": {"list": {}}, "dilations": {"list": {"i": ["1", "1", "1", "1"]}}}}, {"name": "StatefulPartitionedCall/U-Net_plus_plus_4levels/output_layer/Sigmoid", "op": "Sigmoid", "input": ["StatefulPartitionedCall/U-Net_plus_plus_4levels/output_layer/BiasAdd"], "attr": {"T": {"type": "DT_FLOAT"}}}, {"name": "Identity", "op": "Identity", "input": ["StatefulPartitionedCall/U-Net_plus_plus_4levels/output_layer/Sigmoid"], "attr": {"T": {"type": "DT_FLOAT"}}}], "library": {}, "versions": {"producer": 2129}}, "weightsManifest": [{"paths": ["group1-shard1of1.bin"], "weights": [{"name": "StatefulPartitionedCall/U-Net_plus_plus_4levels/up_1_0/strided_slice/stack", "shape": [1], "dtype": "int32"}, {"name": "StatefulPartitionedCall/U-Net_plus_plus_4levels/up_1_0/strided_slice/stack_1", "shape": [1], "dtype": "int32"}, {"name": "StatefulPartitionedCall/U-Net_plus_plus_4levels/up_1_0/strided_slice/stack_2", "shape": [1], "dtype": "int32"}, {"name": "StatefulPartitionedCall/U-Net_plus_plus_4levels/up_1_0/stack/1", "shape": [], "dtype": "int32"}, {"name": "StatefulPartitionedCall/U-Net_plus_plus_4levels/up_1_0/stack/2", "shape": [], "dtype": "int32"}, {"name": "StatefulPartitionedCall/U-Net_plus_plus_4levels/up_1_0/stack/3", "shape": [], "dtype": "int32"}, {"name": "StatefulPartitionedCall/U-Net_plus_plus_4levels/up_1_0/conv2d_transpose/ReadVariableOp", "shape": [2, 2, 16, 32], "dtype": "float32", "quantization": {"dtype": "uint8", "min": -0.228140569785062, "scale": 0.0017549274598850923, "original_dtype": "float32"}}, {"name": "StatefulPartitionedCall/U-Net_plus_plus_4levels/up_1_0/BiasAdd/ReadVariableOp", "shape": [16], "dtype": "float32", "quantization": {"dtype": "uint8", "min": -0.034682797706302476, "scale": 0.0002391917083193274, "original_dtype": "float32"}}, {"name": "StatefulPartitionedCall/U-Net_plus_plus_4levels/merge_0_1/concat/axis", "shape": [], "dtype": "int32"}, {"name": "StatefulPartitionedCall/U-Net_plus_plus_4levels/up_1_1/strided_slice/stack", "shape": [1], "dtype": "int32"}, {"name": "StatefulPartitionedCall/U-Net_plus_plus_4levels/up_1_1/strided_slice/stack_1", "shape": [1], "dtype": "int32"}, {"name": "StatefulPartitionedCall/U-Net_plus_plus_4levels/up_1_1/strided_slice/stack_2", "shape": [1], "dtype": "int32"}, {"name": "StatefulPartitionedCall/U-Net_plus_plus_4levels/up_1_1/stack/1", "shape": [], "dtype": "int32"}, {"name": "StatefulPartitionedCall/U-Net_plus_plus_4levels/up_1_1/stack/2", "shape": [], "dtype": "int32"}, {"name": "StatefulPartitionedCall/U-Net_plus_plus_4levels/up_1_1/stack/3", "shape": [], "dtype": "int32"}, {"name": "StatefulPartitionedCall/U-Net_plus_plus_4levels/up_1_1/conv2d_transpose/ReadVariableOp", "shape": [2, 2, 16, 32], "dtype": "float32", "quantization": {"dtype": "uint8", "min": -0.24516170293677086, "scale": 0.0020095221552194334, "original_dtype": "float32"}}, {"name": "StatefulPartitionedCall/U-Net_plus_plus_4levels/up_1_1/BiasAdd/ReadVariableOp", "shape": [16], "dtype": "float32", "quantization": {"dtype": "uint8", "min": -0.06487378973294707, "scale": 0.0004413182975030413, "original_dtype": "float32"}}, {"name": "StatefulPartitionedCall/U-Net_plus_plus_4levels/merge_0_2/concat/axis", "shape": [], "dtype": "int32"}, {"name": "StatefulPartitionedCall/U-Net_plus_plus_4levels/up_1_2/strided_slice/stack", "shape": [1], "dtype": "int32"}, {"name": "StatefulPartitionedCall/U-Net_plus_plus_4levels/up_1_2/strided_slice/stack_1", "shape": [1], "dtype": "int32"}, {"name": "StatefulPartitionedCall/U-Net_plus_plus_4levels/up_1_2/strided_slice/stack_2", "shape": [1], "dtype": "int32"}, {"name": "StatefulPartitionedCall/U-Net_plus_plus_4levels/up_1_2/stack/1", "shape": [], "dtype": "int32"}, {"name": "StatefulPartitionedCall/U-Net_plus_plus_4levels/up_1_2/stack/2", "shape": [], "dtype": "int32"}, {"name": "StatefulPartitionedCall/U-Net_plus_plus_4levels/up_1_2/stack/3", "shape": [], "dtype": "int32"}, {"name": "StatefulPartitionedCall/U-Net_plus_plus_4levels/up_1_2/conv2d_transpose/ReadVariableOp", "shape": [2, 2, 16, 32], "dtype": "float32", "quantization": {"dtype": "uint8", "min": -0.3997677723566691, "scale": 0.0029180129369099934, "original_dtype": "float32"}}, {"name": "StatefulPartitionedCall/U-Net_plus_plus_4levels/up_2_0/strided_slice/stack", "shape": [1], "dtype": "int32"}, {"name": "StatefulPartitionedCall/U-Net_plus_plus_4levels/up_2_0/strided_slice/stack_1", "shape": [1], "dtype": "int32"}, {"name": "StatefulPartitionedCall/U-Net_plus_plus_4levels/up_2_0/strided_slice/stack_2", "shape": [1], "dtype": "int32"}, {"name": "StatefulPartitionedCall/U-Net_plus_plus_4levels/up_2_0/stack/1", "shape": [], "dtype": "int32"}, {"name": "StatefulPartitionedCall/U-Net_plus_plus_4levels/up_2_0/stack/2", "shape": [], "dtype": "int32"}, {"name": "StatefulPartitionedCall/U-Net_plus_plus_4levels/up_2_0/stack/3", "shape": [], "dtype": "int32"}, {"name": "StatefulPartitionedCall/U-Net_plus_plus_4levels/up_2_0/conv2d_transpose/ReadVariableOp", "shape": [2, 2, 32, 64], "dtype": "float32", "quantization": {"dtype": "uint8", "min": -0.20368412417524, "scale": 0.0016165406680574603, "original_dtype": "float32"}}, {"name": "StatefulPartitionedCall/U-Net_plus_plus_4levels/up_2_0/BiasAdd/ReadVariableOp", "shape": [32], "dtype": "float32", "quantization": {"dtype": "uint8", "min": -0.03586032061892397, "scale": 0.0003173479700789732, "original_dtype": "float32"}}, {"name": "StatefulPartitionedCall/U-Net_plus_plus_4levels/merge_1_1/concat/axis", "shape": [], "dtype": "int32"}, {"name": "StatefulPartitionedCall/U-Net_plus_plus_4levels/up_2_1/strided_slice/stack", "shape": [1], "dtype": "int32"}, {"name": "StatefulPartitionedCall/U-Net_plus_plus_4levels/up_2_1/strided_slice/stack_1", "shape": [1], "dtype": "int32"}, {"name": "StatefulPartitionedCall/U-Net_plus_plus_4levels/up_2_1/strided_slice/stack_2", "shape": [1], "dtype": "int32"}, {"name": "StatefulPartitionedCall/U-Net_plus_plus_4levels/up_2_1/stack/1", "shape": [], "dtype": "int32"}, {"name": "StatefulPartitionedCall/U-Net_plus_plus_4levels/up_2_1/stack/2", "shape": [], "dtype": "int32"}, {"name": "StatefulPartitionedCall/U-Net_plus_plus_4levels/up_2_1/stack/3", "shape": [], "dtype": "int32"}, {"name": "StatefulPartitionedCall/U-Net_plus_plus_4levels/up_2_1/conv2d_transpose/ReadVariableOp", "shape": [2, 2, 32, 64], "dtype": "float32", "quantization": {"dtype": "uint8", "min": -0.32560390128808864, "scale": 0.002342474109986249, "original_dtype": "float32"}}, {"name": "StatefulPartitionedCall/U-Net_plus_plus_4levels/up_3_0/strided_slice/stack", "shape": [1], "dtype": "int32"}, {"name": "StatefulPartitionedCall/U-Net_plus_plus_4levels/up_3_0/strided_slice/stack_1", "shape": [1], "dtype": "int32"}, {"name": "StatefulPartitionedCall/U-Net_plus_plus_4levels/up_3_0/strided_slice/stack_2", "shape": [1], "dtype": "int32"}, {"name": "StatefulPartitionedCall/U-Net_plus_plus_4levels/up_3_0/stack/1", "shape": [], "dtype": "int32"}, {"name": "StatefulPartitionedCall/U-Net_plus_plus_4levels/up_3_0/stack/2", "shape": [], "dtype": "int32"}, {"name": "StatefulPartitionedCall/U-Net_plus_plus_4levels/up_3_0/stack/3", "shape": [], "dtype": "int32"}, {"name": "StatefulPartitionedCall/U-Net_plus_plus_4levels/up_3_0/conv2d_transpose/ReadVariableOp", "shape": [2, 2, 64, 128], "dtype": "float32", "quantization": {"dtype": "uint8", "min": -0.24945280832402847, "scale": 0.0019188677563386806, "original_dtype": "float32"}}, {"name": "StatefulPartitionedCall/U-Net_plus_plus_4levels/up_3_0/BiasAdd/ReadVariableOp", "shape": [64], "dtype": "float32", "quantization": {"dtype": "uint8", "min": -0.052489902721900565, "scale": 0.00039171569195448183, "original_dtype": "float32"}}, {"name": "StatefulPartitionedCall/U-Net_plus_plus_4levels/merge_2_1/concat/axis", "shape": [], "dtype": "int32"}, {"name": "StatefulPartitionedCall/U-Net_plus_plus_4levels/up_2_1/BiasAdd/ReadVariableOp", "shape": [32], "dtype": "float32", "quantization": {"dtype": "uint8", "min": -0.1048752014543496, "scale": 0.0006317783220141542, "original_dtype": "float32"}}, {"name": "StatefulPartitionedCall/U-Net_plus_plus_4levels/merge_1_2/concat/axis", "shape": [], "dtype": "int32"}, {"name": "StatefulPartitionedCall/U-Net_plus_plus_4levels/up_1_2/BiasAdd/ReadVariableOp", "shape": [16], "dtype": "float32", "quantization": {"dtype": "uint8", "min": -0.10537624768182344, "scale": 0.0007526874834415959, "original_dtype": "float32"}}, {"name": "StatefulPartitionedCall/U-Net_plus_plus_4levels/merge_0_3/concat/axis", "shape": [], "dtype": "int32"}, {"name": "StatefulPartitionedCall/U-Net_plus_plus_4levels/output_layer/Conv2D/ReadVariableOp", "shape": [1, 1, 16, 5], "dtype": "float32", "quantization": {"dtype": "uint8", "min": -1.1566673629424153, "scale": 0.008145544809453628, "original_dtype": "float32"}}, {"name": "StatefulPartitionedCall/U-Net_plus_plus_4levels/output_layer/BiasAdd/ReadVariableOp", "shape": [5], "dtype": "float32", "quantization": {"dtype": "uint8", "min": -0.5341846942901611, "scale": 0.0011674344539642334, "original_dtype": "float32"}}, {"name": "StatefulPartitionedCall/U-Net_plus_plus_4levels/x_0_0_a_conv/Conv2D_weights", "shape": [3, 3, 3, 16], "dtype": "float32", "quantization": {"dtype": "uint8", "min": -5.043265249214921, "scale": 0.045029154010847505, "original_dtype": "float32"}}, {"name": "StatefulPartitionedCall/U-Net_plus_plus_4levels/x_0_0_a_conv/Conv2D_bn_offset", "shape": [16], "dtype": "float32", "quantization": {"dtype": "uint8", "min": -1.6359828883526373, "scale": 0.010354322078181249, "original_dtype": "float32"}}, {"name": "StatefulPartitionedCall/U-Net_plus_plus_4levels/x_0_2_a_conv/Conv2D_weights", "shape": [3, 3, 48, 16], "dtype": "float32", "quantization": {"dtype": "uint8", "min": -0.26009552209985026, "scale": 0.00214954976942025, "original_dtype": "float32"}}, {"name": "StatefulPartitionedCall/U-Net_plus_plus_4levels/x_0_0_b_conv/Conv2D_weights", "shape": [3, 3, 16, 16], "dtype": "float32", "quantization": {"dtype": "uint8", "min": -0.596951284829308, "scale": 0.004203882287530338, "original_dtype": "float32"}}, {"name": "StatefulPartitionedCall/U-Net_plus_plus_4levels/x_0_0_b_conv/Conv2D_bn_offset", "shape": [16], "dtype": "float32", "quantization": {"dtype": "uint8", "min": -0.532739233269411, "scale": 0.007951331839841955, "original_dtype": "float32"}}, {"name": "StatefulPartitionedCall/U-Net_plus_plus_4levels/x_0_2_a_conv/Conv2D_bn_offset", "shape": [16], "dtype": "float32", "quantization": {"dtype": "uint8", "min": -0.9571610338547651, "scale": 0.009115819370045382, "original_dtype": "float32"}}, {"name": "StatefulPartitionedCall/U-Net_plus_plus_4levels/x_1_0_a_conv/Conv2D_weights", "shape": [3, 3, 16, 32], "dtype": "float32", "quantization": {"dtype": "uint8", "min": -0.45979936052771175, "scale": 0.0033318794241138532, "original_dtype": "float32"}}, {"name": "StatefulPartitionedCall/U-Net_plus_plus_4levels/x_0_3_a_conv/Conv2D_bn_offset", "shape": [16], "dtype": "float32", "quantization": {"dtype": "uint8", "min": -1.0856675148010255, "scale": 0.007335591316223145, "original_dtype": "float32"}}, {"name": "StatefulPartitionedCall/U-Net_plus_plus_4levels/x_1_0_a_conv/Conv2D_bn_offset", "shape": [32], "dtype": "float32", "quantization": {"dtype": "uint8", "min": -0.6069972907795625, "scale": 0.006526852589027555, "original_dtype": "float32"}}, {"name": "StatefulPartitionedCall/U-Net_plus_plus_4levels/x_1_0_b_conv/Conv2D_weights", "shape": [3, 3, 32, 32], "dtype": "float32", "quantization": {"dtype": "uint8", "min": -0.24137011941741493, "scale": 0.001962358694450528, "original_dtype": "float32"}}, {"name": "StatefulPartitionedCall/U-Net_plus_plus_4levels/x_0_2_b_conv/Conv2D_weights", "shape": [3, 3, 16, 16], "dtype": "float32", "quantization": {"dtype": "uint8", "min": -0.3470800717671712, "scale": 0.0026494661966959634, "original_dtype": "float32"}}, {"name": "StatefulPartitionedCall/U-Net_plus_plus_4levels/x_1_0_b_conv/Conv2D_bn_offset", "shape": [32], "dtype": "float32", "quantization": {"dtype": "uint8", "min": -1.4444539378671086, "scale": 0.016795976021710565, "original_dtype": "float32"}}, {"name": "StatefulPartitionedCall/U-Net_plus_plus_4levels/x_2_0_a_conv/Conv2D_weights", "shape": [3, 3, 32, 64], "dtype": "float32", "quantization": {"dtype": "uint8", "min": -0.27144623071539636, "scale": 0.002025718139667137, "original_dtype": "float32"}}, {"name": "StatefulPartitionedCall/U-Net_plus_plus_4levels/x_0_2_b_conv/Conv2D_bn_offset", "shape": [16], "dtype": "float32", "quantization": {"dtype": "uint8", "min": -0.4818411803713032, "scale": 0.006511367302314908, "original_dtype": "float32"}}, {"name": "StatefulPartitionedCall/U-Net_plus_plus_4levels/x_2_0_a_conv/Conv2D_bn_offset", "shape": [64], "dtype": "float32", "quantization": {"dtype": "uint8", "min": -1.0189071599174948, "scale": 0.01029199151431813, "original_dtype": "float32"}}, {"name": "StatefulPartitionedCall/U-Net_plus_plus_4levels/x_2_0_b_conv/Conv2D_weights", "shape": [3, 3, 64, 64], "dtype": "float32", "quantization": {"dtype": "uint8", "min": -0.15770949803146664, "scale": 0.0013713869394040576, "original_dtype": "float32"}}, {"name": "StatefulPartitionedCall/U-Net_plus_plus_4levels/x_2_0_b_conv/Conv2D_bn_offset", "shape": [64], "dtype": "float32", "quantization": {"dtype": "uint8", "min": -1.6118790187087713, "scale": 0.013212123104170257, "original_dtype": "float32"}}, {"name": "StatefulPartitionedCall/U-Net_plus_plus_4levels/x_1_2_a_conv/Conv2D_weights", "shape": [3, 3, 96, 32], "dtype": "float32", "quantization": {"dtype": "uint8", "min": -0.13660576857772527, "scale": 0.001157676004895977, "original_dtype": "float32"}}, {"name": "StatefulPartitionedCall/U-Net_plus_plus_4levels/x_0_1_a_conv/Conv2D_weights", "shape": [3, 3, 32, 16], "dtype": "float32", "quantization": {"dtype": "uint8", "min": -0.3389456704551098, "scale": 0.00277824320045172, "original_dtype": "float32"}}, {"name": "StatefulPartitionedCall/U-Net_plus_plus_4levels/x_0_3_b_conv/Conv2D_weights", "shape": [3, 3, 16, 16], "dtype": "float32", "quantization": {"dtype": "uint8", "min": -0.2593657802132999, "scale": 0.0021259490181418025, "original_dtype": "float32"}}, {"name": "StatefulPartitionedCall/U-Net_plus_plus_4levels/x_0_1_a_conv/Conv2D_bn_offset", "shape": [16], "dtype": "float32", "quantization": {"dtype": "uint8", "min": -0.7674948479615007, "scale": 0.008434009318258249, "original_dtype": "float32"}}, {"name": "StatefulPartitionedCall/U-Net_plus_plus_4levels/x_1_2_a_conv/Conv2D_bn_offset", "shape": [32], "dtype": "float32", "quantization": {"dtype": "uint8", "min": -0.5368998448053995, "scale": 0.0063164687624164655, "original_dtype": "float32"}}, {"name": "StatefulPartitionedCall/U-Net_plus_plus_4levels/x_0_1_b_conv/Conv2D_weights", "shape": [3, 3, 16, 16], "dtype": "float32", "quantization": {"dtype": "uint8", "min": -0.2833082409466014, "scale": 0.002146274552625768, "original_dtype": "float32"}}, {"name": "StatefulPartitionedCall/U-Net_plus_plus_4levels/x_0_1_b_conv/Conv2D_bn_offset", "shape": [16], "dtype": "float32", "quantization": {"dtype": "uint8", "min": -0.9337034089892519, "scale": 0.007912740754146202, "original_dtype": "float32"}}, {"name": "StatefulPartitionedCall/U-Net_plus_plus_4levels/x_3_0_a_conv/Conv2D_weights", "shape": [3, 3, 64, 128], "dtype": "float32", "quantization": {"dtype": "uint8", "min": -0.19569230523763917, "scale": 0.001658409366420671, "original_dtype": "float32"}}, {"name": "StatefulPartitionedCall/U-Net_plus_plus_4levels/x_1_2_b_conv/Conv2D_weights", "shape": [3, 3, 32, 32], "dtype": "float32", "quantization": {"dtype": "uint8", "min": -0.3268465472202675, "scale": 0.002573594860002106, "original_dtype": "float32"}}, {"name": "StatefulPartitionedCall/U-Net_plus_plus_4levels/x_3_0_a_conv/Conv2D_bn_offset", "shape": [128], "dtype": "float32", "quantization": {"dtype": "uint8", "min": -1.9362471038219975, "scale": 0.015126930498609355, "original_dtype": "float32"}}, {"name": "StatefulPartitionedCall/U-Net_plus_plus_4levels/x_0_3_b_conv/Conv2D_bn_offset", "shape": [16], "dtype": "float32", "quantization": {"dtype": "uint8", "min": -0.7238260535632863, "scale": 0.009279821199529312, "original_dtype": "float32"}}, {"name": "StatefulPartitionedCall/U-Net_plus_plus_4levels/x_3_0_b_conv/Conv2D_weights", "shape": [3, 3, 128, 128], "dtype": "float32", "quantization": {"dtype": "uint8", "min": -0.16842345618734172, "scale": 0.0014273174253164552, "original_dtype": "float32"}}, {"name": "StatefulPartitionedCall/U-Net_plus_plus_4levels/x_1_2_b_conv/Conv2D_bn_offset", "shape": [32], "dtype": "float32", "quantization": {"dtype": "uint8", "min": -1.2766907187069163, "scale": 0.013298861653197045, "original_dtype": "float32"}}, {"name": "StatefulPartitionedCall/U-Net_plus_plus_4levels/x_3_0_b_conv/Conv2D_bn_offset", "shape": [128], "dtype": "float32", "quantization": {"dtype": "uint8", "min": -1.9626948342603796, "scale": 0.01453848025378059, "original_dtype": "float32"}}, {"name": "StatefulPartitionedCall/U-Net_plus_plus_4levels/x_1_1_a_conv/Conv2D_weights", "shape": [3, 3, 64, 32], "dtype": "float32", "quantization": {"dtype": "uint8", "min": -0.3382553250181909, "scale": 0.0026426197267046163, "original_dtype": "float32"}}, {"name": "StatefulPartitionedCall/U-Net_plus_plus_4levels/x_1_1_a_conv/Conv2D_bn_offset", "shape": [32], "dtype": "float32", "quantization": {"dtype": "uint8", "min": -1.1258326530456544, "scale": 0.008529035250345866, "original_dtype": "float32"}}, {"name": "StatefulPartitionedCall/U-Net_plus_plus_4levels/x_1_1_b_conv/Conv2D_weights", "shape": [3, 3, 32, 32], "dtype": "float32", "quantization": {"dtype": "uint8", "min": -0.33537060933954577, "scale": 0.0025406864343904983, "original_dtype": "float32"}}, {"name": "StatefulPartitionedCall/U-Net_plus_plus_4levels/x_1_1_b_conv/Conv2D_bn_offset", "shape": [32], "dtype": "float32", "quantization": {"dtype": "uint8", "min": -0.840319439944099, "scale": 0.00712135118596694, "original_dtype": "float32"}}, {"name": "StatefulPartitionedCall/U-Net_plus_plus_4levels/x_2_1_a_conv/Conv2D_weights", "shape": [3, 3, 128, 64], "dtype": "float32", "quantization": {"dtype": "uint8", "min": -0.16744678558087817, "scale": 0.0013725146359088373, "original_dtype": "float32"}}, {"name": "StatefulPartitionedCall/U-Net_plus_plus_4levels/x_2_1_a_conv/Conv2D_bn_offset", "shape": [64], "dtype": "float32", "quantization": {"dtype": "uint8", "min": -0.3730981375656876, "scale": 0.007614247705422196, "original_dtype": "float32"}}, {"name": "StatefulPartitionedCall/U-Net_plus_plus_4levels/x_2_1_b_conv/Conv2D_weights", "shape": [3, 3, 64, 64], "dtype": "float32", "quantization": {"dtype": "uint8", "min": -0.25102650733555065, "scale": 0.0019162328804240506, "original_dtype": "float32"}}, {"name": "StatefulPartitionedCall/U-Net_plus_plus_4levels/x_2_1_b_conv/Conv2D_bn_offset", "shape": [64], "dtype": "float32", "quantization": {"dtype": "uint8", "min": -0.9651761896470015, "scale": 0.009651761896470015, "original_dtype": "float32"}}, {"name": "StatefulPartitionedCall/U-Net_plus_plus_4levels/x_0_3_a_conv/Conv2D_weights", "shape": [3, 3, 64, 16], "dtype": "float32", "quantization": {"dtype": "uint8", "min": -0.13575693190682167, "scale": 0.0010207288113294863, "original_dtype": "float32"}}]}]}