{"format": "graph-model", "generatedBy": "2.17.0", "convertedBy": "TensorFlow.js Converter v4.22.0", "signature": {"inputs": {"input_4": {"name": "input_4:0", "dtype": "DT_FLOAT", "tensorShape": {"dim": [{"size": "-1"}, {"size": "128"}, {"size": "128"}, {"size": "3"}]}}}, "outputs": {"segmentation": {"name": "Identity_1:0", "dtype": "DT_FLOAT", "tensorShape": {"dim": [{"size": "-1"}, {"size": "128"}, {"size": "128"}, {"size": "1"}]}}, "corners": {"name": "Identity:0", "dtype": "DT_FLOAT", "tensorShape": {"dim": [{"size": "-1"}, {"size": "128"}, {"size": "128"}, {"size": "4"}]}}}}, "modelTopology": {"node": [{"name": "StatefulPartitionedCall/UnetppAttention_32_64_128_256/corners/Conv2D/ReadVariableOp", "op": "Const", "attr": {"value": {"tensor": {"dtype": "DT_FLOAT", "tensorShape": {"dim": [{"size": "1"}, {"size": "1"}, {"size": "32"}, {"size": "4"}]}}}, "dtype": {"type": "DT_FLOAT"}}}, {"name": "StatefulPartitionedCall/UnetppAttention_32_64_128_256/corners/BiasAdd/ReadVariableOp", "op": "Const", "attr": {"value": {"tensor": {"dtype": "DT_FLOAT", "tensorShape": {"dim": [{"size": "4"}]}}}, "dtype": {"type": "DT_FLOAT"}}}, {"name": "StatefulPartitionedCall/UnetppAttention_32_64_128_256/att_0_0_j3_theta_x/Conv2D/ReadVariableOp", "op": "Const", "attr": {"value": {"tensor": {"dtype": "DT_FLOAT", "tensorShape": {"dim": [{"size": "1"}, {"size": "1"}, {"size": "32"}, {"size": "16"}]}}}, "dtype": {"type": "DT_FLOAT"}}}, {"name": "StatefulPartitionedCall/UnetppAttention_32_64_128_256/att_0_0_j3_phi_g/Conv2D/ReadVariableOp", "op": "Const", "attr": {"value": {"tensor": {"dtype": "DT_FLOAT", "tensorShape": {"dim": [{"size": "1"}, {"size": "1"}, {"size": "32"}, {"size": "16"}]}}}, "dtype": {"type": "DT_FLOAT"}}}, {"name": "StatefulPartitionedCall/UnetppAttention_32_64_128_256/att_0_0_j3_phi_g/BiasAdd/ReadVariableOp", "op": "Const", "attr": {"value": {"tensor": {"dtype": "DT_FLOAT", "tensorShape": {"dim": [{"size": "16"}]}}}, "dtype": {"type": "DT_FLOAT"}}}, {"name": "StatefulPartitionedCall/UnetppAttention_32_64_128_256/att_0_0_j3_psi_f/Conv2D/ReadVariableOp", "op": "Const", "attr": {"value": {"tensor": {"dtype": "DT_FLOAT", "tensorShape": {"dim": [{"size": "1"}, {"size": "1"}, {"size": "16"}, {"size": "1"}]}}}, "dtype": {"type": "DT_FLOAT"}}}, {"name": "StatefulPartitionedCall/UnetppAttention_32_64_128_256/att_0_0_j3_psi_f/BiasAdd/ReadVariableOp", "op": "Const", "attr": {"value": {"tensor": {"dtype": "DT_FLOAT", "tensorShape": {"dim": [{"size": "1"}]}}}, "dtype": {"type": "DT_FLOAT"}}}, {"name": "StatefulPartitionedCall/UnetppAttention_32_64_128_256/att_0_1_j3_theta_x/Conv2D/ReadVariableOp", "op": "Const", "attr": {"value": {"tensor": {"dtype": "DT_FLOAT", "tensorShape": {"dim": [{"size": "1"}, {"size": "1"}, {"size": "32"}, {"size": "16"}]}}}, "dtype": {"type": "DT_FLOAT"}}}, {"name": "StatefulPartitionedCall/UnetppAttention_32_64_128_256/att_0_1_j3_phi_g/Conv2D/ReadVariableOp", "op": "Const", "attr": {"value": {"tensor": {"dtype": "DT_FLOAT", "tensorShape": {"dim": [{"size": "1"}, {"size": "1"}, {"size": "32"}, {"size": "16"}]}}}, "dtype": {"type": "DT_FLOAT"}}}, {"name": "StatefulPartitionedCall/UnetppAttention_32_64_128_256/att_0_1_j3_phi_g/BiasAdd/ReadVariableOp", "op": "Const", "attr": {"value": {"tensor": {"dtype": "DT_FLOAT", "tensorShape": {"dim": [{"size": "16"}]}}}, "dtype": {"type": "DT_FLOAT"}}}, {"name": "StatefulPartitionedCall/UnetppAttention_32_64_128_256/att_0_1_j3_psi_f/Conv2D/ReadVariableOp", "op": "Const", "attr": {"value": {"tensor": {"dtype": "DT_FLOAT", "tensorShape": {"dim": [{"size": "1"}, {"size": "1"}, {"size": "16"}, {"size": "1"}]}}}, "dtype": {"type": "DT_FLOAT"}}}, {"name": "StatefulPartitionedCall/UnetppAttention_32_64_128_256/att_0_1_j3_psi_f/BiasAdd/ReadVariableOp", "op": "Const", "attr": {"value": {"tensor": {"dtype": "DT_FLOAT", "tensorShape": {"dim": [{"size": "1"}]}}}, "dtype": {"type": "DT_FLOAT"}}}, {"name": "StatefulPartitionedCall/UnetppAttention_32_64_128_256/att_0_0_j2_theta_x/Conv2D/ReadVariableOp", "op": "Const", "attr": {"value": {"tensor": {"dtype": "DT_FLOAT", "tensorShape": {"dim": [{"size": "1"}, {"size": "1"}, {"size": "32"}, {"size": "16"}]}}}, "dtype": {"type": "DT_FLOAT"}}}, {"name": "StatefulPartitionedCall/UnetppAttention_32_64_128_256/att_0_0_j2_phi_g/Conv2D/ReadVariableOp", "op": "Const", "attr": {"value": {"tensor": {"dtype": "DT_FLOAT", "tensorShape": {"dim": [{"size": "1"}, {"size": "1"}, {"size": "32"}, {"size": "16"}]}}}, "dtype": {"type": "DT_FLOAT"}}}, {"name": "StatefulPartitionedCall/UnetppAttention_32_64_128_256/att_0_0_j2_phi_g/BiasAdd/ReadVariableOp", "op": "Const", "attr": {"value": {"tensor": {"dtype": "DT_FLOAT", "tensorShape": {"dim": [{"size": "16"}]}}}, "dtype": {"type": "DT_FLOAT"}}}, {"name": "StatefulPartitionedCall/UnetppAttention_32_64_128_256/att_0_0_j2_psi_f/Conv2D/ReadVariableOp", "op": "Const", "attr": {"value": {"tensor": {"dtype": "DT_FLOAT", "tensorShape": {"dim": [{"size": "1"}, {"size": "1"}, {"size": "16"}, {"size": "1"}]}}}, "dtype": {"type": "DT_FLOAT"}}}, {"name": "StatefulPartitionedCall/UnetppAttention_32_64_128_256/att_0_0_j2_psi_f/BiasAdd/ReadVariableOp", "op": "Const", "attr": {"value": {"tensor": {"dtype": "DT_FLOAT", "tensorShape": {"dim": [{"size": "1"}]}}}, "dtype": {"type": "DT_FLOAT"}}}, {"name": "StatefulPartitionedCall/UnetppAttention_32_64_128_256/att_0_0_j1_theta_x/Conv2D/ReadVariableOp", "op": "Const", "attr": {"value": {"tensor": {"dtype": "DT_FLOAT", "tensorShape": {"dim": [{"size": "1"}, {"size": "1"}, {"size": "32"}, {"size": "16"}]}}}, "dtype": {"type": "DT_FLOAT"}}}, {"name": "StatefulPartitionedCall/UnetppAttention_32_64_128_256/att_0_0_j1_phi_g/Conv2D/ReadVariableOp", "op": "Const", "attr": {"value": {"tensor": {"dtype": "DT_FLOAT", "tensorShape": {"dim": [{"size": "1"}, {"size": "1"}, {"size": "32"}, {"size": "16"}]}}}, "dtype": {"type": "DT_FLOAT"}}}, {"name": "StatefulPartitionedCall/UnetppAttention_32_64_128_256/att_0_0_j1_phi_g/BiasAdd/ReadVariableOp", "op": "Const", "attr": {"value": {"tensor": {"dtype": "DT_FLOAT", "tensorShape": {"dim": [{"size": "16"}]}}}, "dtype": {"type": "DT_FLOAT"}}}, {"name": "StatefulPartitionedCall/UnetppAttention_32_64_128_256/att_0_0_j1_psi_f/Conv2D/ReadVariableOp", "op": "Const", "attr": {"value": {"tensor": {"dtype": "DT_FLOAT", "tensorShape": {"dim": [{"size": "1"}, {"size": "1"}, {"size": "16"}, {"size": "1"}]}}}, "dtype": {"type": "DT_FLOAT"}}}, {"name": "StatefulPartitionedCall/UnetppAttention_32_64_128_256/att_0_0_j1_psi_f/BiasAdd/ReadVariableOp", "op": "Const", "attr": {"value": {"tensor": {"dtype": "DT_FLOAT", "tensorShape": {"dim": [{"size": "1"}]}}}, "dtype": {"type": "DT_FLOAT"}}}, {"name": "StatefulPartitionedCall/UnetppAttention_32_64_128_256/up_1_0/strided_slice/stack", "op": "Const", "attr": {"value": {"tensor": {"dtype": "DT_INT32", "tensorShape": {"dim": [{"size": "1"}]}}}, "dtype": {"type": "DT_INT32"}}}, {"name": "StatefulPartitionedCall/UnetppAttention_32_64_128_256/up_1_0/strided_slice/stack_1", "op": "Const", "attr": {"value": {"tensor": {"dtype": "DT_INT32", "tensorShape": {"dim": [{"size": "1"}]}}}, "dtype": {"type": "DT_INT32"}}}, {"name": "StatefulPartitionedCall/UnetppAttention_32_64_128_256/up_1_0/strided_slice/stack_2", "op": "Const", "attr": {"value": {"tensor": {"dtype": "DT_INT32", "tensorShape": {"dim": [{"size": "1"}]}}}, "dtype": {"type": "DT_INT32"}}}, {"name": "StatefulPartitionedCall/UnetppAttention_32_64_128_256/up_1_0/stack/1", "op": "Const", "attr": {"value": {"tensor": {"dtype": "DT_INT32", "tensorShape": {}}}, "dtype": {"type": "DT_INT32"}}}, {"name": "StatefulPartitionedCall/UnetppAttention_32_64_128_256/up_1_0/stack/2", "op": "Const", "attr": {"value": {"tensor": {"dtype": "DT_INT32", "tensorShape": {}}}, "dtype": {"type": "DT_INT32"}}}, {"name": "StatefulPartitionedCall/UnetppAttention_32_64_128_256/up_1_0/stack/3", "op": "Const", "attr": {"value": {"tensor": {"dtype": "DT_INT32", "tensorShape": {}}}, "dtype": {"type": "DT_INT32"}}}, {"name": "StatefulPartitionedCall/UnetppAttention_32_64_128_256/up_1_0/conv2d_transpose/ReadVariableOp", "op": "Const", "attr": {"value": {"tensor": {"dtype": "DT_FLOAT", "tensorShape": {"dim": [{"size": "2"}, {"size": "2"}, {"size": "32"}, {"size": "64"}]}}}, "dtype": {"type": "DT_FLOAT"}}}, {"name": "StatefulPartitionedCall/UnetppAttention_32_64_128_256/up_1_0/BiasAdd/ReadVariableOp", "op": "Const", "attr": {"value": {"tensor": {"dtype": "DT_FLOAT", "tensorShape": {"dim": [{"size": "32"}]}}}, "dtype": {"type": "DT_FLOAT"}}}, {"name": "StatefulPartitionedCall/UnetppAttention_32_64_128_256/merge_0_1/concat/axis", "op": "Const", "attr": {"value": {"tensor": {"dtype": "DT_INT32", "tensorShape": {}}}, "dtype": {"type": "DT_INT32"}}}, {"name": "StatefulPartitionedCall/UnetppAttention_32_64_128_256/att_0_1_j2_theta_x/Conv2D/ReadVariableOp", "op": "Const", "attr": {"value": {"tensor": {"dtype": "DT_FLOAT", "tensorShape": {"dim": [{"size": "1"}, {"size": "1"}, {"size": "32"}, {"size": "16"}]}}}, "dtype": {"type": "DT_FLOAT"}}}, {"name": "StatefulPartitionedCall/UnetppAttention_32_64_128_256/att_0_1_j2_phi_g/Conv2D/ReadVariableOp", "op": "Const", "attr": {"value": {"tensor": {"dtype": "DT_FLOAT", "tensorShape": {"dim": [{"size": "1"}, {"size": "1"}, {"size": "32"}, {"size": "16"}]}}}, "dtype": {"type": "DT_FLOAT"}}}, {"name": "StatefulPartitionedCall/UnetppAttention_32_64_128_256/att_0_1_j2_phi_g/BiasAdd/ReadVariableOp", "op": "Const", "attr": {"value": {"tensor": {"dtype": "DT_FLOAT", "tensorShape": {"dim": [{"size": "16"}]}}}, "dtype": {"type": "DT_FLOAT"}}}, {"name": "StatefulPartitionedCall/UnetppAttention_32_64_128_256/att_0_1_j2_psi_f/Conv2D/ReadVariableOp", "op": "Const", "attr": {"value": {"tensor": {"dtype": "DT_FLOAT", "tensorShape": {"dim": [{"size": "1"}, {"size": "1"}, {"size": "16"}, {"size": "1"}]}}}, "dtype": {"type": "DT_FLOAT"}}}, {"name": "StatefulPartitionedCall/UnetppAttention_32_64_128_256/att_0_1_j2_psi_f/BiasAdd/ReadVariableOp", "op": "Const", "attr": {"value": {"tensor": {"dtype": "DT_FLOAT", "tensorShape": {"dim": [{"size": "1"}]}}}, "dtype": {"type": "DT_FLOAT"}}}, {"name": "StatefulPartitionedCall/UnetppAttention_32_64_128_256/up_1_1/strided_slice/stack", "op": "Const", "attr": {"value": {"tensor": {"dtype": "DT_INT32", "tensorShape": {"dim": [{"size": "1"}]}}}, "dtype": {"type": "DT_INT32"}}}, {"name": "StatefulPartitionedCall/UnetppAttention_32_64_128_256/up_1_1/strided_slice/stack_1", "op": "Const", "attr": {"value": {"tensor": {"dtype": "DT_INT32", "tensorShape": {"dim": [{"size": "1"}]}}}, "dtype": {"type": "DT_INT32"}}}, {"name": "StatefulPartitionedCall/UnetppAttention_32_64_128_256/up_1_1/strided_slice/stack_2", "op": "Const", "attr": {"value": {"tensor": {"dtype": "DT_INT32", "tensorShape": {"dim": [{"size": "1"}]}}}, "dtype": {"type": "DT_INT32"}}}, {"name": "StatefulPartitionedCall/UnetppAttention_32_64_128_256/up_1_1/stack/1", "op": "Const", "attr": {"value": {"tensor": {"dtype": "DT_INT32", "tensorShape": {}}}, "dtype": {"type": "DT_INT32"}}}, {"name": "StatefulPartitionedCall/UnetppAttention_32_64_128_256/up_1_1/stack/2", "op": "Const", "attr": {"value": {"tensor": {"dtype": "DT_INT32", "tensorShape": {}}}, "dtype": {"type": "DT_INT32"}}}, {"name": "StatefulPartitionedCall/UnetppAttention_32_64_128_256/up_1_1/stack/3", "op": "Const", "attr": {"value": {"tensor": {"dtype": "DT_INT32", "tensorShape": {}}}, "dtype": {"type": "DT_INT32"}}}, {"name": "StatefulPartitionedCall/UnetppAttention_32_64_128_256/up_1_1/conv2d_transpose/ReadVariableOp", "op": "Const", "attr": {"value": {"tensor": {"dtype": "DT_FLOAT", "tensorShape": {"dim": [{"size": "2"}, {"size": "2"}, {"size": "32"}, {"size": "64"}]}}}, "dtype": {"type": "DT_FLOAT"}}}, {"name": "StatefulPartitionedCall/UnetppAttention_32_64_128_256/up_1_1/BiasAdd/ReadVariableOp", "op": "Const", "attr": {"value": {"tensor": {"dtype": "DT_FLOAT", "tensorShape": {"dim": [{"size": "32"}]}}}, "dtype": {"type": "DT_FLOAT"}}}, {"name": "StatefulPartitionedCall/UnetppAttention_32_64_128_256/merge_0_2/concat/axis", "op": "Const", "attr": {"value": {"tensor": {"dtype": "DT_INT32", "tensorShape": {}}}, "dtype": {"type": "DT_INT32"}}}, {"name": "StatefulPartitionedCall/UnetppAttention_32_64_128_256/att_0_2_j3_theta_x/Conv2D/ReadVariableOp", "op": "Const", "attr": {"value": {"tensor": {"dtype": "DT_FLOAT", "tensorShape": {"dim": [{"size": "1"}, {"size": "1"}, {"size": "32"}, {"size": "16"}]}}}, "dtype": {"type": "DT_FLOAT"}}}, {"name": "StatefulPartitionedCall/UnetppAttention_32_64_128_256/att_0_2_j3_phi_g/Conv2D/ReadVariableOp", "op": "Const", "attr": {"value": {"tensor": {"dtype": "DT_FLOAT", "tensorShape": {"dim": [{"size": "1"}, {"size": "1"}, {"size": "32"}, {"size": "16"}]}}}, "dtype": {"type": "DT_FLOAT"}}}, {"name": "StatefulPartitionedCall/UnetppAttention_32_64_128_256/att_0_2_j3_phi_g/BiasAdd/ReadVariableOp", "op": "Const", "attr": {"value": {"tensor": {"dtype": "DT_FLOAT", "tensorShape": {"dim": [{"size": "16"}]}}}, "dtype": {"type": "DT_FLOAT"}}}, {"name": "StatefulPartitionedCall/UnetppAttention_32_64_128_256/att_0_2_j3_psi_f/Conv2D/ReadVariableOp", "op": "Const", "attr": {"value": {"tensor": {"dtype": "DT_FLOAT", "tensorShape": {"dim": [{"size": "1"}, {"size": "1"}, {"size": "16"}, {"size": "1"}]}}}, "dtype": {"type": "DT_FLOAT"}}}, {"name": "StatefulPartitionedCall/UnetppAttention_32_64_128_256/att_0_2_j3_psi_f/BiasAdd/ReadVariableOp", "op": "Const", "attr": {"value": {"tensor": {"dtype": "DT_FLOAT", "tensorShape": {"dim": [{"size": "1"}]}}}, "dtype": {"type": "DT_FLOAT"}}}, {"name": "StatefulPartitionedCall/UnetppAttention_32_64_128_256/up_1_2/strided_slice/stack", "op": "Const", "attr": {"value": {"tensor": {"dtype": "DT_INT32", "tensorShape": {"dim": [{"size": "1"}]}}}, "dtype": {"type": "DT_INT32"}}}, {"name": "StatefulPartitionedCall/UnetppAttention_32_64_128_256/up_1_2/strided_slice/stack_1", "op": "Const", "attr": {"value": {"tensor": {"dtype": "DT_INT32", "tensorShape": {"dim": [{"size": "1"}]}}}, "dtype": {"type": "DT_INT32"}}}, {"name": "StatefulPartitionedCall/UnetppAttention_32_64_128_256/up_1_2/strided_slice/stack_2", "op": "Const", "attr": {"value": {"tensor": {"dtype": "DT_INT32", "tensorShape": {"dim": [{"size": "1"}]}}}, "dtype": {"type": "DT_INT32"}}}, {"name": "StatefulPartitionedCall/UnetppAttention_32_64_128_256/up_1_2/stack/1", "op": "Const", "attr": {"value": {"tensor": {"dtype": "DT_INT32", "tensorShape": {}}}, "dtype": {"type": "DT_INT32"}}}, {"name": "StatefulPartitionedCall/UnetppAttention_32_64_128_256/up_1_2/stack/2", "op": "Const", "attr": {"value": {"tensor": {"dtype": "DT_INT32", "tensorShape": {}}}, "dtype": {"type": "DT_INT32"}}}, {"name": "StatefulPartitionedCall/UnetppAttention_32_64_128_256/up_1_2/stack/3", "op": "Const", "attr": {"value": {"tensor": {"dtype": "DT_INT32", "tensorShape": {}}}, "dtype": {"type": "DT_INT32"}}}, {"name": "StatefulPartitionedCall/UnetppAttention_32_64_128_256/up_1_2/conv2d_transpose/ReadVariableOp", "op": "Const", "attr": {"value": {"tensor": {"dtype": "DT_FLOAT", "tensorShape": {"dim": [{"size": "2"}, {"size": "2"}, {"size": "32"}, {"size": "64"}]}}}, "dtype": {"type": "DT_FLOAT"}}}, {"name": "StatefulPartitionedCall/UnetppAttention_32_64_128_256/att_1_0_j2_theta_x/Conv2D/ReadVariableOp", "op": "Const", "attr": {"value": {"tensor": {"dtype": "DT_FLOAT", "tensorShape": {"dim": [{"size": "1"}, {"size": "1"}, {"size": "64"}, {"size": "32"}]}}}, "dtype": {"type": "DT_FLOAT"}}}, {"name": "StatefulPartitionedCall/UnetppAttention_32_64_128_256/att_1_0_j2_phi_g/Conv2D/ReadVariableOp", "op": "Const", "attr": {"value": {"tensor": {"dtype": "DT_FLOAT", "tensorShape": {"dim": [{"size": "1"}, {"size": "1"}, {"size": "64"}, {"size": "32"}]}}}, "dtype": {"type": "DT_FLOAT"}}}, {"name": "StatefulPartitionedCall/UnetppAttention_32_64_128_256/att_1_0_j2_phi_g/BiasAdd/ReadVariableOp", "op": "Const", "attr": {"value": {"tensor": {"dtype": "DT_FLOAT", "tensorShape": {"dim": [{"size": "32"}]}}}, "dtype": {"type": "DT_FLOAT"}}}, {"name": "StatefulPartitionedCall/UnetppAttention_32_64_128_256/att_1_0_j2_psi_f/Conv2D/ReadVariableOp", "op": "Const", "attr": {"value": {"tensor": {"dtype": "DT_FLOAT", "tensorShape": {"dim": [{"size": "1"}, {"size": "1"}, {"size": "32"}, {"size": "1"}]}}}, "dtype": {"type": "DT_FLOAT"}}}, {"name": "StatefulPartitionedCall/UnetppAttention_32_64_128_256/att_1_0_j2_psi_f/BiasAdd/ReadVariableOp", "op": "Const", "attr": {"value": {"tensor": {"dtype": "DT_FLOAT", "tensorShape": {"dim": [{"size": "1"}]}}}, "dtype": {"type": "DT_FLOAT"}}}, {"name": "StatefulPartitionedCall/UnetppAttention_32_64_128_256/att_1_0_j1_theta_x/Conv2D/ReadVariableOp", "op": "Const", "attr": {"value": {"tensor": {"dtype": "DT_FLOAT", "tensorShape": {"dim": [{"size": "1"}, {"size": "1"}, {"size": "64"}, {"size": "32"}]}}}, "dtype": {"type": "DT_FLOAT"}}}, {"name": "StatefulPartitionedCall/UnetppAttention_32_64_128_256/att_1_0_j1_phi_g/Conv2D/ReadVariableOp", "op": "Const", "attr": {"value": {"tensor": {"dtype": "DT_FLOAT", "tensorShape": {"dim": [{"size": "1"}, {"size": "1"}, {"size": "64"}, {"size": "32"}]}}}, "dtype": {"type": "DT_FLOAT"}}}, {"name": "StatefulPartitionedCall/UnetppAttention_32_64_128_256/att_1_0_j1_phi_g/BiasAdd/ReadVariableOp", "op": "Const", "attr": {"value": {"tensor": {"dtype": "DT_FLOAT", "tensorShape": {"dim": [{"size": "32"}]}}}, "dtype": {"type": "DT_FLOAT"}}}, {"name": "StatefulPartitionedCall/UnetppAttention_32_64_128_256/att_1_0_j1_psi_f/Conv2D/ReadVariableOp", "op": "Const", "attr": {"value": {"tensor": {"dtype": "DT_FLOAT", "tensorShape": {"dim": [{"size": "1"}, {"size": "1"}, {"size": "32"}, {"size": "1"}]}}}, "dtype": {"type": "DT_FLOAT"}}}, {"name": "StatefulPartitionedCall/UnetppAttention_32_64_128_256/att_1_0_j1_psi_f/BiasAdd/ReadVariableOp", "op": "Const", "attr": {"value": {"tensor": {"dtype": "DT_FLOAT", "tensorShape": {"dim": [{"size": "1"}]}}}, "dtype": {"type": "DT_FLOAT"}}}, {"name": "StatefulPartitionedCall/UnetppAttention_32_64_128_256/up_2_0/strided_slice/stack", "op": "Const", "attr": {"value": {"tensor": {"dtype": "DT_INT32", "tensorShape": {"dim": [{"size": "1"}]}}}, "dtype": {"type": "DT_INT32"}}}, {"name": "StatefulPartitionedCall/UnetppAttention_32_64_128_256/up_2_0/strided_slice/stack_1", "op": "Const", "attr": {"value": {"tensor": {"dtype": "DT_INT32", "tensorShape": {"dim": [{"size": "1"}]}}}, "dtype": {"type": "DT_INT32"}}}, {"name": "StatefulPartitionedCall/UnetppAttention_32_64_128_256/up_2_0/strided_slice/stack_2", "op": "Const", "attr": {"value": {"tensor": {"dtype": "DT_INT32", "tensorShape": {"dim": [{"size": "1"}]}}}, "dtype": {"type": "DT_INT32"}}}, {"name": "StatefulPartitionedCall/UnetppAttention_32_64_128_256/up_2_0/stack/1", "op": "Const", "attr": {"value": {"tensor": {"dtype": "DT_INT32", "tensorShape": {}}}, "dtype": {"type": "DT_INT32"}}}, {"name": "StatefulPartitionedCall/UnetppAttention_32_64_128_256/up_2_0/stack/2", "op": "Const", "attr": {"value": {"tensor": {"dtype": "DT_INT32", "tensorShape": {}}}, "dtype": {"type": "DT_INT32"}}}, {"name": "StatefulPartitionedCall/UnetppAttention_32_64_128_256/up_2_0/stack/3", "op": "Const", "attr": {"value": {"tensor": {"dtype": "DT_INT32", "tensorShape": {}}}, "dtype": {"type": "DT_INT32"}}}, {"name": "StatefulPartitionedCall/UnetppAttention_32_64_128_256/up_2_0/conv2d_transpose/ReadVariableOp", "op": "Const", "attr": {"value": {"tensor": {"dtype": "DT_FLOAT", "tensorShape": {"dim": [{"size": "2"}, {"size": "2"}, {"size": "64"}, {"size": "128"}]}}}, "dtype": {"type": "DT_FLOAT"}}}, {"name": "StatefulPartitionedCall/UnetppAttention_32_64_128_256/up_2_0/BiasAdd/ReadVariableOp", "op": "Const", "attr": {"value": {"tensor": {"dtype": "DT_FLOAT", "tensorShape": {"dim": [{"size": "64"}]}}}, "dtype": {"type": "DT_FLOAT"}}}, {"name": "StatefulPartitionedCall/UnetppAttention_32_64_128_256/merge_1_1/concat/axis", "op": "Const", "attr": {"value": {"tensor": {"dtype": "DT_INT32", "tensorShape": {}}}, "dtype": {"type": "DT_INT32"}}}, {"name": "StatefulPartitionedCall/UnetppAttention_32_64_128_256/att_1_1_j2_theta_x/Conv2D/ReadVariableOp", "op": "Const", "attr": {"value": {"tensor": {"dtype": "DT_FLOAT", "tensorShape": {"dim": [{"size": "1"}, {"size": "1"}, {"size": "64"}, {"size": "32"}]}}}, "dtype": {"type": "DT_FLOAT"}}}, {"name": "StatefulPartitionedCall/UnetppAttention_32_64_128_256/att_1_1_j2_phi_g/Conv2D/ReadVariableOp", "op": "Const", "attr": {"value": {"tensor": {"dtype": "DT_FLOAT", "tensorShape": {"dim": [{"size": "1"}, {"size": "1"}, {"size": "64"}, {"size": "32"}]}}}, "dtype": {"type": "DT_FLOAT"}}}, {"name": "StatefulPartitionedCall/UnetppAttention_32_64_128_256/att_1_1_j2_phi_g/BiasAdd/ReadVariableOp", "op": "Const", "attr": {"value": {"tensor": {"dtype": "DT_FLOAT", "tensorShape": {"dim": [{"size": "32"}]}}}, "dtype": {"type": "DT_FLOAT"}}}, {"name": "StatefulPartitionedCall/UnetppAttention_32_64_128_256/att_1_1_j2_psi_f/Conv2D/ReadVariableOp", "op": "Const", "attr": {"value": {"tensor": {"dtype": "DT_FLOAT", "tensorShape": {"dim": [{"size": "1"}, {"size": "1"}, {"size": "32"}, {"size": "1"}]}}}, "dtype": {"type": "DT_FLOAT"}}}, {"name": "StatefulPartitionedCall/UnetppAttention_32_64_128_256/att_1_1_j2_psi_f/BiasAdd/ReadVariableOp", "op": "Const", "attr": {"value": {"tensor": {"dtype": "DT_FLOAT", "tensorShape": {"dim": [{"size": "1"}]}}}, "dtype": {"type": "DT_FLOAT"}}}, {"name": "StatefulPartitionedCall/UnetppAttention_32_64_128_256/up_2_1/strided_slice/stack", "op": "Const", "attr": {"value": {"tensor": {"dtype": "DT_INT32", "tensorShape": {"dim": [{"size": "1"}]}}}, "dtype": {"type": "DT_INT32"}}}, {"name": "StatefulPartitionedCall/UnetppAttention_32_64_128_256/up_2_1/strided_slice/stack_1", "op": "Const", "attr": {"value": {"tensor": {"dtype": "DT_INT32", "tensorShape": {"dim": [{"size": "1"}]}}}, "dtype": {"type": "DT_INT32"}}}, {"name": "StatefulPartitionedCall/UnetppAttention_32_64_128_256/up_2_1/strided_slice/stack_2", "op": "Const", "attr": {"value": {"tensor": {"dtype": "DT_INT32", "tensorShape": {"dim": [{"size": "1"}]}}}, "dtype": {"type": "DT_INT32"}}}, {"name": "StatefulPartitionedCall/UnetppAttention_32_64_128_256/up_2_1/stack/1", "op": "Const", "attr": {"value": {"tensor": {"dtype": "DT_INT32", "tensorShape": {}}}, "dtype": {"type": "DT_INT32"}}}, {"name": "StatefulPartitionedCall/UnetppAttention_32_64_128_256/up_2_1/stack/2", "op": "Const", "attr": {"value": {"tensor": {"dtype": "DT_INT32", "tensorShape": {}}}, "dtype": {"type": "DT_INT32"}}}, {"name": "StatefulPartitionedCall/UnetppAttention_32_64_128_256/up_2_1/stack/3", "op": "Const", "attr": {"value": {"tensor": {"dtype": "DT_INT32", "tensorShape": {}}}, "dtype": {"type": "DT_INT32"}}}, {"name": "StatefulPartitionedCall/UnetppAttention_32_64_128_256/up_2_1/conv2d_transpose/ReadVariableOp", "op": "Const", "attr": {"value": {"tensor": {"dtype": "DT_FLOAT", "tensorShape": {"dim": [{"size": "2"}, {"size": "2"}, {"size": "64"}, {"size": "128"}]}}}, "dtype": {"type": "DT_FLOAT"}}}, {"name": "StatefulPartitionedCall/UnetppAttention_32_64_128_256/att_2_0_j1_theta_x/Conv2D/ReadVariableOp", "op": "Const", "attr": {"value": {"tensor": {"dtype": "DT_FLOAT", "tensorShape": {"dim": [{"size": "1"}, {"size": "1"}, {"size": "128"}, {"size": "64"}]}}}, "dtype": {"type": "DT_FLOAT"}}}, {"name": "StatefulPartitionedCall/UnetppAttention_32_64_128_256/att_2_0_j1_phi_g/Conv2D/ReadVariableOp", "op": "Const", "attr": {"value": {"tensor": {"dtype": "DT_FLOAT", "tensorShape": {"dim": [{"size": "1"}, {"size": "1"}, {"size": "128"}, {"size": "64"}]}}}, "dtype": {"type": "DT_FLOAT"}}}, {"name": "StatefulPartitionedCall/UnetppAttention_32_64_128_256/att_2_0_j1_phi_g/BiasAdd/ReadVariableOp", "op": "Const", "attr": {"value": {"tensor": {"dtype": "DT_FLOAT", "tensorShape": {"dim": [{"size": "64"}]}}}, "dtype": {"type": "DT_FLOAT"}}}, {"name": "StatefulPartitionedCall/UnetppAttention_32_64_128_256/att_2_0_j1_psi_f/Conv2D/ReadVariableOp", "op": "Const", "attr": {"value": {"tensor": {"dtype": "DT_FLOAT", "tensorShape": {"dim": [{"size": "1"}, {"size": "1"}, {"size": "64"}, {"size": "1"}]}}}, "dtype": {"type": "DT_FLOAT"}}}, {"name": "StatefulPartitionedCall/UnetppAttention_32_64_128_256/att_2_0_j1_psi_f/BiasAdd/ReadVariableOp", "op": "Const", "attr": {"value": {"tensor": {"dtype": "DT_FLOAT", "tensorShape": {"dim": [{"size": "1"}]}}}, "dtype": {"type": "DT_FLOAT"}}}, {"name": "StatefulPartitionedCall/UnetppAttention_32_64_128_256/up_3_0/strided_slice/stack", "op": "Const", "attr": {"value": {"tensor": {"dtype": "DT_INT32", "tensorShape": {"dim": [{"size": "1"}]}}}, "dtype": {"type": "DT_INT32"}}}, {"name": "StatefulPartitionedCall/UnetppAttention_32_64_128_256/up_3_0/strided_slice/stack_1", "op": "Const", "attr": {"value": {"tensor": {"dtype": "DT_INT32", "tensorShape": {"dim": [{"size": "1"}]}}}, "dtype": {"type": "DT_INT32"}}}, {"name": "StatefulPartitionedCall/UnetppAttention_32_64_128_256/up_3_0/strided_slice/stack_2", "op": "Const", "attr": {"value": {"tensor": {"dtype": "DT_INT32", "tensorShape": {"dim": [{"size": "1"}]}}}, "dtype": {"type": "DT_INT32"}}}, {"name": "StatefulPartitionedCall/UnetppAttention_32_64_128_256/up_3_0/stack/1", "op": "Const", "attr": {"value": {"tensor": {"dtype": "DT_INT32", "tensorShape": {}}}, "dtype": {"type": "DT_INT32"}}}, {"name": "StatefulPartitionedCall/UnetppAttention_32_64_128_256/up_3_0/stack/2", "op": "Const", "attr": {"value": {"tensor": {"dtype": "DT_INT32", "tensorShape": {}}}, "dtype": {"type": "DT_INT32"}}}, {"name": "StatefulPartitionedCall/UnetppAttention_32_64_128_256/up_3_0/stack/3", "op": "Const", "attr": {"value": {"tensor": {"dtype": "DT_INT32", "tensorShape": {}}}, "dtype": {"type": "DT_INT32"}}}, {"name": "StatefulPartitionedCall/UnetppAttention_32_64_128_256/up_3_0/conv2d_transpose/ReadVariableOp", "op": "Const", "attr": {"value": {"tensor": {"dtype": "DT_FLOAT", "tensorShape": {"dim": [{"size": "2"}, {"size": "2"}, {"size": "128"}, {"size": "256"}]}}}, "dtype": {"type": "DT_FLOAT"}}}, {"name": "StatefulPartitionedCall/UnetppAttention_32_64_128_256/up_3_0/BiasAdd/ReadVariableOp", "op": "Const", "attr": {"value": {"tensor": {"dtype": "DT_FLOAT", "tensorShape": {"dim": [{"size": "128"}]}}}, "dtype": {"type": "DT_FLOAT"}}}, {"name": "StatefulPartitionedCall/UnetppAttention_32_64_128_256/merge_2_1/concat/axis", "op": "Const", "attr": {"value": {"tensor": {"dtype": "DT_INT32", "tensorShape": {}}}, "dtype": {"type": "DT_INT32"}}}, {"name": "StatefulPartitionedCall/UnetppAttention_32_64_128_256/up_2_1/BiasAdd/ReadVariableOp", "op": "Const", "attr": {"value": {"tensor": {"dtype": "DT_FLOAT", "tensorShape": {"dim": [{"size": "64"}]}}}, "dtype": {"type": "DT_FLOAT"}}}, {"name": "StatefulPartitionedCall/UnetppAttention_32_64_128_256/merge_1_2/concat/axis", "op": "Const", "attr": {"value": {"tensor": {"dtype": "DT_INT32", "tensorShape": {}}}, "dtype": {"type": "DT_INT32"}}}, {"name": "StatefulPartitionedCall/UnetppAttention_32_64_128_256/up_1_2/BiasAdd/ReadVariableOp", "op": "Const", "attr": {"value": {"tensor": {"dtype": "DT_FLOAT", "tensorShape": {"dim": [{"size": "32"}]}}}, "dtype": {"type": "DT_FLOAT"}}}, {"name": "StatefulPartitionedCall/UnetppAttention_32_64_128_256/merge_0_3/concat/axis", "op": "Const", "attr": {"value": {"tensor": {"dtype": "DT_INT32", "tensorShape": {}}}, "dtype": {"type": "DT_INT32"}}}, {"name": "StatefulPartitionedCall/UnetppAttention_32_64_128_256/segmentation/Conv2D/ReadVariableOp", "op": "Const", "attr": {"value": {"tensor": {"dtype": "DT_FLOAT", "tensorShape": {"dim": [{"size": "1"}, {"size": "1"}, {"size": "32"}, {"size": "1"}]}}}, "dtype": {"type": "DT_FLOAT"}}}, {"name": "StatefulPartitionedCall/UnetppAttention_32_64_128_256/segmentation/BiasAdd/ReadVariableOp", "op": "Const", "attr": {"value": {"tensor": {"dtype": "DT_FLOAT", "tensorShape": {"dim": [{"size": "1"}]}}}, "dtype": {"type": "DT_FLOAT"}}}, {"name": "input_4", "op": "Placeholder", "attr": {"shape": {"shape": {"dim": [{"size": "-1"}, {"size": "128"}, {"size": "128"}, {"size": "3"}]}}, "dtype": {"type": "DT_FLOAT"}}}, {"name": "StatefulPartitionedCall/UnetppAttention_32_64_128_256/x_0_0_a_conv/Conv2D_weights", "op": "Const", "attr": {"value": {"tensor": {"dtype": "DT_FLOAT", "tensorShape": {"dim": [{"size": "3"}, {"size": "3"}, {"size": "3"}, {"size": "32"}]}}}, "dtype": {"type": "DT_FLOAT"}}}, {"name": "StatefulPartitionedCall/UnetppAttention_32_64_128_256/x_0_0_a_conv/Conv2D_bn_offset", "op": "Const", "attr": {"value": {"tensor": {"dtype": "DT_FLOAT", "tensorShape": {"dim": [{"size": "32"}]}}}, "dtype": {"type": "DT_FLOAT"}}}, {"name": "StatefulPartitionedCall/UnetppAttention_32_64_128_256/x_0_0_b_conv/Conv2D_weights", "op": "Const", "attr": {"value": {"tensor": {"dtype": "DT_FLOAT", "tensorShape": {"dim": [{"size": "3"}, {"size": "3"}, {"size": "32"}, {"size": "32"}]}}}, "dtype": {"type": "DT_FLOAT"}}}, {"name": "StatefulPartitionedCall/UnetppAttention_32_64_128_256/x_0_0_b_conv/Conv2D_bn_offset", "op": "Const", "attr": {"value": {"tensor": {"dtype": "DT_FLOAT", "tensorShape": {"dim": [{"size": "32"}]}}}, "dtype": {"type": "DT_FLOAT"}}}, {"name": "StatefulPartitionedCall/UnetppAttention_32_64_128_256/x_1_0_a_conv/Conv2D_weights", "op": "Const", "attr": {"value": {"tensor": {"dtype": "DT_FLOAT", "tensorShape": {"dim": [{"size": "3"}, {"size": "3"}, {"size": "32"}, {"size": "64"}]}}}, "dtype": {"type": "DT_FLOAT"}}}, {"name": "StatefulPartitionedCall/UnetppAttention_32_64_128_256/x_1_0_a_conv/Conv2D_bn_offset", "op": "Const", "attr": {"value": {"tensor": {"dtype": "DT_FLOAT", "tensorShape": {"dim": [{"size": "64"}]}}}, "dtype": {"type": "DT_FLOAT"}}}, {"name": "StatefulPartitionedCall/UnetppAttention_32_64_128_256/x_1_0_b_conv/Conv2D_weights", "op": "Const", "attr": {"value": {"tensor": {"dtype": "DT_FLOAT", "tensorShape": {"dim": [{"size": "3"}, {"size": "3"}, {"size": "64"}, {"size": "64"}]}}}, "dtype": {"type": "DT_FLOAT"}}}, {"name": "StatefulPartitionedCall/UnetppAttention_32_64_128_256/x_1_0_b_conv/Conv2D_bn_offset", "op": "Const", "attr": {"value": {"tensor": {"dtype": "DT_FLOAT", "tensorShape": {"dim": [{"size": "64"}]}}}, "dtype": {"type": "DT_FLOAT"}}}, {"name": "StatefulPartitionedCall/UnetppAttention_32_64_128_256/x_0_2_a_conv/Conv2D_weights", "op": "Const", "attr": {"value": {"tensor": {"dtype": "DT_FLOAT", "tensorShape": {"dim": [{"size": "3"}, {"size": "3"}, {"size": "96"}, {"size": "32"}]}}}, "dtype": {"type": "DT_FLOAT"}}}, {"name": "StatefulPartitionedCall/UnetppAttention_32_64_128_256/x_0_2_a_conv/Conv2D_bn_offset", "op": "Const", "attr": {"value": {"tensor": {"dtype": "DT_FLOAT", "tensorShape": {"dim": [{"size": "32"}]}}}, "dtype": {"type": "DT_FLOAT"}}}, {"name": "StatefulPartitionedCall/UnetppAttention_32_64_128_256/x_2_0_a_conv/Conv2D_weights", "op": "Const", "attr": {"value": {"tensor": {"dtype": "DT_FLOAT", "tensorShape": {"dim": [{"size": "3"}, {"size": "3"}, {"size": "64"}, {"size": "128"}]}}}, "dtype": {"type": "DT_FLOAT"}}}, {"name": "StatefulPartitionedCall/UnetppAttention_32_64_128_256/x_2_0_a_conv/Conv2D_bn_offset", "op": "Const", "attr": {"value": {"tensor": {"dtype": "DT_FLOAT", "tensorShape": {"dim": [{"size": "128"}]}}}, "dtype": {"type": "DT_FLOAT"}}}, {"name": "StatefulPartitionedCall/UnetppAttention_32_64_128_256/x_2_0_b_conv/Conv2D_weights", "op": "Const", "attr": {"value": {"tensor": {"dtype": "DT_FLOAT", "tensorShape": {"dim": [{"size": "3"}, {"size": "3"}, {"size": "128"}, {"size": "128"}]}}}, "dtype": {"type": "DT_FLOAT"}}}, {"name": "StatefulPartitionedCall/UnetppAttention_32_64_128_256/x_0_2_b_conv/Conv2D_weights", "op": "Const", "attr": {"value": {"tensor": {"dtype": "DT_FLOAT", "tensorShape": {"dim": [{"size": "3"}, {"size": "3"}, {"size": "32"}, {"size": "32"}]}}}, "dtype": {"type": "DT_FLOAT"}}}, {"name": "StatefulPartitionedCall/UnetppAttention_32_64_128_256/x_2_0_b_conv/Conv2D_bn_offset", "op": "Const", "attr": {"value": {"tensor": {"dtype": "DT_FLOAT", "tensorShape": {"dim": [{"size": "128"}]}}}, "dtype": {"type": "DT_FLOAT"}}}, {"name": "StatefulPartitionedCall/UnetppAttention_32_64_128_256/x_0_2_b_conv/Conv2D_bn_offset", "op": "Const", "attr": {"value": {"tensor": {"dtype": "DT_FLOAT", "tensorShape": {"dim": [{"size": "32"}]}}}, "dtype": {"type": "DT_FLOAT"}}}, {"name": "StatefulPartitionedCall/UnetppAttention_32_64_128_256/x_3_0_a_conv/Conv2D_weights", "op": "Const", "attr": {"value": {"tensor": {"dtype": "DT_FLOAT", "tensorShape": {"dim": [{"size": "3"}, {"size": "3"}, {"size": "128"}, {"size": "256"}]}}}, "dtype": {"type": "DT_FLOAT"}}}, {"name": "StatefulPartitionedCall/UnetppAttention_32_64_128_256/x_1_2_a_conv/Conv2D_weights", "op": "Const", "attr": {"value": {"tensor": {"dtype": "DT_FLOAT", "tensorShape": {"dim": [{"size": "3"}, {"size": "3"}, {"size": "192"}, {"size": "64"}]}}}, "dtype": {"type": "DT_FLOAT"}}}, {"name": "StatefulPartitionedCall/UnetppAttention_32_64_128_256/x_3_0_a_conv/Conv2D_bn_offset", "op": "Const", "attr": {"value": {"tensor": {"dtype": "DT_FLOAT", "tensorShape": {"dim": [{"size": "256"}]}}}, "dtype": {"type": "DT_FLOAT"}}}, {"name": "StatefulPartitionedCall/UnetppAttention_32_64_128_256/x_3_0_b_conv/Conv2D_weights", "op": "Const", "attr": {"value": {"tensor": {"dtype": "DT_FLOAT", "tensorShape": {"dim": [{"size": "3"}, {"size": "3"}, {"size": "256"}, {"size": "256"}]}}}, "dtype": {"type": "DT_FLOAT"}}}, {"name": "StatefulPartitionedCall/UnetppAttention_32_64_128_256/x_1_2_a_conv/Conv2D_bn_offset", "op": "Const", "attr": {"value": {"tensor": {"dtype": "DT_FLOAT", "tensorShape": {"dim": [{"size": "64"}]}}}, "dtype": {"type": "DT_FLOAT"}}}, {"name": "StatefulPartitionedCall/UnetppAttention_32_64_128_256/x_3_0_b_conv/Conv2D_bn_offset", "op": "Const", "attr": {"value": {"tensor": {"dtype": "DT_FLOAT", "tensorShape": {"dim": [{"size": "256"}]}}}, "dtype": {"type": "DT_FLOAT"}}}, {"name": "StatefulPartitionedCall/UnetppAttention_32_64_128_256/x_0_3_a_conv/Conv2D_weights", "op": "Const", "attr": {"value": {"tensor": {"dtype": "DT_FLOAT", "tensorShape": {"dim": [{"size": "3"}, {"size": "3"}, {"size": "128"}, {"size": "32"}]}}}, "dtype": {"type": "DT_FLOAT"}}}, {"name": "StatefulPartitionedCall/UnetppAttention_32_64_128_256/x_1_2_b_conv/Conv2D_weights", "op": "Const", "attr": {"value": {"tensor": {"dtype": "DT_FLOAT", "tensorShape": {"dim": [{"size": "3"}, {"size": "3"}, {"size": "64"}, {"size": "64"}]}}}, "dtype": {"type": "DT_FLOAT"}}}, {"name": "StatefulPartitionedCall/UnetppAttention_32_64_128_256/x_0_1_a_conv/Conv2D_weights", "op": "Const", "attr": {"value": {"tensor": {"dtype": "DT_FLOAT", "tensorShape": {"dim": [{"size": "3"}, {"size": "3"}, {"size": "64"}, {"size": "32"}]}}}, "dtype": {"type": "DT_FLOAT"}}}, {"name": "StatefulPartitionedCall/UnetppAttention_32_64_128_256/x_1_2_b_conv/Conv2D_bn_offset", "op": "Const", "attr": {"value": {"tensor": {"dtype": "DT_FLOAT", "tensorShape": {"dim": [{"size": "64"}]}}}, "dtype": {"type": "DT_FLOAT"}}}, {"name": "StatefulPartitionedCall/UnetppAttention_32_64_128_256/x_0_1_a_conv/Conv2D_bn_offset", "op": "Const", "attr": {"value": {"tensor": {"dtype": "DT_FLOAT", "tensorShape": {"dim": [{"size": "32"}]}}}, "dtype": {"type": "DT_FLOAT"}}}, {"name": "StatefulPartitionedCall/UnetppAttention_32_64_128_256/x_0_3_a_conv/Conv2D_bn_offset", "op": "Const", "attr": {"value": {"tensor": {"dtype": "DT_FLOAT", "tensorShape": {"dim": [{"size": "32"}]}}}, "dtype": {"type": "DT_FLOAT"}}}, {"name": "StatefulPartitionedCall/UnetppAttention_32_64_128_256/x_0_1_b_conv/Conv2D_weights", "op": "Const", "attr": {"value": {"tensor": {"dtype": "DT_FLOAT", "tensorShape": {"dim": [{"size": "3"}, {"size": "3"}, {"size": "32"}, {"size": "32"}]}}}, "dtype": {"type": "DT_FLOAT"}}}, {"name": "StatefulPartitionedCall/UnetppAttention_32_64_128_256/x_0_1_b_conv/Conv2D_bn_offset", "op": "Const", "attr": {"value": {"tensor": {"dtype": "DT_FLOAT", "tensorShape": {"dim": [{"size": "32"}]}}}, "dtype": {"type": "DT_FLOAT"}}}, {"name": "StatefulPartitionedCall/UnetppAttention_32_64_128_256/x_1_1_a_conv/Conv2D_weights", "op": "Const", "attr": {"value": {"tensor": {"dtype": "DT_FLOAT", "tensorShape": {"dim": [{"size": "3"}, {"size": "3"}, {"size": "128"}, {"size": "64"}]}}}, "dtype": {"type": "DT_FLOAT"}}}, {"name": "StatefulPartitionedCall/UnetppAttention_32_64_128_256/x_1_1_a_conv/Conv2D_bn_offset", "op": "Const", "attr": {"value": {"tensor": {"dtype": "DT_FLOAT", "tensorShape": {"dim": [{"size": "64"}]}}}, "dtype": {"type": "DT_FLOAT"}}}, {"name": "StatefulPartitionedCall/UnetppAttention_32_64_128_256/x_1_1_b_conv/Conv2D_weights", "op": "Const", "attr": {"value": {"tensor": {"dtype": "DT_FLOAT", "tensorShape": {"dim": [{"size": "3"}, {"size": "3"}, {"size": "64"}, {"size": "64"}]}}}, "dtype": {"type": "DT_FLOAT"}}}, {"name": "StatefulPartitionedCall/UnetppAttention_32_64_128_256/x_1_1_b_conv/Conv2D_bn_offset", "op": "Const", "attr": {"value": {"tensor": {"dtype": "DT_FLOAT", "tensorShape": {"dim": [{"size": "64"}]}}}, "dtype": {"type": "DT_FLOAT"}}}, {"name": "StatefulPartitionedCall/UnetppAttention_32_64_128_256/x_0_3_b_conv/Conv2D_weights", "op": "Const", "attr": {"value": {"tensor": {"dtype": "DT_FLOAT", "tensorShape": {"dim": [{"size": "3"}, {"size": "3"}, {"size": "32"}, {"size": "32"}]}}}, "dtype": {"type": "DT_FLOAT"}}}, {"name": "StatefulPartitionedCall/UnetppAttention_32_64_128_256/x_2_1_a_conv/Conv2D_weights", "op": "Const", "attr": {"value": {"tensor": {"dtype": "DT_FLOAT", "tensorShape": {"dim": [{"size": "3"}, {"size": "3"}, {"size": "256"}, {"size": "128"}]}}}, "dtype": {"type": "DT_FLOAT"}}}, {"name": "StatefulPartitionedCall/UnetppAttention_32_64_128_256/x_2_1_a_conv/Conv2D_bn_offset", "op": "Const", "attr": {"value": {"tensor": {"dtype": "DT_FLOAT", "tensorShape": {"dim": [{"size": "128"}]}}}, "dtype": {"type": "DT_FLOAT"}}}, {"name": "StatefulPartitionedCall/UnetppAttention_32_64_128_256/x_0_3_b_conv/Conv2D_bn_offset", "op": "Const", "attr": {"value": {"tensor": {"dtype": "DT_FLOAT", "tensorShape": {"dim": [{"size": "32"}]}}}, "dtype": {"type": "DT_FLOAT"}}}, {"name": "StatefulPartitionedCall/UnetppAttention_32_64_128_256/x_2_1_b_conv/Conv2D_weights", "op": "Const", "attr": {"value": {"tensor": {"dtype": "DT_FLOAT", "tensorShape": {"dim": [{"size": "3"}, {"size": "3"}, {"size": "128"}, {"size": "128"}]}}}, "dtype": {"type": "DT_FLOAT"}}}, {"name": "StatefulPartitionedCall/UnetppAttention_32_64_128_256/x_2_1_b_conv/Conv2D_bn_offset", "op": "Const", "attr": {"value": {"tensor": {"dtype": "DT_FLOAT", "tensorShape": {"dim": [{"size": "128"}]}}}, "dtype": {"type": "DT_FLOAT"}}}, {"name": "StatefulPartitionedCall/UnetppAttention_32_64_128_256/x_0_0_a_act/Relu", "op": "_FusedConv2D", "input": ["input_4", "StatefulPartitionedCall/UnetppAttention_32_64_128_256/x_0_0_a_conv/Conv2D_weights", "StatefulPartitionedCall/UnetppAttention_32_64_128_256/x_0_0_a_conv/Conv2D_bn_offset"], "device": "/device:CPU:0", "attr": {"num_host_args": {"i": "0"}, "_input_shapes": {"list": {"shape": [{"dim": [{"size": "-2"}, {"size": "-31"}, {"size": "-32"}, {"size": "-33"}]}, {"dim": [{"size": "3"}, {"size": "3"}, {"size": "3"}, {"size": "32"}]}]}}, "filter_format": {"s": "SFdJTw=="}, "data_format": {"s": "TkhXQw=="}, "strides": {"list": {"i": ["1", "1", "1", "1"]}}, "num_args": {"i": "1"}, "fused_ops": {"list": {"s": ["Qmlhc0FkZA==", "UmVsdQ=="]}}, "TArgs": {"list": {"type": ["DT_FLOAT"]}}, "padding": {"s": "U0FNRQ=="}, "use_cudnn_on_gpu": {"b": true}, "leakyrelu_alpha": {"f": 0.2}, "epsilon": {"f": 0.0}, "T": {"type": "DT_FLOAT"}, "explicit_paddings": {"list": {}}, "dilations": {"list": {"i": ["1", "1", "1", "1"]}}}}, {"name": "StatefulPartitionedCall/UnetppAttention_32_64_128_256/x_0_0_b_act/Relu", "op": "_FusedConv2D", "input": ["StatefulPartitionedCall/UnetppAttention_32_64_128_256/x_0_0_a_act/Relu", "StatefulPartitionedCall/UnetppAttention_32_64_128_256/x_0_0_b_conv/Conv2D_weights", "StatefulPartitionedCall/UnetppAttention_32_64_128_256/x_0_0_b_conv/Conv2D_bn_offset"], "device": "/device:CPU:0", "attr": {"num_host_args": {"i": "0"}, "data_format": {"s": "TkhXQw=="}, "filter_format": {"s": "SFdJTw=="}, "_input_shapes": {"list": {"shape": [{"dim": [{"size": "-2"}, {"size": "-31"}, {"size": "-32"}, {"size": "32"}]}, {"dim": [{"size": "3"}, {"size": "3"}, {"size": "32"}, {"size": "32"}]}]}}, "fused_ops": {"list": {"s": ["Qmlhc0FkZA==", "UmVsdQ=="]}}, "num_args": {"i": "1"}, "strides": {"list": {"i": ["1", "1", "1", "1"]}}, "TArgs": {"list": {"type": ["DT_FLOAT"]}}, "padding": {"s": "U0FNRQ=="}, "use_cudnn_on_gpu": {"b": true}, "leakyrelu_alpha": {"f": 0.2}, "epsilon": {"f": 0.0}, "T": {"type": "DT_FLOAT"}, "explicit_paddings": {"list": {}}, "dilations": {"list": {"i": ["1", "1", "1", "1"]}}}}, {"name": "StatefulPartitionedCall/UnetppAttention_32_64_128_256/maxpool/MaxPool", "op": "MaxPool", "input": ["StatefulPartitionedCall/UnetppAttention_32_64_128_256/x_0_0_b_act/Relu"], "attr": {"ksize": {"list": {"i": ["1", "2", "2", "1"]}}, "data_format": {"s": "TkhXQw=="}, "T": {"type": "DT_FLOAT"}, "explicit_paddings": {"list": {}}, "padding": {"s": "U0FNRQ=="}, "strides": {"list": {"i": ["1", "2", "2", "1"]}}}}, {"name": "StatefulPartitionedCall/UnetppAttention_32_64_128_256/x_1_0_a_act/Relu", "op": "_FusedConv2D", "input": ["StatefulPartitionedCall/UnetppAttention_32_64_128_256/maxpool/MaxPool", "StatefulPartitionedCall/UnetppAttention_32_64_128_256/x_1_0_a_conv/Conv2D_weights", "StatefulPartitionedCall/UnetppAttention_32_64_128_256/x_1_0_a_conv/Conv2D_bn_offset"], "device": "/device:CPU:0", "attr": {"num_host_args": {"i": "0"}, "_input_shapes": {"list": {"shape": [{"dim": [{"size": "-2"}, {"size": "-34"}, {"size": "-35"}, {"size": "32"}]}, {"dim": [{"size": "3"}, {"size": "3"}, {"size": "32"}, {"size": "64"}]}]}}, "filter_format": {"s": "SFdJTw=="}, "data_format": {"s": "TkhXQw=="}, "strides": {"list": {"i": ["1", "1", "1", "1"]}}, "num_args": {"i": "1"}, "fused_ops": {"list": {"s": ["Qmlhc0FkZA==", "UmVsdQ=="]}}, "TArgs": {"list": {"type": ["DT_FLOAT"]}}, "padding": {"s": "U0FNRQ=="}, "use_cudnn_on_gpu": {"b": true}, "leakyrelu_alpha": {"f": 0.2}, "epsilon": {"f": 0.0}, "T": {"type": "DT_FLOAT"}, "explicit_paddings": {"list": {}}, "dilations": {"list": {"i": ["1", "1", "1", "1"]}}}}, {"name": "StatefulPartitionedCall/UnetppAttention_32_64_128_256/x_1_0_b_act/Relu", "op": "_FusedConv2D", "input": ["StatefulPartitionedCall/UnetppAttention_32_64_128_256/x_1_0_a_act/Relu", "StatefulPartitionedCall/UnetppAttention_32_64_128_256/x_1_0_b_conv/Conv2D_weights", "StatefulPartitionedCall/UnetppAttention_32_64_128_256/x_1_0_b_conv/Conv2D_bn_offset"], "device": "/device:CPU:0", "attr": {"num_host_args": {"i": "0"}, "_input_shapes": {"list": {"shape": [{"dim": [{"size": "-2"}, {"size": "-34"}, {"size": "-35"}, {"size": "64"}]}, {"dim": [{"size": "3"}, {"size": "3"}, {"size": "64"}, {"size": "64"}]}]}}, "filter_format": {"s": "SFdJTw=="}, "data_format": {"s": "TkhXQw=="}, "fused_ops": {"list": {"s": ["Qmlhc0FkZA==", "UmVsdQ=="]}}, "num_args": {"i": "1"}, "strides": {"list": {"i": ["1", "1", "1", "1"]}}, "TArgs": {"list": {"type": ["DT_FLOAT"]}}, "padding": {"s": "U0FNRQ=="}, "use_cudnn_on_gpu": {"b": true}, "leakyrelu_alpha": {"f": 0.2}, "epsilon": {"f": 0.0}, "T": {"type": "DT_FLOAT"}, "explicit_paddings": {"list": {}}, "dilations": {"list": {"i": ["1", "1", "1", "1"]}}}}, {"name": "StatefulPartitionedCall/UnetppAttention_32_64_128_256/up_1_0/Shape", "op": "Shape", "input": ["StatefulPartitionedCall/UnetppAttention_32_64_128_256/x_1_0_b_act/Relu"], "attr": {"T": {"type": "DT_FLOAT"}, "out_type": {"type": "DT_INT32"}}, "experimentalType": {"typeId": "TFT_PRODUCT", "args": [{"typeId": "TFT_SHAPE_TENSOR", "args": [{"typeId": "TFT_INT32"}]}]}}, {"name": "StatefulPartitionedCall/UnetppAttention_32_64_128_256/maxpool/MaxPool_1", "op": "MaxPool", "input": ["StatefulPartitionedCall/UnetppAttention_32_64_128_256/x_1_0_b_act/Relu"], "attr": {"ksize": {"list": {"i": ["1", "2", "2", "1"]}}, "data_format": {"s": "TkhXQw=="}, "T": {"type": "DT_FLOAT"}, "explicit_paddings": {"list": {}}, "padding": {"s": "U0FNRQ=="}, "strides": {"list": {"i": ["1", "2", "2", "1"]}}}}, {"name": "StatefulPartitionedCall/UnetppAttention_32_64_128_256/up_1_0/strided_slice", "op": "StridedSlice", "input": ["StatefulPartitionedCall/UnetppAttention_32_64_128_256/up_1_0/Shape", "StatefulPartitionedCall/UnetppAttention_32_64_128_256/up_1_0/strided_slice/stack", "StatefulPartitionedCall/UnetppAttention_32_64_128_256/up_1_0/strided_slice/stack_1", "StatefulPartitionedCall/UnetppAttention_32_64_128_256/up_1_0/strided_slice/stack_2"], "attr": {"shrink_axis_mask": {"i": "1"}, "Index": {"type": "DT_INT32"}, "new_axis_mask": {"i": "0"}, "begin_mask": {"i": "0"}, "end_mask": {"i": "0"}, "T": {"type": "DT_INT32"}, "ellipsis_mask": {"i": "0"}}}, {"name": "StatefulPartitionedCall/UnetppAttention_32_64_128_256/x_2_0_a_act/Relu", "op": "_FusedConv2D", "input": ["StatefulPartitionedCall/UnetppAttention_32_64_128_256/maxpool/MaxPool_1", "StatefulPartitionedCall/UnetppAttention_32_64_128_256/x_2_0_a_conv/Conv2D_weights", "StatefulPartitionedCall/UnetppAttention_32_64_128_256/x_2_0_a_conv/Conv2D_bn_offset"], "device": "/device:CPU:0", "attr": {"num_host_args": {"i": "0"}, "data_format": {"s": "TkhXQw=="}, "filter_format": {"s": "SFdJTw=="}, "_input_shapes": {"list": {"shape": [{"dim": [{"size": "-2"}, {"size": "-36"}, {"size": "-37"}, {"size": "64"}]}, {"dim": [{"size": "3"}, {"size": "3"}, {"size": "64"}, {"size": "128"}]}]}}, "fused_ops": {"list": {"s": ["Qmlhc0FkZA==", "UmVsdQ=="]}}, "num_args": {"i": "1"}, "strides": {"list": {"i": ["1", "1", "1", "1"]}}, "TArgs": {"list": {"type": ["DT_FLOAT"]}}, "padding": {"s": "U0FNRQ=="}, "use_cudnn_on_gpu": {"b": true}, "leakyrelu_alpha": {"f": 0.2}, "epsilon": {"f": 0.0}, "T": {"type": "DT_FLOAT"}, "explicit_paddings": {"list": {}}, "dilations": {"list": {"i": ["1", "1", "1", "1"]}}}}, {"name": "StatefulPartitionedCall/UnetppAttention_32_64_128_256/up_1_0/stack", "op": "Pack", "input": ["StatefulPartitionedCall/UnetppAttention_32_64_128_256/up_1_0/strided_slice", "StatefulPartitionedCall/UnetppAttention_32_64_128_256/up_1_0/stack/1", "StatefulPartitionedCall/UnetppAttention_32_64_128_256/up_1_0/stack/2", "StatefulPartitionedCall/UnetppAttention_32_64_128_256/up_1_0/stack/3"], "attr": {"N": {"i": "4"}, "axis": {"i": "0"}, "T": {"type": "DT_INT32"}}}, {"name": "StatefulPartitionedCall/UnetppAttention_32_64_128_256/x_2_0_b_act/Relu", "op": "_FusedConv2D", "input": ["StatefulPartitionedCall/UnetppAttention_32_64_128_256/x_2_0_a_act/Relu", "StatefulPartitionedCall/UnetppAttention_32_64_128_256/x_2_0_b_conv/Conv2D_weights", "StatefulPartitionedCall/UnetppAttention_32_64_128_256/x_2_0_b_conv/Conv2D_bn_offset"], "device": "/device:CPU:0", "attr": {"num_host_args": {"i": "0"}, "data_format": {"s": "TkhXQw=="}, "filter_format": {"s": "SFdJTw=="}, "_input_shapes": {"list": {"shape": [{"dim": [{"size": "-2"}, {"size": "-36"}, {"size": "-37"}, {"size": "128"}]}, {"dim": [{"size": "3"}, {"size": "3"}, {"size": "128"}, {"size": "128"}]}]}}, "strides": {"list": {"i": ["1", "1", "1", "1"]}}, "num_args": {"i": "1"}, "fused_ops": {"list": {"s": ["Qmlhc0FkZA==", "UmVsdQ=="]}}, "TArgs": {"list": {"type": ["DT_FLOAT"]}}, "padding": {"s": "U0FNRQ=="}, "use_cudnn_on_gpu": {"b": true}, "leakyrelu_alpha": {"f": 0.2}, "epsilon": {"f": 0.0}, "T": {"type": "DT_FLOAT"}, "explicit_paddings": {"list": {}}, "dilations": {"list": {"i": ["1", "1", "1", "1"]}}}}, {"name": "StatefulPartitionedCall/UnetppAttention_32_64_128_256/up_1_0/conv2d_transpose", "op": "Conv2DBackpropInput", "input": ["StatefulPartitionedCall/UnetppAttention_32_64_128_256/up_1_0/stack", "StatefulPartitionedCall/UnetppAttention_32_64_128_256/up_1_0/conv2d_transpose/ReadVariableOp", "StatefulPartitionedCall/UnetppAttention_32_64_128_256/x_1_0_b_act/Relu"], "attr": {"padding": {"s": "U0FNRQ=="}, "data_format": {"s": "TkhXQw=="}, "strides": {"list": {"i": ["1", "2", "2", "1"]}}, "use_cudnn_on_gpu": {"b": true}, "T": {"type": "DT_FLOAT"}, "explicit_paddings": {"list": {}}, "dilations": {"list": {"i": ["1", "1", "1", "1"]}}}}, {"name": "StatefulPartitionedCall/UnetppAttention_32_64_128_256/up_2_0/Shape", "op": "Shape", "input": ["StatefulPartitionedCall/UnetppAttention_32_64_128_256/x_2_0_b_act/Relu"], "attr": {"T": {"type": "DT_FLOAT"}, "out_type": {"type": "DT_INT32"}}, "experimentalType": {"typeId": "TFT_PRODUCT", "args": [{"typeId": "TFT_SHAPE_TENSOR", "args": [{"typeId": "TFT_INT32"}]}]}}, {"name": "StatefulPartitionedCall/UnetppAttention_32_64_128_256/maxpool/MaxPool_2", "op": "MaxPool", "input": ["StatefulPartitionedCall/UnetppAttention_32_64_128_256/x_2_0_b_act/Relu"], "attr": {"ksize": {"list": {"i": ["1", "2", "2", "1"]}}, "data_format": {"s": "TkhXQw=="}, "T": {"type": "DT_FLOAT"}, "explicit_paddings": {"list": {}}, "padding": {"s": "U0FNRQ=="}, "strides": {"list": {"i": ["1", "2", "2", "1"]}}}}, {"name": "StatefulPartitionedCall/UnetppAttention_32_64_128_256/up_1_0/BiasAdd", "op": "BiasAdd", "input": ["StatefulPartitionedCall/UnetppAttention_32_64_128_256/up_1_0/conv2d_transpose", "StatefulPartitionedCall/UnetppAttention_32_64_128_256/up_1_0/BiasAdd/ReadVariableOp"], "attr": {"_input_shapes": {"list": {"shape": [{"dim": [{"size": "-2"}, {"size": "128"}, {"size": "128"}, {"size": "32"}]}, {"dim": [{"size": "32"}]}]}}, "T": {"type": "DT_FLOAT"}, "data_format": {"s": "TkhXQw=="}}}, {"name": "StatefulPartitionedCall/UnetppAttention_32_64_128_256/up_2_0/strided_slice", "op": "StridedSlice", "input": ["StatefulPartitionedCall/UnetppAttention_32_64_128_256/up_2_0/Shape", "StatefulPartitionedCall/UnetppAttention_32_64_128_256/up_2_0/strided_slice/stack", "StatefulPartitionedCall/UnetppAttention_32_64_128_256/up_2_0/strided_slice/stack_1", "StatefulPartitionedCall/UnetppAttention_32_64_128_256/up_2_0/strided_slice/stack_2"], "attr": {"shrink_axis_mask": {"i": "1"}, "new_axis_mask": {"i": "0"}, "Index": {"type": "DT_INT32"}, "begin_mask": {"i": "0"}, "T": {"type": "DT_INT32"}, "end_mask": {"i": "0"}, "ellipsis_mask": {"i": "0"}}}, {"name": "StatefulPartitionedCall/UnetppAttention_32_64_128_256/x_3_0_a_act/Relu", "op": "_FusedConv2D", "input": ["StatefulPartitionedCall/UnetppAttention_32_64_128_256/maxpool/MaxPool_2", "StatefulPartitionedCall/UnetppAttention_32_64_128_256/x_3_0_a_conv/Conv2D_weights", "StatefulPartitionedCall/UnetppAttention_32_64_128_256/x_3_0_a_conv/Conv2D_bn_offset"], "device": "/device:CPU:0", "attr": {"num_host_args": {"i": "0"}, "data_format": {"s": "TkhXQw=="}, "filter_format": {"s": "SFdJTw=="}, "_input_shapes": {"list": {"shape": [{"dim": [{"size": "-2"}, {"size": "-42"}, {"size": "-43"}, {"size": "128"}]}, {"dim": [{"size": "3"}, {"size": "3"}, {"size": "128"}, {"size": "256"}]}]}}, "strides": {"list": {"i": ["1", "1", "1", "1"]}}, "num_args": {"i": "1"}, "fused_ops": {"list": {"s": ["Qmlhc0FkZA==", "UmVsdQ=="]}}, "TArgs": {"list": {"type": ["DT_FLOAT"]}}, "padding": {"s": "U0FNRQ=="}, "use_cudnn_on_gpu": {"b": true}, "leakyrelu_alpha": {"f": 0.2}, "epsilon": {"f": 0.0}, "T": {"type": "DT_FLOAT"}, "explicit_paddings": {"list": {}}, "dilations": {"list": {"i": ["1", "1", "1", "1"]}}}}, {"name": "StatefulPartitionedCall/UnetppAttention_32_64_128_256/att_0_0_j1_phi_g/BiasAdd", "op": "_FusedConv2D", "input": ["StatefulPartitionedCall/UnetppAttention_32_64_128_256/up_1_0/BiasAdd", "StatefulPartitionedCall/UnetppAttention_32_64_128_256/att_0_0_j1_phi_g/Conv2D/ReadVariableOp", "StatefulPartitionedCall/UnetppAttention_32_64_128_256/att_0_0_j1_phi_g/BiasAdd/ReadVariableOp"], "device": "/device:CPU:0", "attr": {"num_host_args": {"i": "0"}, "data_format": {"s": "TkhXQw=="}, "filter_format": {"s": "SFdJTw=="}, "_input_shapes": {"list": {"shape": [{"dim": [{"size": "-2"}, {"size": "128"}, {"size": "128"}, {"size": "32"}]}, {"dim": [{"size": "1"}, {"size": "1"}, {"size": "32"}, {"size": "16"}]}]}}, "fused_ops": {"list": {"s": ["Qmlhc0FkZA=="]}}, "num_args": {"i": "1"}, "strides": {"list": {"i": ["1", "1", "1", "1"]}}, "TArgs": {"list": {"type": ["DT_FLOAT"]}}, "padding": {"s": "U0FNRQ=="}, "use_cudnn_on_gpu": {"b": true}, "leakyrelu_alpha": {"f": 0.2}, "epsilon": {"f": 0.0}, "T": {"type": "DT_FLOAT"}, "explicit_paddings": {"list": {}}, "dilations": {"list": {"i": ["1", "1", "1", "1"]}}}}, {"name": "StatefulPartitionedCall/UnetppAttention_32_64_128_256/up_2_0/stack", "op": "Pack", "input": ["StatefulPartitionedCall/UnetppAttention_32_64_128_256/up_2_0/strided_slice", "StatefulPartitionedCall/UnetppAttention_32_64_128_256/up_2_0/stack/1", "StatefulPartitionedCall/UnetppAttention_32_64_128_256/up_2_0/stack/2", "StatefulPartitionedCall/UnetppAttention_32_64_128_256/up_2_0/stack/3"], "attr": {"N": {"i": "4"}, "axis": {"i": "0"}, "T": {"type": "DT_INT32"}}}, {"name": "StatefulPartitionedCall/UnetppAttention_32_64_128_256/x_3_0_b_act/Relu", "op": "_FusedConv2D", "input": ["StatefulPartitionedCall/UnetppAttention_32_64_128_256/x_3_0_a_act/Relu", "StatefulPartitionedCall/UnetppAttention_32_64_128_256/x_3_0_b_conv/Conv2D_weights", "StatefulPartitionedCall/UnetppAttention_32_64_128_256/x_3_0_b_conv/Conv2D_bn_offset"], "device": "/device:CPU:0", "attr": {"num_host_args": {"i": "0"}, "data_format": {"s": "TkhXQw=="}, "filter_format": {"s": "SFdJTw=="}, "_input_shapes": {"list": {"shape": [{"dim": [{"size": "-2"}, {"size": "-42"}, {"size": "-43"}, {"size": "256"}]}, {"dim": [{"size": "3"}, {"size": "3"}, {"size": "256"}, {"size": "256"}]}]}}, "fused_ops": {"list": {"s": ["Qmlhc0FkZA==", "UmVsdQ=="]}}, "num_args": {"i": "1"}, "strides": {"list": {"i": ["1", "1", "1", "1"]}}, "TArgs": {"list": {"type": ["DT_FLOAT"]}}, "padding": {"s": "U0FNRQ=="}, "use_cudnn_on_gpu": {"b": true}, "leakyrelu_alpha": {"f": 0.2}, "epsilon": {"f": 0.0}, "T": {"type": "DT_FLOAT"}, "explicit_paddings": {"list": {}}, "dilations": {"list": {"i": ["1", "1", "1", "1"]}}}}, {"name": "StatefulPartitionedCall/UnetppAttention_32_64_128_256/att_0_0_j1_relu/Relu", "op": "_FusedConv2D", "input": ["StatefulPartitionedCall/UnetppAttention_32_64_128_256/x_0_0_b_act/Relu", "StatefulPartitionedCall/UnetppAttention_32_64_128_256/att_0_0_j1_theta_x/Conv2D/ReadVariableOp", "StatefulPartitionedCall/UnetppAttention_32_64_128_256/att_0_0_j1_phi_g/BiasAdd"], "device": "/device:CPU:0", "attr": {"num_host_args": {"i": "0"}, "_input_shapes": {"list": {"shape": [{"dim": [{"size": "-2"}, {"size": "-31"}, {"size": "-32"}, {"size": "32"}]}, {"dim": [{"size": "1"}, {"size": "1"}, {"size": "32"}, {"size": "16"}]}]}}, "filter_format": {"s": "SFdJTw=="}, "data_format": {"s": "TkhXQw=="}, "fused_ops": {"list": {"s": ["Qmlhc0FkZA==", "UmVsdQ=="]}}, "num_args": {"i": "1"}, "strides": {"list": {"i": ["1", "1", "1", "1"]}}, "TArgs": {"list": {"type": ["DT_FLOAT"]}}, "padding": {"s": "U0FNRQ=="}, "use_cudnn_on_gpu": {"b": true}, "leakyrelu_alpha": {"f": 0.2}, "epsilon": {"f": 0.0}, "T": {"type": "DT_FLOAT"}, "explicit_paddings": {"list": {}}, "dilations": {"list": {"i": ["1", "1", "1", "1"]}}}}, {"name": "StatefulPartitionedCall/UnetppAttention_32_64_128_256/up_2_0/conv2d_transpose", "op": "Conv2DBackpropInput", "input": ["StatefulPartitionedCall/UnetppAttention_32_64_128_256/up_2_0/stack", "StatefulPartitionedCall/UnetppAttention_32_64_128_256/up_2_0/conv2d_transpose/ReadVariableOp", "StatefulPartitionedCall/UnetppAttention_32_64_128_256/x_2_0_b_act/Relu"], "attr": {"padding": {"s": "U0FNRQ=="}, "data_format": {"s": "TkhXQw=="}, "strides": {"list": {"i": ["1", "2", "2", "1"]}}, "use_cudnn_on_gpu": {"b": true}, "T": {"type": "DT_FLOAT"}, "explicit_paddings": {"list": {}}, "dilations": {"list": {"i": ["1", "1", "1", "1"]}}}}, {"name": "StatefulPartitionedCall/UnetppAttention_32_64_128_256/up_3_0/Shape", "op": "Shape", "input": ["StatefulPartitionedCall/UnetppAttention_32_64_128_256/x_3_0_b_act/Relu"], "attr": {"T": {"type": "DT_FLOAT"}, "out_type": {"type": "DT_INT32"}}, "experimentalType": {"typeId": "TFT_PRODUCT", "args": [{"typeId": "TFT_SHAPE_TENSOR", "args": [{"typeId": "TFT_INT32"}]}]}}, {"name": "StatefulPartitionedCall/UnetppAttention_32_64_128_256/att_0_0_j1_psi_f/BiasAdd", "op": "_FusedConv2D", "input": ["StatefulPartitionedCall/UnetppAttention_32_64_128_256/att_0_0_j1_relu/Relu", "StatefulPartitionedCall/UnetppAttention_32_64_128_256/att_0_0_j1_psi_f/Conv2D/ReadVariableOp", "StatefulPartitionedCall/UnetppAttention_32_64_128_256/att_0_0_j1_psi_f/BiasAdd/ReadVariableOp"], "device": "/device:CPU:0", "attr": {"num_host_args": {"i": "0"}, "_input_shapes": {"list": {"shape": [{"dim": [{"size": "-38"}, {"size": "-39"}, {"size": "-40"}, {"size": "-41"}]}, {"dim": [{"size": "1"}, {"size": "1"}, {"size": "16"}, {"size": "1"}]}]}}, "filter_format": {"s": "SFdJTw=="}, "data_format": {"s": "TkhXQw=="}, "strides": {"list": {"i": ["1", "1", "1", "1"]}}, "num_args": {"i": "1"}, "fused_ops": {"list": {"s": ["Qmlhc0FkZA=="]}}, "TArgs": {"list": {"type": ["DT_FLOAT"]}}, "padding": {"s": "U0FNRQ=="}, "use_cudnn_on_gpu": {"b": true}, "leakyrelu_alpha": {"f": 0.2}, "epsilon": {"f": 0.0}, "T": {"type": "DT_FLOAT"}, "explicit_paddings": {"list": {}}, "dilations": {"list": {"i": ["1", "1", "1", "1"]}}}}, {"name": "StatefulPartitionedCall/UnetppAttention_32_64_128_256/up_2_0/BiasAdd", "op": "BiasAdd", "input": ["StatefulPartitionedCall/UnetppAttention_32_64_128_256/up_2_0/conv2d_transpose", "StatefulPartitionedCall/UnetppAttention_32_64_128_256/up_2_0/BiasAdd/ReadVariableOp"], "attr": {"_input_shapes": {"list": {"shape": [{"dim": [{"size": "-2"}, {"size": "64"}, {"size": "64"}, {"size": "64"}]}, {"dim": [{"size": "64"}]}]}}, "T": {"type": "DT_FLOAT"}, "data_format": {"s": "TkhXQw=="}}}, {"name": "StatefulPartitionedCall/UnetppAttention_32_64_128_256/up_3_0/strided_slice", "op": "StridedSlice", "input": ["StatefulPartitionedCall/UnetppAttention_32_64_128_256/up_3_0/Shape", "StatefulPartitionedCall/UnetppAttention_32_64_128_256/up_3_0/strided_slice/stack", "StatefulPartitionedCall/UnetppAttention_32_64_128_256/up_3_0/strided_slice/stack_1", "StatefulPartitionedCall/UnetppAttention_32_64_128_256/up_3_0/strided_slice/stack_2"], "attr": {"shrink_axis_mask": {"i": "1"}, "Index": {"type": "DT_INT32"}, "new_axis_mask": {"i": "0"}, "begin_mask": {"i": "0"}, "T": {"type": "DT_INT32"}, "end_mask": {"i": "0"}, "ellipsis_mask": {"i": "0"}}}, {"name": "StatefulPartitionedCall/UnetppAttention_32_64_128_256/att_0_0_j1_sigmoid/Sigmoid", "op": "Sigmoid", "input": ["StatefulPartitionedCall/UnetppAttention_32_64_128_256/att_0_0_j1_psi_f/BiasAdd"], "attr": {"_input_shapes": {"list": {"shape": [{"dim": [{"size": "-2"}, {"size": "128"}, {"size": "128"}, {"size": "1"}]}]}}, "T": {"type": "DT_FLOAT"}}}, {"name": "StatefulPartitionedCall/UnetppAttention_32_64_128_256/att_1_0_j1_phi_g/BiasAdd", "op": "_FusedConv2D", "input": ["StatefulPartitionedCall/UnetppAttention_32_64_128_256/up_2_0/BiasAdd", "StatefulPartitionedCall/UnetppAttention_32_64_128_256/att_1_0_j1_phi_g/Conv2D/ReadVariableOp", "StatefulPartitionedCall/UnetppAttention_32_64_128_256/att_1_0_j1_phi_g/BiasAdd/ReadVariableOp"], "device": "/device:CPU:0", "attr": {"num_host_args": {"i": "0"}, "_input_shapes": {"list": {"shape": [{"dim": [{"size": "-2"}, {"size": "64"}, {"size": "64"}, {"size": "64"}]}, {"dim": [{"size": "1"}, {"size": "1"}, {"size": "64"}, {"size": "32"}]}]}}, "filter_format": {"s": "SFdJTw=="}, "data_format": {"s": "TkhXQw=="}, "fused_ops": {"list": {"s": ["Qmlhc0FkZA=="]}}, "num_args": {"i": "1"}, "strides": {"list": {"i": ["1", "1", "1", "1"]}}, "TArgs": {"list": {"type": ["DT_FLOAT"]}}, "padding": {"s": "U0FNRQ=="}, "use_cudnn_on_gpu": {"b": true}, "leakyrelu_alpha": {"f": 0.2}, "epsilon": {"f": 0.0}, "T": {"type": "DT_FLOAT"}, "explicit_paddings": {"list": {}}, "dilations": {"list": {"i": ["1", "1", "1", "1"]}}}}, {"name": "StatefulPartitionedCall/UnetppAttention_32_64_128_256/up_3_0/stack", "op": "Pack", "input": ["StatefulPartitionedCall/UnetppAttention_32_64_128_256/up_3_0/strided_slice", "StatefulPartitionedCall/UnetppAttention_32_64_128_256/up_3_0/stack/1", "StatefulPartitionedCall/UnetppAttention_32_64_128_256/up_3_0/stack/2", "StatefulPartitionedCall/UnetppAttention_32_64_128_256/up_3_0/stack/3"], "attr": {"N": {"i": "4"}, "axis": {"i": "0"}, "T": {"type": "DT_INT32"}}}, {"name": "StatefulPartitionedCall/UnetppAttention_32_64_128_256/att_0_0_j1_multiply/mul", "op": "Mul", "input": ["StatefulPartitionedCall/UnetppAttention_32_64_128_256/x_0_0_b_act/Relu", "StatefulPartitionedCall/UnetppAttention_32_64_128_256/att_0_0_j1_sigmoid/Sigmoid"], "attr": {"T": {"type": "DT_FLOAT"}}}, {"name": "StatefulPartitionedCall/UnetppAttention_32_64_128_256/att_1_0_j1_relu/Relu", "op": "_FusedConv2D", "input": ["StatefulPartitionedCall/UnetppAttention_32_64_128_256/x_1_0_b_act/Relu", "StatefulPartitionedCall/UnetppAttention_32_64_128_256/att_1_0_j1_theta_x/Conv2D/ReadVariableOp", "StatefulPartitionedCall/UnetppAttention_32_64_128_256/att_1_0_j1_phi_g/BiasAdd"], "device": "/device:CPU:0", "attr": {"num_host_args": {"i": "0"}, "data_format": {"s": "TkhXQw=="}, "filter_format": {"s": "SFdJTw=="}, "_input_shapes": {"list": {"shape": [{"dim": [{"size": "-2"}, {"size": "-34"}, {"size": "-35"}, {"size": "64"}]}, {"dim": [{"size": "1"}, {"size": "1"}, {"size": "64"}, {"size": "32"}]}]}}, "strides": {"list": {"i": ["1", "1", "1", "1"]}}, "num_args": {"i": "1"}, "fused_ops": {"list": {"s": ["Qmlhc0FkZA==", "UmVsdQ=="]}}, "TArgs": {"list": {"type": ["DT_FLOAT"]}}, "padding": {"s": "U0FNRQ=="}, "use_cudnn_on_gpu": {"b": true}, "leakyrelu_alpha": {"f": 0.2}, "epsilon": {"f": 0.0}, "T": {"type": "DT_FLOAT"}, "explicit_paddings": {"list": {}}, "dilations": {"list": {"i": ["1", "1", "1", "1"]}}}}, {"name": "StatefulPartitionedCall/UnetppAttention_32_64_128_256/up_3_0/conv2d_transpose", "op": "Conv2DBackpropInput", "input": ["StatefulPartitionedCall/UnetppAttention_32_64_128_256/up_3_0/stack", "StatefulPartitionedCall/UnetppAttention_32_64_128_256/up_3_0/conv2d_transpose/ReadVariableOp", "StatefulPartitionedCall/UnetppAttention_32_64_128_256/x_3_0_b_act/Relu"], "attr": {"padding": {"s": "U0FNRQ=="}, "data_format": {"s": "TkhXQw=="}, "strides": {"list": {"i": ["1", "2", "2", "1"]}}, "use_cudnn_on_gpu": {"b": true}, "T": {"type": "DT_FLOAT"}, "explicit_paddings": {"list": {}}, "dilations": {"list": {"i": ["1", "1", "1", "1"]}}}}, {"name": "StatefulPartitionedCall/UnetppAttention_32_64_128_256/merge_0_1/concat", "op": "ConcatV2", "input": ["StatefulPartitionedCall/UnetppAttention_32_64_128_256/att_0_0_j1_multiply/mul", "StatefulPartitionedCall/UnetppAttention_32_64_128_256/up_1_0/BiasAdd", "StatefulPartitionedCall/UnetppAttention_32_64_128_256/merge_0_1/concat/axis"], "attr": {"N": {"i": "2"}, "T": {"type": "DT_FLOAT"}, "Tidx": {"type": "DT_INT32"}}}, {"name": "StatefulPartitionedCall/UnetppAttention_32_64_128_256/att_1_0_j1_psi_f/BiasAdd", "op": "_FusedConv2D", "input": ["StatefulPartitionedCall/UnetppAttention_32_64_128_256/att_1_0_j1_relu/Relu", "StatefulPartitionedCall/UnetppAttention_32_64_128_256/att_1_0_j1_psi_f/Conv2D/ReadVariableOp", "StatefulPartitionedCall/UnetppAttention_32_64_128_256/att_1_0_j1_psi_f/BiasAdd/ReadVariableOp"], "device": "/device:CPU:0", "attr": {"num_host_args": {"i": "0"}, "_input_shapes": {"list": {"shape": [{"dim": [{"size": "-44"}, {"size": "-45"}, {"size": "-46"}, {"size": "-47"}]}, {"dim": [{"size": "1"}, {"size": "1"}, {"size": "32"}, {"size": "1"}]}]}}, "filter_format": {"s": "SFdJTw=="}, "data_format": {"s": "TkhXQw=="}, "strides": {"list": {"i": ["1", "1", "1", "1"]}}, "num_args": {"i": "1"}, "fused_ops": {"list": {"s": ["Qmlhc0FkZA=="]}}, "TArgs": {"list": {"type": ["DT_FLOAT"]}}, "padding": {"s": "U0FNRQ=="}, "use_cudnn_on_gpu": {"b": true}, "leakyrelu_alpha": {"f": 0.2}, "epsilon": {"f": 0.0}, "T": {"type": "DT_FLOAT"}, "explicit_paddings": {"list": {}}, "dilations": {"list": {"i": ["1", "1", "1", "1"]}}}}, {"name": "StatefulPartitionedCall/UnetppAttention_32_64_128_256/up_3_0/BiasAdd", "op": "BiasAdd", "input": ["StatefulPartitionedCall/UnetppAttention_32_64_128_256/up_3_0/conv2d_transpose", "StatefulPartitionedCall/UnetppAttention_32_64_128_256/up_3_0/BiasAdd/ReadVariableOp"], "attr": {"data_format": {"s": "TkhXQw=="}, "T": {"type": "DT_FLOAT"}, "_input_shapes": {"list": {"shape": [{"dim": [{"size": "-2"}, {"size": "32"}, {"size": "32"}, {"size": "128"}]}, {"dim": [{"size": "128"}]}]}}}}, {"name": "StatefulPartitionedCall/UnetppAttention_32_64_128_256/x_0_1_a_act/Relu", "op": "_FusedConv2D", "input": ["StatefulPartitionedCall/UnetppAttention_32_64_128_256/merge_0_1/concat", "StatefulPartitionedCall/UnetppAttention_32_64_128_256/x_0_1_a_conv/Conv2D_weights", "StatefulPartitionedCall/UnetppAttention_32_64_128_256/x_0_1_a_conv/Conv2D_bn_offset"], "device": "/device:CPU:0", "attr": {"num_host_args": {"i": "0"}, "_input_shapes": {"list": {"shape": [{"dim": [{"size": "-2"}, {"size": "128"}, {"size": "128"}, {"size": "64"}]}, {"dim": [{"size": "3"}, {"size": "3"}, {"size": "64"}, {"size": "32"}]}]}}, "filter_format": {"s": "SFdJTw=="}, "data_format": {"s": "TkhXQw=="}, "fused_ops": {"list": {"s": ["Qmlhc0FkZA==", "UmVsdQ=="]}}, "num_args": {"i": "1"}, "strides": {"list": {"i": ["1", "1", "1", "1"]}}, "TArgs": {"list": {"type": ["DT_FLOAT"]}}, "padding": {"s": "U0FNRQ=="}, "use_cudnn_on_gpu": {"b": true}, "leakyrelu_alpha": {"f": 0.2}, "epsilon": {"f": 0.0}, "T": {"type": "DT_FLOAT"}, "explicit_paddings": {"list": {}}, "dilations": {"list": {"i": ["1", "1", "1", "1"]}}}}, {"name": "StatefulPartitionedCall/UnetppAttention_32_64_128_256/att_1_0_j1_sigmoid/Sigmoid", "op": "Sigmoid", "input": ["StatefulPartitionedCall/UnetppAttention_32_64_128_256/att_1_0_j1_psi_f/BiasAdd"], "attr": {"_input_shapes": {"list": {"shape": [{"dim": [{"size": "-2"}, {"size": "64"}, {"size": "64"}, {"size": "1"}]}]}}, "T": {"type": "DT_FLOAT"}}}, {"name": "StatefulPartitionedCall/UnetppAttention_32_64_128_256/att_2_0_j1_phi_g/BiasAdd", "op": "_FusedConv2D", "input": ["StatefulPartitionedCall/UnetppAttention_32_64_128_256/up_3_0/BiasAdd", "StatefulPartitionedCall/UnetppAttention_32_64_128_256/att_2_0_j1_phi_g/Conv2D/ReadVariableOp", "StatefulPartitionedCall/UnetppAttention_32_64_128_256/att_2_0_j1_phi_g/BiasAdd/ReadVariableOp"], "device": "/device:CPU:0", "attr": {"num_host_args": {"i": "0"}, "_input_shapes": {"list": {"shape": [{"dim": [{"size": "-2"}, {"size": "32"}, {"size": "32"}, {"size": "128"}]}, {"dim": [{"size": "1"}, {"size": "1"}, {"size": "128"}, {"size": "64"}]}]}}, "filter_format": {"s": "SFdJTw=="}, "data_format": {"s": "TkhXQw=="}, "fused_ops": {"list": {"s": ["Qmlhc0FkZA=="]}}, "num_args": {"i": "1"}, "strides": {"list": {"i": ["1", "1", "1", "1"]}}, "TArgs": {"list": {"type": ["DT_FLOAT"]}}, "padding": {"s": "U0FNRQ=="}, "use_cudnn_on_gpu": {"b": true}, "leakyrelu_alpha": {"f": 0.2}, "epsilon": {"f": 0.0}, "T": {"type": "DT_FLOAT"}, "explicit_paddings": {"list": {}}, "dilations": {"list": {"i": ["1", "1", "1", "1"]}}}}, {"name": "StatefulPartitionedCall/UnetppAttention_32_64_128_256/x_0_1_b_act/Relu", "op": "_FusedConv2D", "input": ["StatefulPartitionedCall/UnetppAttention_32_64_128_256/x_0_1_a_act/Relu", "StatefulPartitionedCall/UnetppAttention_32_64_128_256/x_0_1_b_conv/Conv2D_weights", "StatefulPartitionedCall/UnetppAttention_32_64_128_256/x_0_1_b_conv/Conv2D_bn_offset"], "device": "/device:CPU:0", "attr": {"num_host_args": {"i": "0"}, "_input_shapes": {"list": {"shape": [{"dim": [{"size": "-2"}, {"size": "128"}, {"size": "128"}, {"size": "32"}]}, {"dim": [{"size": "3"}, {"size": "3"}, {"size": "32"}, {"size": "32"}]}]}}, "filter_format": {"s": "SFdJTw=="}, "data_format": {"s": "TkhXQw=="}, "fused_ops": {"list": {"s": ["Qmlhc0FkZA==", "UmVsdQ=="]}}, "num_args": {"i": "1"}, "strides": {"list": {"i": ["1", "1", "1", "1"]}}, "TArgs": {"list": {"type": ["DT_FLOAT"]}}, "padding": {"s": "U0FNRQ=="}, "use_cudnn_on_gpu": {"b": true}, "leakyrelu_alpha": {"f": 0.2}, "epsilon": {"f": 0.0}, "T": {"type": "DT_FLOAT"}, "explicit_paddings": {"list": {}}, "dilations": {"list": {"i": ["1", "1", "1", "1"]}}}}, {"name": "StatefulPartitionedCall/UnetppAttention_32_64_128_256/att_1_0_j1_multiply/mul", "op": "Mul", "input": ["StatefulPartitionedCall/UnetppAttention_32_64_128_256/x_1_0_b_act/Relu", "StatefulPartitionedCall/UnetppAttention_32_64_128_256/att_1_0_j1_sigmoid/Sigmoid"], "attr": {"T": {"type": "DT_FLOAT"}}}, {"name": "StatefulPartitionedCall/UnetppAttention_32_64_128_256/att_2_0_j1_relu/Relu", "op": "_FusedConv2D", "input": ["StatefulPartitionedCall/UnetppAttention_32_64_128_256/x_2_0_b_act/Relu", "StatefulPartitionedCall/UnetppAttention_32_64_128_256/att_2_0_j1_theta_x/Conv2D/ReadVariableOp", "StatefulPartitionedCall/UnetppAttention_32_64_128_256/att_2_0_j1_phi_g/BiasAdd"], "device": "/device:CPU:0", "attr": {"num_host_args": {"i": "0"}, "data_format": {"s": "TkhXQw=="}, "filter_format": {"s": "SFdJTw=="}, "_input_shapes": {"list": {"shape": [{"dim": [{"size": "-2"}, {"size": "-36"}, {"size": "-37"}, {"size": "128"}]}, {"dim": [{"size": "1"}, {"size": "1"}, {"size": "128"}, {"size": "64"}]}]}}, "fused_ops": {"list": {"s": ["Qmlhc0FkZA==", "UmVsdQ=="]}}, "num_args": {"i": "1"}, "strides": {"list": {"i": ["1", "1", "1", "1"]}}, "TArgs": {"list": {"type": ["DT_FLOAT"]}}, "padding": {"s": "U0FNRQ=="}, "use_cudnn_on_gpu": {"b": true}, "leakyrelu_alpha": {"f": 0.2}, "epsilon": {"f": 0.0}, "T": {"type": "DT_FLOAT"}, "explicit_paddings": {"list": {}}, "dilations": {"list": {"i": ["1", "1", "1", "1"]}}}}, {"name": "StatefulPartitionedCall/UnetppAttention_32_64_128_256/merge_1_1/concat", "op": "ConcatV2", "input": ["StatefulPartitionedCall/UnetppAttention_32_64_128_256/att_1_0_j1_multiply/mul", "StatefulPartitionedCall/UnetppAttention_32_64_128_256/up_2_0/BiasAdd", "StatefulPartitionedCall/UnetppAttention_32_64_128_256/merge_1_1/concat/axis"], "attr": {"N": {"i": "2"}, "Tidx": {"type": "DT_INT32"}, "T": {"type": "DT_FLOAT"}}}, {"name": "StatefulPartitionedCall/UnetppAttention_32_64_128_256/att_2_0_j1_psi_f/BiasAdd", "op": "_FusedConv2D", "input": ["StatefulPartitionedCall/UnetppAttention_32_64_128_256/att_2_0_j1_relu/Relu", "StatefulPartitionedCall/UnetppAttention_32_64_128_256/att_2_0_j1_psi_f/Conv2D/ReadVariableOp", "StatefulPartitionedCall/UnetppAttention_32_64_128_256/att_2_0_j1_psi_f/BiasAdd/ReadVariableOp"], "device": "/device:CPU:0", "attr": {"num_host_args": {"i": "0"}, "_input_shapes": {"list": {"shape": [{"dim": [{"size": "-48"}, {"size": "-49"}, {"size": "-50"}, {"size": "-51"}]}, {"dim": [{"size": "1"}, {"size": "1"}, {"size": "64"}, {"size": "1"}]}]}}, "filter_format": {"s": "SFdJTw=="}, "data_format": {"s": "TkhXQw=="}, "fused_ops": {"list": {"s": ["Qmlhc0FkZA=="]}}, "num_args": {"i": "1"}, "strides": {"list": {"i": ["1", "1", "1", "1"]}}, "TArgs": {"list": {"type": ["DT_FLOAT"]}}, "padding": {"s": "U0FNRQ=="}, "use_cudnn_on_gpu": {"b": true}, "leakyrelu_alpha": {"f": 0.2}, "epsilon": {"f": 0.0}, "T": {"type": "DT_FLOAT"}, "explicit_paddings": {"list": {}}, "dilations": {"list": {"i": ["1", "1", "1", "1"]}}}}, {"name": "StatefulPartitionedCall/UnetppAttention_32_64_128_256/x_1_1_a_act/Relu", "op": "_FusedConv2D", "input": ["StatefulPartitionedCall/UnetppAttention_32_64_128_256/merge_1_1/concat", "StatefulPartitionedCall/UnetppAttention_32_64_128_256/x_1_1_a_conv/Conv2D_weights", "StatefulPartitionedCall/UnetppAttention_32_64_128_256/x_1_1_a_conv/Conv2D_bn_offset"], "device": "/device:CPU:0", "attr": {"num_host_args": {"i": "0"}, "data_format": {"s": "TkhXQw=="}, "filter_format": {"s": "SFdJTw=="}, "_input_shapes": {"list": {"shape": [{"dim": [{"size": "-2"}, {"size": "64"}, {"size": "64"}, {"size": "128"}]}, {"dim": [{"size": "3"}, {"size": "3"}, {"size": "128"}, {"size": "64"}]}]}}, "fused_ops": {"list": {"s": ["Qmlhc0FkZA==", "UmVsdQ=="]}}, "num_args": {"i": "1"}, "strides": {"list": {"i": ["1", "1", "1", "1"]}}, "TArgs": {"list": {"type": ["DT_FLOAT"]}}, "padding": {"s": "U0FNRQ=="}, "use_cudnn_on_gpu": {"b": true}, "leakyrelu_alpha": {"f": 0.2}, "epsilon": {"f": 0.0}, "T": {"type": "DT_FLOAT"}, "explicit_paddings": {"list": {}}, "dilations": {"list": {"i": ["1", "1", "1", "1"]}}}}, {"name": "StatefulPartitionedCall/UnetppAttention_32_64_128_256/att_2_0_j1_sigmoid/Sigmoid", "op": "Sigmoid", "input": ["StatefulPartitionedCall/UnetppAttention_32_64_128_256/att_2_0_j1_psi_f/BiasAdd"], "attr": {"_input_shapes": {"list": {"shape": [{"dim": [{"size": "-2"}, {"size": "32"}, {"size": "32"}, {"size": "1"}]}]}}, "T": {"type": "DT_FLOAT"}}}, {"name": "StatefulPartitionedCall/UnetppAttention_32_64_128_256/x_1_1_b_act/Relu", "op": "_FusedConv2D", "input": ["StatefulPartitionedCall/UnetppAttention_32_64_128_256/x_1_1_a_act/Relu", "StatefulPartitionedCall/UnetppAttention_32_64_128_256/x_1_1_b_conv/Conv2D_weights", "StatefulPartitionedCall/UnetppAttention_32_64_128_256/x_1_1_b_conv/Conv2D_bn_offset"], "device": "/device:CPU:0", "attr": {"num_host_args": {"i": "0"}, "_input_shapes": {"list": {"shape": [{"dim": [{"size": "-2"}, {"size": "64"}, {"size": "64"}, {"size": "64"}]}, {"dim": [{"size": "3"}, {"size": "3"}, {"size": "64"}, {"size": "64"}]}]}}, "filter_format": {"s": "SFdJTw=="}, "data_format": {"s": "TkhXQw=="}, "strides": {"list": {"i": ["1", "1", "1", "1"]}}, "num_args": {"i": "1"}, "fused_ops": {"list": {"s": ["Qmlhc0FkZA==", "UmVsdQ=="]}}, "TArgs": {"list": {"type": ["DT_FLOAT"]}}, "padding": {"s": "U0FNRQ=="}, "use_cudnn_on_gpu": {"b": true}, "leakyrelu_alpha": {"f": 0.2}, "epsilon": {"f": 0.0}, "T": {"type": "DT_FLOAT"}, "explicit_paddings": {"list": {}}, "dilations": {"list": {"i": ["1", "1", "1", "1"]}}}}, {"name": "StatefulPartitionedCall/UnetppAttention_32_64_128_256/att_2_0_j1_multiply/mul", "op": "Mul", "input": ["StatefulPartitionedCall/UnetppAttention_32_64_128_256/x_2_0_b_act/Relu", "StatefulPartitionedCall/UnetppAttention_32_64_128_256/att_2_0_j1_sigmoid/Sigmoid"], "attr": {"T": {"type": "DT_FLOAT"}}}, {"name": "StatefulPartitionedCall/UnetppAttention_32_64_128_256/up_1_1/Shape", "op": "Shape", "input": ["StatefulPartitionedCall/UnetppAttention_32_64_128_256/x_1_1_b_act/Relu"], "attr": {"T": {"type": "DT_FLOAT"}, "out_type": {"type": "DT_INT32"}}, "experimentalType": {"typeId": "TFT_PRODUCT", "args": [{"typeId": "TFT_SHAPE_TENSOR", "args": [{"typeId": "TFT_INT32"}]}]}}, {"name": "StatefulPartitionedCall/UnetppAttention_32_64_128_256/merge_2_1/concat", "op": "ConcatV2", "input": ["StatefulPartitionedCall/UnetppAttention_32_64_128_256/att_2_0_j1_multiply/mul", "StatefulPartitionedCall/UnetppAttention_32_64_128_256/up_3_0/BiasAdd", "StatefulPartitionedCall/UnetppAttention_32_64_128_256/merge_2_1/concat/axis"], "attr": {"N": {"i": "2"}, "Tidx": {"type": "DT_INT32"}, "T": {"type": "DT_FLOAT"}}}, {"name": "StatefulPartitionedCall/UnetppAttention_32_64_128_256/up_1_1/strided_slice", "op": "StridedSlice", "input": ["StatefulPartitionedCall/UnetppAttention_32_64_128_256/up_1_1/Shape", "StatefulPartitionedCall/UnetppAttention_32_64_128_256/up_1_1/strided_slice/stack", "StatefulPartitionedCall/UnetppAttention_32_64_128_256/up_1_1/strided_slice/stack_1", "StatefulPartitionedCall/UnetppAttention_32_64_128_256/up_1_1/strided_slice/stack_2"], "attr": {"shrink_axis_mask": {"i": "1"}, "Index": {"type": "DT_INT32"}, "new_axis_mask": {"i": "0"}, "begin_mask": {"i": "0"}, "T": {"type": "DT_INT32"}, "end_mask": {"i": "0"}, "ellipsis_mask": {"i": "0"}}}, {"name": "StatefulPartitionedCall/UnetppAttention_32_64_128_256/x_2_1_a_act/Relu", "op": "_FusedConv2D", "input": ["StatefulPartitionedCall/UnetppAttention_32_64_128_256/merge_2_1/concat", "StatefulPartitionedCall/UnetppAttention_32_64_128_256/x_2_1_a_conv/Conv2D_weights", "StatefulPartitionedCall/UnetppAttention_32_64_128_256/x_2_1_a_conv/Conv2D_bn_offset"], "device": "/device:CPU:0", "attr": {"num_host_args": {"i": "0"}, "data_format": {"s": "TkhXQw=="}, "filter_format": {"s": "SFdJTw=="}, "_input_shapes": {"list": {"shape": [{"dim": [{"size": "-2"}, {"size": "32"}, {"size": "32"}, {"size": "256"}]}, {"dim": [{"size": "3"}, {"size": "3"}, {"size": "256"}, {"size": "128"}]}]}}, "strides": {"list": {"i": ["1", "1", "1", "1"]}}, "num_args": {"i": "1"}, "fused_ops": {"list": {"s": ["Qmlhc0FkZA==", "UmVsdQ=="]}}, "TArgs": {"list": {"type": ["DT_FLOAT"]}}, "padding": {"s": "U0FNRQ=="}, "use_cudnn_on_gpu": {"b": true}, "leakyrelu_alpha": {"f": 0.2}, "epsilon": {"f": 0.0}, "T": {"type": "DT_FLOAT"}, "explicit_paddings": {"list": {}}, "dilations": {"list": {"i": ["1", "1", "1", "1"]}}}}, {"name": "StatefulPartitionedCall/UnetppAttention_32_64_128_256/up_1_1/stack", "op": "Pack", "input": ["StatefulPartitionedCall/UnetppAttention_32_64_128_256/up_1_1/strided_slice", "StatefulPartitionedCall/UnetppAttention_32_64_128_256/up_1_1/stack/1", "StatefulPartitionedCall/UnetppAttention_32_64_128_256/up_1_1/stack/2", "StatefulPartitionedCall/UnetppAttention_32_64_128_256/up_1_1/stack/3"], "attr": {"N": {"i": "4"}, "axis": {"i": "0"}, "T": {"type": "DT_INT32"}}}, {"name": "StatefulPartitionedCall/UnetppAttention_32_64_128_256/x_2_1_b_act/Relu", "op": "_FusedConv2D", "input": ["StatefulPartitionedCall/UnetppAttention_32_64_128_256/x_2_1_a_act/Relu", "StatefulPartitionedCall/UnetppAttention_32_64_128_256/x_2_1_b_conv/Conv2D_weights", "StatefulPartitionedCall/UnetppAttention_32_64_128_256/x_2_1_b_conv/Conv2D_bn_offset"], "device": "/device:CPU:0", "attr": {"num_host_args": {"i": "0"}, "_input_shapes": {"list": {"shape": [{"dim": [{"size": "-2"}, {"size": "32"}, {"size": "32"}, {"size": "128"}]}, {"dim": [{"size": "3"}, {"size": "3"}, {"size": "128"}, {"size": "128"}]}]}}, "filter_format": {"s": "SFdJTw=="}, "data_format": {"s": "TkhXQw=="}, "strides": {"list": {"i": ["1", "1", "1", "1"]}}, "num_args": {"i": "1"}, "fused_ops": {"list": {"s": ["Qmlhc0FkZA==", "UmVsdQ=="]}}, "TArgs": {"list": {"type": ["DT_FLOAT"]}}, "padding": {"s": "U0FNRQ=="}, "use_cudnn_on_gpu": {"b": true}, "leakyrelu_alpha": {"f": 0.2}, "epsilon": {"f": 0.0}, "T": {"type": "DT_FLOAT"}, "explicit_paddings": {"list": {}}, "dilations": {"list": {"i": ["1", "1", "1", "1"]}}}}, {"name": "StatefulPartitionedCall/UnetppAttention_32_64_128_256/up_1_1/conv2d_transpose", "op": "Conv2DBackpropInput", "input": ["StatefulPartitionedCall/UnetppAttention_32_64_128_256/up_1_1/stack", "StatefulPartitionedCall/UnetppAttention_32_64_128_256/up_1_1/conv2d_transpose/ReadVariableOp", "StatefulPartitionedCall/UnetppAttention_32_64_128_256/x_1_1_b_act/Relu"], "attr": {"padding": {"s": "U0FNRQ=="}, "data_format": {"s": "TkhXQw=="}, "strides": {"list": {"i": ["1", "2", "2", "1"]}}, "use_cudnn_on_gpu": {"b": true}, "T": {"type": "DT_FLOAT"}, "explicit_paddings": {"list": {}}, "dilations": {"list": {"i": ["1", "1", "1", "1"]}}}}, {"name": "StatefulPartitionedCall/UnetppAttention_32_64_128_256/up_2_1/Shape", "op": "Shape", "input": ["StatefulPartitionedCall/UnetppAttention_32_64_128_256/x_2_1_b_act/Relu"], "attr": {"T": {"type": "DT_FLOAT"}, "out_type": {"type": "DT_INT32"}}, "experimentalType": {"typeId": "TFT_PRODUCT", "args": [{"typeId": "TFT_SHAPE_TENSOR", "args": [{"typeId": "TFT_INT32"}]}]}}, {"name": "StatefulPartitionedCall/UnetppAttention_32_64_128_256/up_1_1/BiasAdd", "op": "BiasAdd", "input": ["StatefulPartitionedCall/UnetppAttention_32_64_128_256/up_1_1/conv2d_transpose", "StatefulPartitionedCall/UnetppAttention_32_64_128_256/up_1_1/BiasAdd/ReadVariableOp"], "attr": {"_input_shapes": {"list": {"shape": [{"dim": [{"size": "-2"}, {"size": "128"}, {"size": "128"}, {"size": "32"}]}, {"dim": [{"size": "32"}]}]}}, "T": {"type": "DT_FLOAT"}, "data_format": {"s": "TkhXQw=="}}}, {"name": "StatefulPartitionedCall/UnetppAttention_32_64_128_256/up_2_1/strided_slice", "op": "StridedSlice", "input": ["StatefulPartitionedCall/UnetppAttention_32_64_128_256/up_2_1/Shape", "StatefulPartitionedCall/UnetppAttention_32_64_128_256/up_2_1/strided_slice/stack", "StatefulPartitionedCall/UnetppAttention_32_64_128_256/up_2_1/strided_slice/stack_1", "StatefulPartitionedCall/UnetppAttention_32_64_128_256/up_2_1/strided_slice/stack_2"], "attr": {"shrink_axis_mask": {"i": "1"}, "Index": {"type": "DT_INT32"}, "new_axis_mask": {"i": "0"}, "begin_mask": {"i": "0"}, "end_mask": {"i": "0"}, "T": {"type": "DT_INT32"}, "ellipsis_mask": {"i": "0"}}}, {"name": "StatefulPartitionedCall/UnetppAttention_32_64_128_256/att_0_0_j2_phi_g/BiasAdd", "op": "_FusedConv2D", "input": ["StatefulPartitionedCall/UnetppAttention_32_64_128_256/up_1_1/BiasAdd", "StatefulPartitionedCall/UnetppAttention_32_64_128_256/att_0_0_j2_phi_g/Conv2D/ReadVariableOp", "StatefulPartitionedCall/UnetppAttention_32_64_128_256/att_0_0_j2_phi_g/BiasAdd/ReadVariableOp"], "device": "/device:CPU:0", "attr": {"num_host_args": {"i": "0"}, "data_format": {"s": "TkhXQw=="}, "filter_format": {"s": "SFdJTw=="}, "_input_shapes": {"list": {"shape": [{"dim": [{"size": "-2"}, {"size": "128"}, {"size": "128"}, {"size": "32"}]}, {"dim": [{"size": "1"}, {"size": "1"}, {"size": "32"}, {"size": "16"}]}]}}, "fused_ops": {"list": {"s": ["Qmlhc0FkZA=="]}}, "num_args": {"i": "1"}, "strides": {"list": {"i": ["1", "1", "1", "1"]}}, "TArgs": {"list": {"type": ["DT_FLOAT"]}}, "padding": {"s": "U0FNRQ=="}, "use_cudnn_on_gpu": {"b": true}, "leakyrelu_alpha": {"f": 0.2}, "epsilon": {"f": 0.0}, "T": {"type": "DT_FLOAT"}, "explicit_paddings": {"list": {}}, "dilations": {"list": {"i": ["1", "1", "1", "1"]}}}}, {"name": "StatefulPartitionedCall/UnetppAttention_32_64_128_256/att_0_1_j2_phi_g/BiasAdd", "op": "_FusedConv2D", "input": ["StatefulPartitionedCall/UnetppAttention_32_64_128_256/up_1_1/BiasAdd", "StatefulPartitionedCall/UnetppAttention_32_64_128_256/att_0_1_j2_phi_g/Conv2D/ReadVariableOp", "StatefulPartitionedCall/UnetppAttention_32_64_128_256/att_0_1_j2_phi_g/BiasAdd/ReadVariableOp"], "device": "/device:CPU:0", "attr": {"num_host_args": {"i": "0"}, "_input_shapes": {"list": {"shape": [{"dim": [{"size": "-2"}, {"size": "128"}, {"size": "128"}, {"size": "32"}]}, {"dim": [{"size": "1"}, {"size": "1"}, {"size": "32"}, {"size": "16"}]}]}}, "filter_format": {"s": "SFdJTw=="}, "data_format": {"s": "TkhXQw=="}, "fused_ops": {"list": {"s": ["Qmlhc0FkZA=="]}}, "num_args": {"i": "1"}, "strides": {"list": {"i": ["1", "1", "1", "1"]}}, "TArgs": {"list": {"type": ["DT_FLOAT"]}}, "padding": {"s": "U0FNRQ=="}, "use_cudnn_on_gpu": {"b": true}, "leakyrelu_alpha": {"f": 0.2}, "epsilon": {"f": 0.0}, "T": {"type": "DT_FLOAT"}, "explicit_paddings": {"list": {}}, "dilations": {"list": {"i": ["1", "1", "1", "1"]}}}}, {"name": "StatefulPartitionedCall/UnetppAttention_32_64_128_256/up_2_1/stack", "op": "Pack", "input": ["StatefulPartitionedCall/UnetppAttention_32_64_128_256/up_2_1/strided_slice", "StatefulPartitionedCall/UnetppAttention_32_64_128_256/up_2_1/stack/1", "StatefulPartitionedCall/UnetppAttention_32_64_128_256/up_2_1/stack/2", "StatefulPartitionedCall/UnetppAttention_32_64_128_256/up_2_1/stack/3"], "attr": {"N": {"i": "4"}, "axis": {"i": "0"}, "T": {"type": "DT_INT32"}}}, {"name": "StatefulPartitionedCall/UnetppAttention_32_64_128_256/att_0_0_j2_relu/Relu", "op": "_FusedConv2D", "input": ["StatefulPartitionedCall/UnetppAttention_32_64_128_256/x_0_0_b_act/Relu", "StatefulPartitionedCall/UnetppAttention_32_64_128_256/att_0_0_j2_theta_x/Conv2D/ReadVariableOp", "StatefulPartitionedCall/UnetppAttention_32_64_128_256/att_0_0_j2_phi_g/BiasAdd"], "device": "/device:CPU:0", "attr": {"num_host_args": {"i": "0"}, "data_format": {"s": "TkhXQw=="}, "filter_format": {"s": "SFdJTw=="}, "_input_shapes": {"list": {"shape": [{"dim": [{"size": "-2"}, {"size": "-31"}, {"size": "-32"}, {"size": "32"}]}, {"dim": [{"size": "1"}, {"size": "1"}, {"size": "32"}, {"size": "16"}]}]}}, "fused_ops": {"list": {"s": ["Qmlhc0FkZA==", "UmVsdQ=="]}}, "num_args": {"i": "1"}, "strides": {"list": {"i": ["1", "1", "1", "1"]}}, "TArgs": {"list": {"type": ["DT_FLOAT"]}}, "padding": {"s": "U0FNRQ=="}, "use_cudnn_on_gpu": {"b": true}, "leakyrelu_alpha": {"f": 0.2}, "epsilon": {"f": 0.0}, "T": {"type": "DT_FLOAT"}, "explicit_paddings": {"list": {}}, "dilations": {"list": {"i": ["1", "1", "1", "1"]}}}}, {"name": "StatefulPartitionedCall/UnetppAttention_32_64_128_256/att_0_1_j2_relu/Relu", "op": "_FusedConv2D", "input": ["StatefulPartitionedCall/UnetppAttention_32_64_128_256/x_0_1_b_act/Relu", "StatefulPartitionedCall/UnetppAttention_32_64_128_256/att_0_1_j2_theta_x/Conv2D/ReadVariableOp", "StatefulPartitionedCall/UnetppAttention_32_64_128_256/att_0_1_j2_phi_g/BiasAdd"], "device": "/device:CPU:0", "attr": {"num_host_args": {"i": "0"}, "_input_shapes": {"list": {"shape": [{"dim": [{"size": "-2"}, {"size": "128"}, {"size": "128"}, {"size": "32"}]}, {"dim": [{"size": "1"}, {"size": "1"}, {"size": "32"}, {"size": "16"}]}]}}, "filter_format": {"s": "SFdJTw=="}, "data_format": {"s": "TkhXQw=="}, "strides": {"list": {"i": ["1", "1", "1", "1"]}}, "num_args": {"i": "1"}, "fused_ops": {"list": {"s": ["Qmlhc0FkZA==", "UmVsdQ=="]}}, "TArgs": {"list": {"type": ["DT_FLOAT"]}}, "padding": {"s": "U0FNRQ=="}, "use_cudnn_on_gpu": {"b": true}, "leakyrelu_alpha": {"f": 0.2}, "epsilon": {"f": 0.0}, "T": {"type": "DT_FLOAT"}, "explicit_paddings": {"list": {}}, "dilations": {"list": {"i": ["1", "1", "1", "1"]}}}}, {"name": "StatefulPartitionedCall/UnetppAttention_32_64_128_256/up_2_1/conv2d_transpose", "op": "Conv2DBackpropInput", "input": ["StatefulPartitionedCall/UnetppAttention_32_64_128_256/up_2_1/stack", "StatefulPartitionedCall/UnetppAttention_32_64_128_256/up_2_1/conv2d_transpose/ReadVariableOp", "StatefulPartitionedCall/UnetppAttention_32_64_128_256/x_2_1_b_act/Relu"], "attr": {"padding": {"s": "U0FNRQ=="}, "data_format": {"s": "TkhXQw=="}, "strides": {"list": {"i": ["1", "2", "2", "1"]}}, "use_cudnn_on_gpu": {"b": true}, "T": {"type": "DT_FLOAT"}, "explicit_paddings": {"list": {}}, "dilations": {"list": {"i": ["1", "1", "1", "1"]}}}}, {"name": "StatefulPartitionedCall/UnetppAttention_32_64_128_256/att_0_0_j2_psi_f/BiasAdd", "op": "_FusedConv2D", "input": ["StatefulPartitionedCall/UnetppAttention_32_64_128_256/att_0_0_j2_relu/Relu", "StatefulPartitionedCall/UnetppAttention_32_64_128_256/att_0_0_j2_psi_f/Conv2D/ReadVariableOp", "StatefulPartitionedCall/UnetppAttention_32_64_128_256/att_0_0_j2_psi_f/BiasAdd/ReadVariableOp"], "device": "/device:CPU:0", "attr": {"num_host_args": {"i": "0"}, "_input_shapes": {"list": {"shape": [{"dim": [{"size": "-52"}, {"size": "-53"}, {"size": "-54"}, {"size": "-55"}]}, {"dim": [{"size": "1"}, {"size": "1"}, {"size": "16"}, {"size": "1"}]}]}}, "filter_format": {"s": "SFdJTw=="}, "data_format": {"s": "TkhXQw=="}, "fused_ops": {"list": {"s": ["Qmlhc0FkZA=="]}}, "num_args": {"i": "1"}, "strides": {"list": {"i": ["1", "1", "1", "1"]}}, "TArgs": {"list": {"type": ["DT_FLOAT"]}}, "padding": {"s": "U0FNRQ=="}, "use_cudnn_on_gpu": {"b": true}, "leakyrelu_alpha": {"f": 0.2}, "epsilon": {"f": 0.0}, "T": {"type": "DT_FLOAT"}, "explicit_paddings": {"list": {}}, "dilations": {"list": {"i": ["1", "1", "1", "1"]}}}}, {"name": "StatefulPartitionedCall/UnetppAttention_32_64_128_256/att_0_1_j2_psi_f/BiasAdd", "op": "_FusedConv2D", "input": ["StatefulPartitionedCall/UnetppAttention_32_64_128_256/att_0_1_j2_relu/Relu", "StatefulPartitionedCall/UnetppAttention_32_64_128_256/att_0_1_j2_psi_f/Conv2D/ReadVariableOp", "StatefulPartitionedCall/UnetppAttention_32_64_128_256/att_0_1_j2_psi_f/BiasAdd/ReadVariableOp"], "device": "/device:CPU:0", "attr": {"num_host_args": {"i": "0"}, "_input_shapes": {"list": {"shape": [{"dim": [{"size": "-56"}, {"size": "-57"}, {"size": "-58"}, {"size": "-59"}]}, {"dim": [{"size": "1"}, {"size": "1"}, {"size": "16"}, {"size": "1"}]}]}}, "filter_format": {"s": "SFdJTw=="}, "data_format": {"s": "TkhXQw=="}, "fused_ops": {"list": {"s": ["Qmlhc0FkZA=="]}}, "num_args": {"i": "1"}, "strides": {"list": {"i": ["1", "1", "1", "1"]}}, "TArgs": {"list": {"type": ["DT_FLOAT"]}}, "padding": {"s": "U0FNRQ=="}, "use_cudnn_on_gpu": {"b": true}, "leakyrelu_alpha": {"f": 0.2}, "epsilon": {"f": 0.0}, "T": {"type": "DT_FLOAT"}, "explicit_paddings": {"list": {}}, "dilations": {"list": {"i": ["1", "1", "1", "1"]}}}}, {"name": "StatefulPartitionedCall/UnetppAttention_32_64_128_256/up_2_1/BiasAdd", "op": "BiasAdd", "input": ["StatefulPartitionedCall/UnetppAttention_32_64_128_256/up_2_1/conv2d_transpose", "StatefulPartitionedCall/UnetppAttention_32_64_128_256/up_2_1/BiasAdd/ReadVariableOp"], "attr": {"_input_shapes": {"list": {"shape": [{"dim": [{"size": "-2"}, {"size": "64"}, {"size": "64"}, {"size": "64"}]}, {"dim": [{"size": "64"}]}]}}, "T": {"type": "DT_FLOAT"}, "data_format": {"s": "TkhXQw=="}}}, {"name": "StatefulPartitionedCall/UnetppAttention_32_64_128_256/att_0_0_j2_sigmoid/Sigmoid", "op": "Sigmoid", "input": ["StatefulPartitionedCall/UnetppAttention_32_64_128_256/att_0_0_j2_psi_f/BiasAdd"], "attr": {"_input_shapes": {"list": {"shape": [{"dim": [{"size": "-2"}, {"size": "128"}, {"size": "128"}, {"size": "1"}]}]}}, "T": {"type": "DT_FLOAT"}}}, {"name": "StatefulPartitionedCall/UnetppAttention_32_64_128_256/att_0_1_j2_sigmoid/Sigmoid", "op": "Sigmoid", "input": ["StatefulPartitionedCall/UnetppAttention_32_64_128_256/att_0_1_j2_psi_f/BiasAdd"], "attr": {"_input_shapes": {"list": {"shape": [{"dim": [{"size": "-2"}, {"size": "128"}, {"size": "128"}, {"size": "1"}]}]}}, "T": {"type": "DT_FLOAT"}}}, {"name": "StatefulPartitionedCall/UnetppAttention_32_64_128_256/att_1_1_j2_phi_g/BiasAdd", "op": "_FusedConv2D", "input": ["StatefulPartitionedCall/UnetppAttention_32_64_128_256/up_2_1/BiasAdd", "StatefulPartitionedCall/UnetppAttention_32_64_128_256/att_1_1_j2_phi_g/Conv2D/ReadVariableOp", "StatefulPartitionedCall/UnetppAttention_32_64_128_256/att_1_1_j2_phi_g/BiasAdd/ReadVariableOp"], "device": "/device:CPU:0", "attr": {"num_host_args": {"i": "0"}, "_input_shapes": {"list": {"shape": [{"dim": [{"size": "-2"}, {"size": "64"}, {"size": "64"}, {"size": "64"}]}, {"dim": [{"size": "1"}, {"size": "1"}, {"size": "64"}, {"size": "32"}]}]}}, "filter_format": {"s": "SFdJTw=="}, "data_format": {"s": "TkhXQw=="}, "fused_ops": {"list": {"s": ["Qmlhc0FkZA=="]}}, "num_args": {"i": "1"}, "strides": {"list": {"i": ["1", "1", "1", "1"]}}, "TArgs": {"list": {"type": ["DT_FLOAT"]}}, "padding": {"s": "U0FNRQ=="}, "use_cudnn_on_gpu": {"b": true}, "leakyrelu_alpha": {"f": 0.2}, "epsilon": {"f": 0.0}, "T": {"type": "DT_FLOAT"}, "explicit_paddings": {"list": {}}, "dilations": {"list": {"i": ["1", "1", "1", "1"]}}}}, {"name": "StatefulPartitionedCall/UnetppAttention_32_64_128_256/att_1_0_j2_phi_g/BiasAdd", "op": "_FusedConv2D", "input": ["StatefulPartitionedCall/UnetppAttention_32_64_128_256/up_2_1/BiasAdd", "StatefulPartitionedCall/UnetppAttention_32_64_128_256/att_1_0_j2_phi_g/Conv2D/ReadVariableOp", "StatefulPartitionedCall/UnetppAttention_32_64_128_256/att_1_0_j2_phi_g/BiasAdd/ReadVariableOp"], "device": "/device:CPU:0", "attr": {"num_host_args": {"i": "0"}, "_input_shapes": {"list": {"shape": [{"dim": [{"size": "-2"}, {"size": "64"}, {"size": "64"}, {"size": "64"}]}, {"dim": [{"size": "1"}, {"size": "1"}, {"size": "64"}, {"size": "32"}]}]}}, "filter_format": {"s": "SFdJTw=="}, "data_format": {"s": "TkhXQw=="}, "fused_ops": {"list": {"s": ["Qmlhc0FkZA=="]}}, "num_args": {"i": "1"}, "strides": {"list": {"i": ["1", "1", "1", "1"]}}, "TArgs": {"list": {"type": ["DT_FLOAT"]}}, "padding": {"s": "U0FNRQ=="}, "use_cudnn_on_gpu": {"b": true}, "leakyrelu_alpha": {"f": 0.2}, "epsilon": {"f": 0.0}, "T": {"type": "DT_FLOAT"}, "explicit_paddings": {"list": {}}, "dilations": {"list": {"i": ["1", "1", "1", "1"]}}}}, {"name": "StatefulPartitionedCall/UnetppAttention_32_64_128_256/att_0_0_j2_multiply/mul", "op": "Mul", "input": ["StatefulPartitionedCall/UnetppAttention_32_64_128_256/x_0_0_b_act/Relu", "StatefulPartitionedCall/UnetppAttention_32_64_128_256/att_0_0_j2_sigmoid/Sigmoid"], "attr": {"T": {"type": "DT_FLOAT"}}}, {"name": "StatefulPartitionedCall/UnetppAttention_32_64_128_256/att_0_1_j2_multiply/mul", "op": "Mul", "input": ["StatefulPartitionedCall/UnetppAttention_32_64_128_256/x_0_1_b_act/Relu", "StatefulPartitionedCall/UnetppAttention_32_64_128_256/att_0_1_j2_sigmoid/Sigmoid"], "attr": {"T": {"type": "DT_FLOAT"}}}, {"name": "StatefulPartitionedCall/UnetppAttention_32_64_128_256/att_1_1_j2_relu/Relu", "op": "_FusedConv2D", "input": ["StatefulPartitionedCall/UnetppAttention_32_64_128_256/x_1_1_b_act/Relu", "StatefulPartitionedCall/UnetppAttention_32_64_128_256/att_1_1_j2_theta_x/Conv2D/ReadVariableOp", "StatefulPartitionedCall/UnetppAttention_32_64_128_256/att_1_1_j2_phi_g/BiasAdd"], "device": "/device:CPU:0", "attr": {"num_host_args": {"i": "0"}, "_input_shapes": {"list": {"shape": [{"dim": [{"size": "-2"}, {"size": "64"}, {"size": "64"}, {"size": "64"}]}, {"dim": [{"size": "1"}, {"size": "1"}, {"size": "64"}, {"size": "32"}]}]}}, "filter_format": {"s": "SFdJTw=="}, "data_format": {"s": "TkhXQw=="}, "fused_ops": {"list": {"s": ["Qmlhc0FkZA==", "UmVsdQ=="]}}, "num_args": {"i": "1"}, "strides": {"list": {"i": ["1", "1", "1", "1"]}}, "TArgs": {"list": {"type": ["DT_FLOAT"]}}, "padding": {"s": "U0FNRQ=="}, "use_cudnn_on_gpu": {"b": true}, "leakyrelu_alpha": {"f": 0.2}, "epsilon": {"f": 0.0}, "T": {"type": "DT_FLOAT"}, "explicit_paddings": {"list": {}}, "dilations": {"list": {"i": ["1", "1", "1", "1"]}}}}, {"name": "StatefulPartitionedCall/UnetppAttention_32_64_128_256/att_1_0_j2_relu/Relu", "op": "_FusedConv2D", "input": ["StatefulPartitionedCall/UnetppAttention_32_64_128_256/x_1_0_b_act/Relu", "StatefulPartitionedCall/UnetppAttention_32_64_128_256/att_1_0_j2_theta_x/Conv2D/ReadVariableOp", "StatefulPartitionedCall/UnetppAttention_32_64_128_256/att_1_0_j2_phi_g/BiasAdd"], "device": "/device:CPU:0", "attr": {"num_host_args": {"i": "0"}, "data_format": {"s": "TkhXQw=="}, "filter_format": {"s": "SFdJTw=="}, "_input_shapes": {"list": {"shape": [{"dim": [{"size": "-2"}, {"size": "-34"}, {"size": "-35"}, {"size": "64"}]}, {"dim": [{"size": "1"}, {"size": "1"}, {"size": "64"}, {"size": "32"}]}]}}, "strides": {"list": {"i": ["1", "1", "1", "1"]}}, "num_args": {"i": "1"}, "fused_ops": {"list": {"s": ["Qmlhc0FkZA==", "UmVsdQ=="]}}, "TArgs": {"list": {"type": ["DT_FLOAT"]}}, "padding": {"s": "U0FNRQ=="}, "use_cudnn_on_gpu": {"b": true}, "leakyrelu_alpha": {"f": 0.2}, "epsilon": {"f": 0.0}, "T": {"type": "DT_FLOAT"}, "explicit_paddings": {"list": {}}, "dilations": {"list": {"i": ["1", "1", "1", "1"]}}}}, {"name": "StatefulPartitionedCall/UnetppAttention_32_64_128_256/merge_0_2/concat", "op": "ConcatV2", "input": ["StatefulPartitionedCall/UnetppAttention_32_64_128_256/att_0_0_j2_multiply/mul", "StatefulPartitionedCall/UnetppAttention_32_64_128_256/att_0_1_j2_multiply/mul", "StatefulPartitionedCall/UnetppAttention_32_64_128_256/up_1_1/BiasAdd", "StatefulPartitionedCall/UnetppAttention_32_64_128_256/merge_0_2/concat/axis"], "attr": {"N": {"i": "3"}, "Tidx": {"type": "DT_INT32"}, "T": {"type": "DT_FLOAT"}}}, {"name": "StatefulPartitionedCall/UnetppAttention_32_64_128_256/att_1_1_j2_psi_f/BiasAdd", "op": "_FusedConv2D", "input": ["StatefulPartitionedCall/UnetppAttention_32_64_128_256/att_1_1_j2_relu/Relu", "StatefulPartitionedCall/UnetppAttention_32_64_128_256/att_1_1_j2_psi_f/Conv2D/ReadVariableOp", "StatefulPartitionedCall/UnetppAttention_32_64_128_256/att_1_1_j2_psi_f/BiasAdd/ReadVariableOp"], "device": "/device:CPU:0", "attr": {"num_host_args": {"i": "0"}, "_input_shapes": {"list": {"shape": [{"dim": [{"size": "-64"}, {"size": "-65"}, {"size": "-66"}, {"size": "-67"}]}, {"dim": [{"size": "1"}, {"size": "1"}, {"size": "32"}, {"size": "1"}]}]}}, "filter_format": {"s": "SFdJTw=="}, "data_format": {"s": "TkhXQw=="}, "fused_ops": {"list": {"s": ["Qmlhc0FkZA=="]}}, "num_args": {"i": "1"}, "strides": {"list": {"i": ["1", "1", "1", "1"]}}, "TArgs": {"list": {"type": ["DT_FLOAT"]}}, "padding": {"s": "U0FNRQ=="}, "use_cudnn_on_gpu": {"b": true}, "leakyrelu_alpha": {"f": 0.2}, "epsilon": {"f": 0.0}, "T": {"type": "DT_FLOAT"}, "explicit_paddings": {"list": {}}, "dilations": {"list": {"i": ["1", "1", "1", "1"]}}}}, {"name": "StatefulPartitionedCall/UnetppAttention_32_64_128_256/att_1_0_j2_psi_f/BiasAdd", "op": "_FusedConv2D", "input": ["StatefulPartitionedCall/UnetppAttention_32_64_128_256/att_1_0_j2_relu/Relu", "StatefulPartitionedCall/UnetppAttention_32_64_128_256/att_1_0_j2_psi_f/Conv2D/ReadVariableOp", "StatefulPartitionedCall/UnetppAttention_32_64_128_256/att_1_0_j2_psi_f/BiasAdd/ReadVariableOp"], "device": "/device:CPU:0", "attr": {"num_host_args": {"i": "0"}, "_input_shapes": {"list": {"shape": [{"dim": [{"size": "-60"}, {"size": "-61"}, {"size": "-62"}, {"size": "-63"}]}, {"dim": [{"size": "1"}, {"size": "1"}, {"size": "32"}, {"size": "1"}]}]}}, "filter_format": {"s": "SFdJTw=="}, "data_format": {"s": "TkhXQw=="}, "fused_ops": {"list": {"s": ["Qmlhc0FkZA=="]}}, "num_args": {"i": "1"}, "strides": {"list": {"i": ["1", "1", "1", "1"]}}, "TArgs": {"list": {"type": ["DT_FLOAT"]}}, "padding": {"s": "U0FNRQ=="}, "use_cudnn_on_gpu": {"b": true}, "leakyrelu_alpha": {"f": 0.2}, "epsilon": {"f": 0.0}, "T": {"type": "DT_FLOAT"}, "explicit_paddings": {"list": {}}, "dilations": {"list": {"i": ["1", "1", "1", "1"]}}}}, {"name": "StatefulPartitionedCall/UnetppAttention_32_64_128_256/x_0_2_a_act/Relu", "op": "_FusedConv2D", "input": ["StatefulPartitionedCall/UnetppAttention_32_64_128_256/merge_0_2/concat", "StatefulPartitionedCall/UnetppAttention_32_64_128_256/x_0_2_a_conv/Conv2D_weights", "StatefulPartitionedCall/UnetppAttention_32_64_128_256/x_0_2_a_conv/Conv2D_bn_offset"], "device": "/device:CPU:0", "attr": {"num_host_args": {"i": "0"}, "data_format": {"s": "TkhXQw=="}, "filter_format": {"s": "SFdJTw=="}, "_input_shapes": {"list": {"shape": [{"dim": [{"size": "-2"}, {"size": "128"}, {"size": "128"}, {"size": "96"}]}, {"dim": [{"size": "3"}, {"size": "3"}, {"size": "96"}, {"size": "32"}]}]}}, "fused_ops": {"list": {"s": ["Qmlhc0FkZA==", "UmVsdQ=="]}}, "num_args": {"i": "1"}, "strides": {"list": {"i": ["1", "1", "1", "1"]}}, "TArgs": {"list": {"type": ["DT_FLOAT"]}}, "padding": {"s": "U0FNRQ=="}, "use_cudnn_on_gpu": {"b": true}, "leakyrelu_alpha": {"f": 0.2}, "epsilon": {"f": 0.0}, "T": {"type": "DT_FLOAT"}, "explicit_paddings": {"list": {}}, "dilations": {"list": {"i": ["1", "1", "1", "1"]}}}}, {"name": "StatefulPartitionedCall/UnetppAttention_32_64_128_256/att_1_1_j2_sigmoid/Sigmoid", "op": "Sigmoid", "input": ["StatefulPartitionedCall/UnetppAttention_32_64_128_256/att_1_1_j2_psi_f/BiasAdd"], "attr": {"_input_shapes": {"list": {"shape": [{"dim": [{"size": "-2"}, {"size": "64"}, {"size": "64"}, {"size": "1"}]}]}}, "T": {"type": "DT_FLOAT"}}}, {"name": "StatefulPartitionedCall/UnetppAttention_32_64_128_256/att_1_0_j2_sigmoid/Sigmoid", "op": "Sigmoid", "input": ["StatefulPartitionedCall/UnetppAttention_32_64_128_256/att_1_0_j2_psi_f/BiasAdd"], "attr": {"_input_shapes": {"list": {"shape": [{"dim": [{"size": "-2"}, {"size": "64"}, {"size": "64"}, {"size": "1"}]}]}}, "T": {"type": "DT_FLOAT"}}}, {"name": "StatefulPartitionedCall/UnetppAttention_32_64_128_256/x_0_2_b_act/Relu", "op": "_FusedConv2D", "input": ["StatefulPartitionedCall/UnetppAttention_32_64_128_256/x_0_2_a_act/Relu", "StatefulPartitionedCall/UnetppAttention_32_64_128_256/x_0_2_b_conv/Conv2D_weights", "StatefulPartitionedCall/UnetppAttention_32_64_128_256/x_0_2_b_conv/Conv2D_bn_offset"], "device": "/device:CPU:0", "attr": {"num_host_args": {"i": "0"}, "_input_shapes": {"list": {"shape": [{"dim": [{"size": "-2"}, {"size": "128"}, {"size": "128"}, {"size": "32"}]}, {"dim": [{"size": "3"}, {"size": "3"}, {"size": "32"}, {"size": "32"}]}]}}, "filter_format": {"s": "SFdJTw=="}, "data_format": {"s": "TkhXQw=="}, "strides": {"list": {"i": ["1", "1", "1", "1"]}}, "num_args": {"i": "1"}, "fused_ops": {"list": {"s": ["Qmlhc0FkZA==", "UmVsdQ=="]}}, "TArgs": {"list": {"type": ["DT_FLOAT"]}}, "padding": {"s": "U0FNRQ=="}, "use_cudnn_on_gpu": {"b": true}, "leakyrelu_alpha": {"f": 0.2}, "epsilon": {"f": 0.0}, "T": {"type": "DT_FLOAT"}, "explicit_paddings": {"list": {}}, "dilations": {"list": {"i": ["1", "1", "1", "1"]}}}}, {"name": "StatefulPartitionedCall/UnetppAttention_32_64_128_256/att_1_1_j2_multiply/mul", "op": "Mul", "input": ["StatefulPartitionedCall/UnetppAttention_32_64_128_256/x_1_1_b_act/Relu", "StatefulPartitionedCall/UnetppAttention_32_64_128_256/att_1_1_j2_sigmoid/Sigmoid"], "attr": {"T": {"type": "DT_FLOAT"}}}, {"name": "StatefulPartitionedCall/UnetppAttention_32_64_128_256/att_1_0_j2_multiply/mul", "op": "Mul", "input": ["StatefulPartitionedCall/UnetppAttention_32_64_128_256/x_1_0_b_act/Relu", "StatefulPartitionedCall/UnetppAttention_32_64_128_256/att_1_0_j2_sigmoid/Sigmoid"], "attr": {"T": {"type": "DT_FLOAT"}}}, {"name": "StatefulPartitionedCall/UnetppAttention_32_64_128_256/merge_1_2/concat", "op": "ConcatV2", "input": ["StatefulPartitionedCall/UnetppAttention_32_64_128_256/att_1_0_j2_multiply/mul", "StatefulPartitionedCall/UnetppAttention_32_64_128_256/att_1_1_j2_multiply/mul", "StatefulPartitionedCall/UnetppAttention_32_64_128_256/up_2_1/BiasAdd", "StatefulPartitionedCall/UnetppAttention_32_64_128_256/merge_1_2/concat/axis"], "attr": {"N": {"i": "3"}, "Tidx": {"type": "DT_INT32"}, "T": {"type": "DT_FLOAT"}}}, {"name": "StatefulPartitionedCall/UnetppAttention_32_64_128_256/x_1_2_a_act/Relu", "op": "_FusedConv2D", "input": ["StatefulPartitionedCall/UnetppAttention_32_64_128_256/merge_1_2/concat", "StatefulPartitionedCall/UnetppAttention_32_64_128_256/x_1_2_a_conv/Conv2D_weights", "StatefulPartitionedCall/UnetppAttention_32_64_128_256/x_1_2_a_conv/Conv2D_bn_offset"], "device": "/device:CPU:0", "attr": {"num_host_args": {"i": "0"}, "_input_shapes": {"list": {"shape": [{"dim": [{"size": "-2"}, {"size": "64"}, {"size": "64"}, {"size": "192"}]}, {"dim": [{"size": "3"}, {"size": "3"}, {"size": "192"}, {"size": "64"}]}]}}, "filter_format": {"s": "SFdJTw=="}, "data_format": {"s": "TkhXQw=="}, "strides": {"list": {"i": ["1", "1", "1", "1"]}}, "num_args": {"i": "1"}, "fused_ops": {"list": {"s": ["Qmlhc0FkZA==", "UmVsdQ=="]}}, "TArgs": {"list": {"type": ["DT_FLOAT"]}}, "padding": {"s": "U0FNRQ=="}, "use_cudnn_on_gpu": {"b": true}, "leakyrelu_alpha": {"f": 0.2}, "epsilon": {"f": 0.0}, "T": {"type": "DT_FLOAT"}, "explicit_paddings": {"list": {}}, "dilations": {"list": {"i": ["1", "1", "1", "1"]}}}}, {"name": "StatefulPartitionedCall/UnetppAttention_32_64_128_256/x_1_2_b_act/Relu", "op": "_FusedConv2D", "input": ["StatefulPartitionedCall/UnetppAttention_32_64_128_256/x_1_2_a_act/Relu", "StatefulPartitionedCall/UnetppAttention_32_64_128_256/x_1_2_b_conv/Conv2D_weights", "StatefulPartitionedCall/UnetppAttention_32_64_128_256/x_1_2_b_conv/Conv2D_bn_offset"], "device": "/device:CPU:0", "attr": {"num_host_args": {"i": "0"}, "_input_shapes": {"list": {"shape": [{"dim": [{"size": "-2"}, {"size": "64"}, {"size": "64"}, {"size": "64"}]}, {"dim": [{"size": "3"}, {"size": "3"}, {"size": "64"}, {"size": "64"}]}]}}, "filter_format": {"s": "SFdJTw=="}, "data_format": {"s": "TkhXQw=="}, "fused_ops": {"list": {"s": ["Qmlhc0FkZA==", "UmVsdQ=="]}}, "num_args": {"i": "1"}, "strides": {"list": {"i": ["1", "1", "1", "1"]}}, "TArgs": {"list": {"type": ["DT_FLOAT"]}}, "padding": {"s": "U0FNRQ=="}, "use_cudnn_on_gpu": {"b": true}, "leakyrelu_alpha": {"f": 0.2}, "epsilon": {"f": 0.0}, "T": {"type": "DT_FLOAT"}, "explicit_paddings": {"list": {}}, "dilations": {"list": {"i": ["1", "1", "1", "1"]}}}}, {"name": "StatefulPartitionedCall/UnetppAttention_32_64_128_256/up_1_2/Shape", "op": "Shape", "input": ["StatefulPartitionedCall/UnetppAttention_32_64_128_256/x_1_2_b_act/Relu"], "attr": {"T": {"type": "DT_FLOAT"}, "out_type": {"type": "DT_INT32"}}, "experimentalType": {"typeId": "TFT_PRODUCT", "args": [{"typeId": "TFT_SHAPE_TENSOR", "args": [{"typeId": "TFT_INT32"}]}]}}, {"name": "StatefulPartitionedCall/UnetppAttention_32_64_128_256/up_1_2/strided_slice", "op": "StridedSlice", "input": ["StatefulPartitionedCall/UnetppAttention_32_64_128_256/up_1_2/Shape", "StatefulPartitionedCall/UnetppAttention_32_64_128_256/up_1_2/strided_slice/stack", "StatefulPartitionedCall/UnetppAttention_32_64_128_256/up_1_2/strided_slice/stack_1", "StatefulPartitionedCall/UnetppAttention_32_64_128_256/up_1_2/strided_slice/stack_2"], "attr": {"shrink_axis_mask": {"i": "1"}, "Index": {"type": "DT_INT32"}, "new_axis_mask": {"i": "0"}, "begin_mask": {"i": "0"}, "end_mask": {"i": "0"}, "T": {"type": "DT_INT32"}, "ellipsis_mask": {"i": "0"}}}, {"name": "StatefulPartitionedCall/UnetppAttention_32_64_128_256/up_1_2/stack", "op": "Pack", "input": ["StatefulPartitionedCall/UnetppAttention_32_64_128_256/up_1_2/strided_slice", "StatefulPartitionedCall/UnetppAttention_32_64_128_256/up_1_2/stack/1", "StatefulPartitionedCall/UnetppAttention_32_64_128_256/up_1_2/stack/2", "StatefulPartitionedCall/UnetppAttention_32_64_128_256/up_1_2/stack/3"], "attr": {"N": {"i": "4"}, "axis": {"i": "0"}, "T": {"type": "DT_INT32"}}}, {"name": "StatefulPartitionedCall/UnetppAttention_32_64_128_256/up_1_2/conv2d_transpose", "op": "Conv2DBackpropInput", "input": ["StatefulPartitionedCall/UnetppAttention_32_64_128_256/up_1_2/stack", "StatefulPartitionedCall/UnetppAttention_32_64_128_256/up_1_2/conv2d_transpose/ReadVariableOp", "StatefulPartitionedCall/UnetppAttention_32_64_128_256/x_1_2_b_act/Relu"], "attr": {"padding": {"s": "U0FNRQ=="}, "data_format": {"s": "TkhXQw=="}, "use_cudnn_on_gpu": {"b": true}, "strides": {"list": {"i": ["1", "2", "2", "1"]}}, "T": {"type": "DT_FLOAT"}, "explicit_paddings": {"list": {}}, "dilations": {"list": {"i": ["1", "1", "1", "1"]}}}}, {"name": "StatefulPartitionedCall/UnetppAttention_32_64_128_256/up_1_2/BiasAdd", "op": "BiasAdd", "input": ["StatefulPartitionedCall/UnetppAttention_32_64_128_256/up_1_2/conv2d_transpose", "StatefulPartitionedCall/UnetppAttention_32_64_128_256/up_1_2/BiasAdd/ReadVariableOp"], "attr": {"_input_shapes": {"list": {"shape": [{"dim": [{"size": "-2"}, {"size": "128"}, {"size": "128"}, {"size": "32"}]}, {"dim": [{"size": "32"}]}]}}, "T": {"type": "DT_FLOAT"}, "data_format": {"s": "TkhXQw=="}}}, {"name": "StatefulPartitionedCall/UnetppAttention_32_64_128_256/att_0_2_j3_phi_g/BiasAdd", "op": "_FusedConv2D", "input": ["StatefulPartitionedCall/UnetppAttention_32_64_128_256/up_1_2/BiasAdd", "StatefulPartitionedCall/UnetppAttention_32_64_128_256/att_0_2_j3_phi_g/Conv2D/ReadVariableOp", "StatefulPartitionedCall/UnetppAttention_32_64_128_256/att_0_2_j3_phi_g/BiasAdd/ReadVariableOp"], "device": "/device:CPU:0", "attr": {"num_host_args": {"i": "0"}, "data_format": {"s": "TkhXQw=="}, "filter_format": {"s": "SFdJTw=="}, "_input_shapes": {"list": {"shape": [{"dim": [{"size": "-2"}, {"size": "128"}, {"size": "128"}, {"size": "32"}]}, {"dim": [{"size": "1"}, {"size": "1"}, {"size": "32"}, {"size": "16"}]}]}}, "strides": {"list": {"i": ["1", "1", "1", "1"]}}, "num_args": {"i": "1"}, "fused_ops": {"list": {"s": ["Qmlhc0FkZA=="]}}, "TArgs": {"list": {"type": ["DT_FLOAT"]}}, "padding": {"s": "U0FNRQ=="}, "use_cudnn_on_gpu": {"b": true}, "leakyrelu_alpha": {"f": 0.2}, "epsilon": {"f": 0.0}, "T": {"type": "DT_FLOAT"}, "explicit_paddings": {"list": {}}, "dilations": {"list": {"i": ["1", "1", "1", "1"]}}}}, {"name": "StatefulPartitionedCall/UnetppAttention_32_64_128_256/att_0_0_j3_phi_g/BiasAdd", "op": "_FusedConv2D", "input": ["StatefulPartitionedCall/UnetppAttention_32_64_128_256/up_1_2/BiasAdd", "StatefulPartitionedCall/UnetppAttention_32_64_128_256/att_0_0_j3_phi_g/Conv2D/ReadVariableOp", "StatefulPartitionedCall/UnetppAttention_32_64_128_256/att_0_0_j3_phi_g/BiasAdd/ReadVariableOp"], "device": "/device:CPU:0", "attr": {"num_host_args": {"i": "0"}, "_input_shapes": {"list": {"shape": [{"dim": [{"size": "-2"}, {"size": "128"}, {"size": "128"}, {"size": "32"}]}, {"dim": [{"size": "1"}, {"size": "1"}, {"size": "32"}, {"size": "16"}]}]}}, "filter_format": {"s": "SFdJTw=="}, "data_format": {"s": "TkhXQw=="}, "strides": {"list": {"i": ["1", "1", "1", "1"]}}, "num_args": {"i": "1"}, "fused_ops": {"list": {"s": ["Qmlhc0FkZA=="]}}, "TArgs": {"list": {"type": ["DT_FLOAT"]}}, "padding": {"s": "U0FNRQ=="}, "use_cudnn_on_gpu": {"b": true}, "leakyrelu_alpha": {"f": 0.2}, "epsilon": {"f": 0.0}, "T": {"type": "DT_FLOAT"}, "explicit_paddings": {"list": {}}, "dilations": {"list": {"i": ["1", "1", "1", "1"]}}}}, {"name": "StatefulPartitionedCall/UnetppAttention_32_64_128_256/att_0_1_j3_phi_g/BiasAdd", "op": "_FusedConv2D", "input": ["StatefulPartitionedCall/UnetppAttention_32_64_128_256/up_1_2/BiasAdd", "StatefulPartitionedCall/UnetppAttention_32_64_128_256/att_0_1_j3_phi_g/Conv2D/ReadVariableOp", "StatefulPartitionedCall/UnetppAttention_32_64_128_256/att_0_1_j3_phi_g/BiasAdd/ReadVariableOp"], "device": "/device:CPU:0", "attr": {"num_host_args": {"i": "0"}, "data_format": {"s": "TkhXQw=="}, "filter_format": {"s": "SFdJTw=="}, "_input_shapes": {"list": {"shape": [{"dim": [{"size": "-2"}, {"size": "128"}, {"size": "128"}, {"size": "32"}]}, {"dim": [{"size": "1"}, {"size": "1"}, {"size": "32"}, {"size": "16"}]}]}}, "fused_ops": {"list": {"s": ["Qmlhc0FkZA=="]}}, "num_args": {"i": "1"}, "strides": {"list": {"i": ["1", "1", "1", "1"]}}, "TArgs": {"list": {"type": ["DT_FLOAT"]}}, "padding": {"s": "U0FNRQ=="}, "use_cudnn_on_gpu": {"b": true}, "leakyrelu_alpha": {"f": 0.2}, "epsilon": {"f": 0.0}, "T": {"type": "DT_FLOAT"}, "explicit_paddings": {"list": {}}, "dilations": {"list": {"i": ["1", "1", "1", "1"]}}}}, {"name": "StatefulPartitionedCall/UnetppAttention_32_64_128_256/att_0_2_j3_relu/Relu", "op": "_FusedConv2D", "input": ["StatefulPartitionedCall/UnetppAttention_32_64_128_256/x_0_2_b_act/Relu", "StatefulPartitionedCall/UnetppAttention_32_64_128_256/att_0_2_j3_theta_x/Conv2D/ReadVariableOp", "StatefulPartitionedCall/UnetppAttention_32_64_128_256/att_0_2_j3_phi_g/BiasAdd"], "device": "/device:CPU:0", "attr": {"num_host_args": {"i": "0"}, "data_format": {"s": "TkhXQw=="}, "filter_format": {"s": "SFdJTw=="}, "_input_shapes": {"list": {"shape": [{"dim": [{"size": "-2"}, {"size": "128"}, {"size": "128"}, {"size": "32"}]}, {"dim": [{"size": "1"}, {"size": "1"}, {"size": "32"}, {"size": "16"}]}]}}, "fused_ops": {"list": {"s": ["Qmlhc0FkZA==", "UmVsdQ=="]}}, "num_args": {"i": "1"}, "strides": {"list": {"i": ["1", "1", "1", "1"]}}, "TArgs": {"list": {"type": ["DT_FLOAT"]}}, "padding": {"s": "U0FNRQ=="}, "use_cudnn_on_gpu": {"b": true}, "leakyrelu_alpha": {"f": 0.2}, "epsilon": {"f": 0.0}, "T": {"type": "DT_FLOAT"}, "explicit_paddings": {"list": {}}, "dilations": {"list": {"i": ["1", "1", "1", "1"]}}}}, {"name": "StatefulPartitionedCall/UnetppAttention_32_64_128_256/att_0_0_j3_relu/Relu", "op": "_FusedConv2D", "input": ["StatefulPartitionedCall/UnetppAttention_32_64_128_256/x_0_0_b_act/Relu", "StatefulPartitionedCall/UnetppAttention_32_64_128_256/att_0_0_j3_theta_x/Conv2D/ReadVariableOp", "StatefulPartitionedCall/UnetppAttention_32_64_128_256/att_0_0_j3_phi_g/BiasAdd"], "device": "/device:CPU:0", "attr": {"num_host_args": {"i": "0"}, "data_format": {"s": "TkhXQw=="}, "filter_format": {"s": "SFdJTw=="}, "_input_shapes": {"list": {"shape": [{"dim": [{"size": "-2"}, {"size": "-31"}, {"size": "-32"}, {"size": "32"}]}, {"dim": [{"size": "1"}, {"size": "1"}, {"size": "32"}, {"size": "16"}]}]}}, "fused_ops": {"list": {"s": ["Qmlhc0FkZA==", "UmVsdQ=="]}}, "num_args": {"i": "1"}, "strides": {"list": {"i": ["1", "1", "1", "1"]}}, "TArgs": {"list": {"type": ["DT_FLOAT"]}}, "padding": {"s": "U0FNRQ=="}, "use_cudnn_on_gpu": {"b": true}, "leakyrelu_alpha": {"f": 0.2}, "epsilon": {"f": 0.0}, "T": {"type": "DT_FLOAT"}, "explicit_paddings": {"list": {}}, "dilations": {"list": {"i": ["1", "1", "1", "1"]}}}}, {"name": "StatefulPartitionedCall/UnetppAttention_32_64_128_256/att_0_1_j3_relu/Relu", "op": "_FusedConv2D", "input": ["StatefulPartitionedCall/UnetppAttention_32_64_128_256/x_0_1_b_act/Relu", "StatefulPartitionedCall/UnetppAttention_32_64_128_256/att_0_1_j3_theta_x/Conv2D/ReadVariableOp", "StatefulPartitionedCall/UnetppAttention_32_64_128_256/att_0_1_j3_phi_g/BiasAdd"], "device": "/device:CPU:0", "attr": {"num_host_args": {"i": "0"}, "data_format": {"s": "TkhXQw=="}, "filter_format": {"s": "SFdJTw=="}, "_input_shapes": {"list": {"shape": [{"dim": [{"size": "-2"}, {"size": "128"}, {"size": "128"}, {"size": "32"}]}, {"dim": [{"size": "1"}, {"size": "1"}, {"size": "32"}, {"size": "16"}]}]}}, "fused_ops": {"list": {"s": ["Qmlhc0FkZA==", "UmVsdQ=="]}}, "num_args": {"i": "1"}, "strides": {"list": {"i": ["1", "1", "1", "1"]}}, "TArgs": {"list": {"type": ["DT_FLOAT"]}}, "padding": {"s": "U0FNRQ=="}, "use_cudnn_on_gpu": {"b": true}, "leakyrelu_alpha": {"f": 0.2}, "epsilon": {"f": 0.0}, "T": {"type": "DT_FLOAT"}, "explicit_paddings": {"list": {}}, "dilations": {"list": {"i": ["1", "1", "1", "1"]}}}}, {"name": "StatefulPartitionedCall/UnetppAttention_32_64_128_256/att_0_2_j3_psi_f/BiasAdd", "op": "_FusedConv2D", "input": ["StatefulPartitionedCall/UnetppAttention_32_64_128_256/att_0_2_j3_relu/Relu", "StatefulPartitionedCall/UnetppAttention_32_64_128_256/att_0_2_j3_psi_f/Conv2D/ReadVariableOp", "StatefulPartitionedCall/UnetppAttention_32_64_128_256/att_0_2_j3_psi_f/BiasAdd/ReadVariableOp"], "device": "/device:CPU:0", "attr": {"num_host_args": {"i": "0"}, "data_format": {"s": "TkhXQw=="}, "filter_format": {"s": "SFdJTw=="}, "_input_shapes": {"list": {"shape": [{"dim": [{"size": "-76"}, {"size": "-77"}, {"size": "-78"}, {"size": "-79"}]}, {"dim": [{"size": "1"}, {"size": "1"}, {"size": "16"}, {"size": "1"}]}]}}, "strides": {"list": {"i": ["1", "1", "1", "1"]}}, "num_args": {"i": "1"}, "fused_ops": {"list": {"s": ["Qmlhc0FkZA=="]}}, "TArgs": {"list": {"type": ["DT_FLOAT"]}}, "padding": {"s": "U0FNRQ=="}, "use_cudnn_on_gpu": {"b": true}, "leakyrelu_alpha": {"f": 0.2}, "epsilon": {"f": 0.0}, "T": {"type": "DT_FLOAT"}, "explicit_paddings": {"list": {}}, "dilations": {"list": {"i": ["1", "1", "1", "1"]}}}}, {"name": "StatefulPartitionedCall/UnetppAttention_32_64_128_256/att_0_0_j3_psi_f/BiasAdd", "op": "_FusedConv2D", "input": ["StatefulPartitionedCall/UnetppAttention_32_64_128_256/att_0_0_j3_relu/Relu", "StatefulPartitionedCall/UnetppAttention_32_64_128_256/att_0_0_j3_psi_f/Conv2D/ReadVariableOp", "StatefulPartitionedCall/UnetppAttention_32_64_128_256/att_0_0_j3_psi_f/BiasAdd/ReadVariableOp"], "device": "/device:CPU:0", "attr": {"num_host_args": {"i": "0"}, "_input_shapes": {"list": {"shape": [{"dim": [{"size": "-68"}, {"size": "-69"}, {"size": "-70"}, {"size": "-71"}]}, {"dim": [{"size": "1"}, {"size": "1"}, {"size": "16"}, {"size": "1"}]}]}}, "filter_format": {"s": "SFdJTw=="}, "data_format": {"s": "TkhXQw=="}, "strides": {"list": {"i": ["1", "1", "1", "1"]}}, "num_args": {"i": "1"}, "fused_ops": {"list": {"s": ["Qmlhc0FkZA=="]}}, "TArgs": {"list": {"type": ["DT_FLOAT"]}}, "padding": {"s": "U0FNRQ=="}, "use_cudnn_on_gpu": {"b": true}, "leakyrelu_alpha": {"f": 0.2}, "epsilon": {"f": 0.0}, "T": {"type": "DT_FLOAT"}, "explicit_paddings": {"list": {}}, "dilations": {"list": {"i": ["1", "1", "1", "1"]}}}}, {"name": "StatefulPartitionedCall/UnetppAttention_32_64_128_256/att_0_1_j3_psi_f/BiasAdd", "op": "_FusedConv2D", "input": ["StatefulPartitionedCall/UnetppAttention_32_64_128_256/att_0_1_j3_relu/Relu", "StatefulPartitionedCall/UnetppAttention_32_64_128_256/att_0_1_j3_psi_f/Conv2D/ReadVariableOp", "StatefulPartitionedCall/UnetppAttention_32_64_128_256/att_0_1_j3_psi_f/BiasAdd/ReadVariableOp"], "device": "/device:CPU:0", "attr": {"num_host_args": {"i": "0"}, "data_format": {"s": "TkhXQw=="}, "filter_format": {"s": "SFdJTw=="}, "_input_shapes": {"list": {"shape": [{"dim": [{"size": "-72"}, {"size": "-73"}, {"size": "-74"}, {"size": "-75"}]}, {"dim": [{"size": "1"}, {"size": "1"}, {"size": "16"}, {"size": "1"}]}]}}, "fused_ops": {"list": {"s": ["Qmlhc0FkZA=="]}}, "num_args": {"i": "1"}, "strides": {"list": {"i": ["1", "1", "1", "1"]}}, "TArgs": {"list": {"type": ["DT_FLOAT"]}}, "padding": {"s": "U0FNRQ=="}, "use_cudnn_on_gpu": {"b": true}, "leakyrelu_alpha": {"f": 0.2}, "epsilon": {"f": 0.0}, "T": {"type": "DT_FLOAT"}, "explicit_paddings": {"list": {}}, "dilations": {"list": {"i": ["1", "1", "1", "1"]}}}}, {"name": "StatefulPartitionedCall/UnetppAttention_32_64_128_256/att_0_2_j3_sigmoid/Sigmoid", "op": "Sigmoid", "input": ["StatefulPartitionedCall/UnetppAttention_32_64_128_256/att_0_2_j3_psi_f/BiasAdd"], "attr": {"_input_shapes": {"list": {"shape": [{"dim": [{"size": "-76"}, {"size": "-77"}, {"size": "-78"}, {"size": "1"}]}]}}, "T": {"type": "DT_FLOAT"}}}, {"name": "StatefulPartitionedCall/UnetppAttention_32_64_128_256/att_0_0_j3_sigmoid/Sigmoid", "op": "Sigmoid", "input": ["StatefulPartitionedCall/UnetppAttention_32_64_128_256/att_0_0_j3_psi_f/BiasAdd"], "attr": {"_input_shapes": {"list": {"shape": [{"dim": [{"size": "-68"}, {"size": "-69"}, {"size": "-70"}, {"size": "1"}]}]}}, "T": {"type": "DT_FLOAT"}}}, {"name": "StatefulPartitionedCall/UnetppAttention_32_64_128_256/att_0_1_j3_sigmoid/Sigmoid", "op": "Sigmoid", "input": ["StatefulPartitionedCall/UnetppAttention_32_64_128_256/att_0_1_j3_psi_f/BiasAdd"], "attr": {"_input_shapes": {"list": {"shape": [{"dim": [{"size": "-72"}, {"size": "-73"}, {"size": "-74"}, {"size": "1"}]}]}}, "T": {"type": "DT_FLOAT"}}}, {"name": "StatefulPartitionedCall/UnetppAttention_32_64_128_256/att_0_2_j3_multiply/mul", "op": "Mul", "input": ["StatefulPartitionedCall/UnetppAttention_32_64_128_256/x_0_2_b_act/Relu", "StatefulPartitionedCall/UnetppAttention_32_64_128_256/att_0_2_j3_sigmoid/Sigmoid"], "attr": {"T": {"type": "DT_FLOAT"}}}, {"name": "StatefulPartitionedCall/UnetppAttention_32_64_128_256/att_0_0_j3_multiply/mul", "op": "Mul", "input": ["StatefulPartitionedCall/UnetppAttention_32_64_128_256/x_0_0_b_act/Relu", "StatefulPartitionedCall/UnetppAttention_32_64_128_256/att_0_0_j3_sigmoid/Sigmoid"], "attr": {"T": {"type": "DT_FLOAT"}}}, {"name": "StatefulPartitionedCall/UnetppAttention_32_64_128_256/att_0_1_j3_multiply/mul", "op": "Mul", "input": ["StatefulPartitionedCall/UnetppAttention_32_64_128_256/x_0_1_b_act/Relu", "StatefulPartitionedCall/UnetppAttention_32_64_128_256/att_0_1_j3_sigmoid/Sigmoid"], "attr": {"T": {"type": "DT_FLOAT"}}}, {"name": "StatefulPartitionedCall/UnetppAttention_32_64_128_256/merge_0_3/concat", "op": "ConcatV2", "input": ["StatefulPartitionedCall/UnetppAttention_32_64_128_256/att_0_0_j3_multiply/mul", "StatefulPartitionedCall/UnetppAttention_32_64_128_256/att_0_1_j3_multiply/mul", "StatefulPartitionedCall/UnetppAttention_32_64_128_256/att_0_2_j3_multiply/mul", "StatefulPartitionedCall/UnetppAttention_32_64_128_256/up_1_2/BiasAdd", "StatefulPartitionedCall/UnetppAttention_32_64_128_256/merge_0_3/concat/axis"], "attr": {"N": {"i": "4"}, "Tidx": {"type": "DT_INT32"}, "T": {"type": "DT_FLOAT"}}}, {"name": "StatefulPartitionedCall/UnetppAttention_32_64_128_256/x_0_3_a_act/Relu", "op": "_FusedConv2D", "input": ["StatefulPartitionedCall/UnetppAttention_32_64_128_256/merge_0_3/concat", "StatefulPartitionedCall/UnetppAttention_32_64_128_256/x_0_3_a_conv/Conv2D_weights", "StatefulPartitionedCall/UnetppAttention_32_64_128_256/x_0_3_a_conv/Conv2D_bn_offset"], "device": "/device:CPU:0", "attr": {"num_host_args": {"i": "0"}, "_input_shapes": {"list": {"shape": [{"dim": [{"size": "-2"}, {"size": "128"}, {"size": "128"}, {"size": "128"}]}, {"dim": [{"size": "3"}, {"size": "3"}, {"size": "128"}, {"size": "32"}]}]}}, "filter_format": {"s": "SFdJTw=="}, "data_format": {"s": "TkhXQw=="}, "strides": {"list": {"i": ["1", "1", "1", "1"]}}, "num_args": {"i": "1"}, "fused_ops": {"list": {"s": ["Qmlhc0FkZA==", "UmVsdQ=="]}}, "TArgs": {"list": {"type": ["DT_FLOAT"]}}, "padding": {"s": "U0FNRQ=="}, "use_cudnn_on_gpu": {"b": true}, "leakyrelu_alpha": {"f": 0.2}, "epsilon": {"f": 0.0}, "T": {"type": "DT_FLOAT"}, "explicit_paddings": {"list": {}}, "dilations": {"list": {"i": ["1", "1", "1", "1"]}}}}, {"name": "StatefulPartitionedCall/UnetppAttention_32_64_128_256/x_0_3_b_act/Relu", "op": "_FusedConv2D", "input": ["StatefulPartitionedCall/UnetppAttention_32_64_128_256/x_0_3_a_act/Relu", "StatefulPartitionedCall/UnetppAttention_32_64_128_256/x_0_3_b_conv/Conv2D_weights", "StatefulPartitionedCall/UnetppAttention_32_64_128_256/x_0_3_b_conv/Conv2D_bn_offset"], "device": "/device:CPU:0", "attr": {"num_host_args": {"i": "0"}, "data_format": {"s": "TkhXQw=="}, "filter_format": {"s": "SFdJTw=="}, "_input_shapes": {"list": {"shape": [{"dim": [{"size": "-2"}, {"size": "128"}, {"size": "128"}, {"size": "32"}]}, {"dim": [{"size": "3"}, {"size": "3"}, {"size": "32"}, {"size": "32"}]}]}}, "strides": {"list": {"i": ["1", "1", "1", "1"]}}, "num_args": {"i": "1"}, "fused_ops": {"list": {"s": ["Qmlhc0FkZA==", "UmVsdQ=="]}}, "TArgs": {"list": {"type": ["DT_FLOAT"]}}, "padding": {"s": "U0FNRQ=="}, "use_cudnn_on_gpu": {"b": true}, "leakyrelu_alpha": {"f": 0.2}, "epsilon": {"f": 0.0}, "T": {"type": "DT_FLOAT"}, "explicit_paddings": {"list": {}}, "dilations": {"list": {"i": ["1", "1", "1", "1"]}}}}, {"name": "StatefulPartitionedCall/UnetppAttention_32_64_128_256/corners/BiasAdd", "op": "_FusedConv2D", "input": ["StatefulPartitionedCall/UnetppAttention_32_64_128_256/x_0_3_b_act/Relu", "StatefulPartitionedCall/UnetppAttention_32_64_128_256/corners/Conv2D/ReadVariableOp", "StatefulPartitionedCall/UnetppAttention_32_64_128_256/corners/BiasAdd/ReadVariableOp"], "device": "/device:CPU:0", "attr": {"num_host_args": {"i": "0"}, "_input_shapes": {"list": {"shape": [{"dim": [{"size": "-2"}, {"size": "128"}, {"size": "128"}, {"size": "32"}]}, {"dim": [{"size": "1"}, {"size": "1"}, {"size": "32"}, {"size": "4"}]}]}}, "filter_format": {"s": "SFdJTw=="}, "data_format": {"s": "TkhXQw=="}, "fused_ops": {"list": {"s": ["Qmlhc0FkZA=="]}}, "num_args": {"i": "1"}, "strides": {"list": {"i": ["1", "1", "1", "1"]}}, "TArgs": {"list": {"type": ["DT_FLOAT"]}}, "padding": {"s": "VkFMSUQ="}, "use_cudnn_on_gpu": {"b": true}, "leakyrelu_alpha": {"f": 0.2}, "epsilon": {"f": 0.0}, "T": {"type": "DT_FLOAT"}, "explicit_paddings": {"list": {}}, "dilations": {"list": {"i": ["1", "1", "1", "1"]}}}}, {"name": "StatefulPartitionedCall/UnetppAttention_32_64_128_256/segmentation/BiasAdd", "op": "_FusedConv2D", "input": ["StatefulPartitionedCall/UnetppAttention_32_64_128_256/x_0_3_b_act/Relu", "StatefulPartitionedCall/UnetppAttention_32_64_128_256/segmentation/Conv2D/ReadVariableOp", "StatefulPartitionedCall/UnetppAttention_32_64_128_256/segmentation/BiasAdd/ReadVariableOp"], "device": "/device:CPU:0", "attr": {"num_host_args": {"i": "0"}, "_input_shapes": {"list": {"shape": [{"dim": [{"size": "-2"}, {"size": "128"}, {"size": "128"}, {"size": "32"}]}, {"dim": [{"size": "1"}, {"size": "1"}, {"size": "32"}, {"size": "1"}]}]}}, "filter_format": {"s": "SFdJTw=="}, "data_format": {"s": "TkhXQw=="}, "strides": {"list": {"i": ["1", "1", "1", "1"]}}, "num_args": {"i": "1"}, "fused_ops": {"list": {"s": ["Qmlhc0FkZA=="]}}, "TArgs": {"list": {"type": ["DT_FLOAT"]}}, "padding": {"s": "VkFMSUQ="}, "use_cudnn_on_gpu": {"b": true}, "leakyrelu_alpha": {"f": 0.2}, "epsilon": {"f": 0.0}, "T": {"type": "DT_FLOAT"}, "explicit_paddings": {"list": {}}, "dilations": {"list": {"i": ["1", "1", "1", "1"]}}}}, {"name": "StatefulPartitionedCall/UnetppAttention_32_64_128_256/corners/Sigmoid", "op": "Sigmoid", "input": ["StatefulPartitionedCall/UnetppAttention_32_64_128_256/corners/BiasAdd"], "attr": {"_input_shapes": {"list": {"shape": [{"dim": [{"size": "-2"}, {"size": "128"}, {"size": "128"}, {"size": "4"}]}]}}, "T": {"type": "DT_FLOAT"}}}, {"name": "StatefulPartitionedCall/UnetppAttention_32_64_128_256/segmentation/Sigmoid", "op": "Sigmoid", "input": ["StatefulPartitionedCall/UnetppAttention_32_64_128_256/segmentation/BiasAdd"], "attr": {"T": {"type": "DT_FLOAT"}}}, {"name": "Identity", "op": "Identity", "input": ["StatefulPartitionedCall/UnetppAttention_32_64_128_256/corners/Sigmoid"], "attr": {"T": {"type": "DT_FLOAT"}}}, {"name": "Identity_1", "op": "Identity", "input": ["StatefulPartitionedCall/UnetppAttention_32_64_128_256/segmentation/Sigmoid"], "attr": {"T": {"type": "DT_FLOAT"}}}], "library": {}, "versions": {"producer": 2129}}, "weightsManifest": [{"paths": ["group1-shard1of1.bin"], "weights": [{"name": "StatefulPartitionedCall/UnetppAttention_32_64_128_256/corners/Conv2D/ReadVariableOp", "shape": [1, 1, 32, 4], "dtype": "float32", "quantization": {"dtype": "uint8", "min": -1.1822085675071268, "scale": 0.00585251766092637, "original_dtype": "float32"}}, {"name": "StatefulPartitionedCall/UnetppAttention_32_64_128_256/corners/BiasAdd/ReadVariableOp", "shape": [4], "dtype": "float32", "quantization": {"dtype": "uint8", "min": -0.36478278040885925, "scale": 0.00025647598154404584, "original_dtype": "float32"}}, {"name": "StatefulPartitionedCall/UnetppAttention_32_64_128_256/att_0_0_j3_theta_x/Conv2D/ReadVariableOp", "shape": [1, 1, 32, 16], "dtype": "float32", "quantization": {"dtype": "uint8", "min": -0.8511295521960539, "scale": 0.005253886124666999, "original_dtype": "float32"}}, {"name": "StatefulPartitionedCall/UnetppAttention_32_64_128_256/att_0_0_j3_phi_g/Conv2D/ReadVariableOp", "shape": [1, 1, 32, 16], "dtype": "float32", "quantization": {"dtype": "uint8", "min": -0.7582066456476848, "scale": 0.005339483420054118, "original_dtype": "float32"}}, {"name": "StatefulPartitionedCall/UnetppAttention_32_64_128_256/att_0_0_j3_phi_g/BiasAdd/ReadVariableOp", "shape": [16], "dtype": "float32", "quantization": {"dtype": "uint8", "min": -0.17964702572892693, "scale": 0.0011298555077291002, "original_dtype": "float32"}}, {"name": "StatefulPartitionedCall/UnetppAttention_32_64_128_256/att_0_0_j3_psi_f/Conv2D/ReadVariableOp", "shape": [1, 1, 16, 1], "dtype": "float32", "quantization": {"dtype": "uint8", "min": -0.5400089644918254, "scale": 0.004954210683411243, "original_dtype": "float32"}}, {"name": "StatefulPartitionedCall/UnetppAttention_32_64_128_256/att_0_0_j3_psi_f/BiasAdd/ReadVariableOp", "shape": [1], "dtype": "float32", "quantization": {"dtype": "uint8", "min": -0.11671733856201172, "scale": 1.0, "original_dtype": "float32"}}, {"name": "StatefulPartitionedCall/UnetppAttention_32_64_128_256/att_0_1_j3_theta_x/Conv2D/ReadVariableOp", "shape": [1, 1, 32, 16], "dtype": "float32", "quantization": {"dtype": "uint8", "min": -0.5709091864380181, "scale": 0.003992371933132994, "original_dtype": "float32"}}, {"name": "StatefulPartitionedCall/UnetppAttention_32_64_128_256/att_0_1_j3_phi_g/Conv2D/ReadVariableOp", "shape": [1, 1, 32, 16], "dtype": "float32", "quantization": {"dtype": "uint8", "min": -0.6401034976921829, "scale": 0.004776891773822261, "original_dtype": "float32"}}, {"name": "StatefulPartitionedCall/UnetppAttention_32_64_128_256/att_0_1_j3_phi_g/BiasAdd/ReadVariableOp", "shape": [16], "dtype": "float32", "quantization": {"dtype": "uint8", "min": -0.15118394120066775, "scale": 0.0013379109840767056, "original_dtype": "float32"}}, {"name": "StatefulPartitionedCall/UnetppAttention_32_64_128_256/att_0_1_j3_psi_f/Conv2D/ReadVariableOp", "shape": [1, 1, 16, 1], "dtype": "float32", "quantization": {"dtype": "uint8", "min": -0.4860078416618646, "scale": 0.004118710522558175, "original_dtype": "float32"}}, {"name": "StatefulPartitionedCall/UnetppAttention_32_64_128_256/att_0_1_j3_psi_f/BiasAdd/ReadVariableOp", "shape": [1], "dtype": "float32", "quantization": {"dtype": "uint8", "min": -0.17793934047222137, "scale": 1.0, "original_dtype": "float32"}}, {"name": "StatefulPartitionedCall/UnetppAttention_32_64_128_256/att_0_0_j2_theta_x/Conv2D/ReadVariableOp", "shape": [1, 1, 32, 16], "dtype": "float32", "quantization": {"dtype": "uint8", "min": -0.6553492489983054, "scale": 0.005201184515859566, "original_dtype": "float32"}}, {"name": "StatefulPartitionedCall/UnetppAttention_32_64_128_256/att_0_0_j2_phi_g/Conv2D/ReadVariableOp", "shape": [1, 1, 32, 16], "dtype": "float32", "quantization": {"dtype": "uint8", "min": -0.5727250043083639, "scale": 0.004474414096159093, "original_dtype": "float32"}}, {"name": "StatefulPartitionedCall/UnetppAttention_32_64_128_256/att_0_0_j2_phi_g/BiasAdd/ReadVariableOp", "shape": [16], "dtype": "float32", "quantization": {"dtype": "uint8", "min": -0.10154158271410886, "scale": 0.000646761673338273, "original_dtype": "float32"}}, {"name": "StatefulPartitionedCall/UnetppAttention_32_64_128_256/att_0_0_j2_psi_f/Conv2D/ReadVariableOp", "shape": [1, 1, 16, 1], "dtype": "float32", "quantization": {"dtype": "uint8", "min": -0.5739474240471335, "scale": 0.004449204837574678, "original_dtype": "float32"}}, {"name": "StatefulPartitionedCall/UnetppAttention_32_64_128_256/att_0_0_j2_psi_f/BiasAdd/ReadVariableOp", "shape": [1], "dtype": "float32", "quantization": {"dtype": "uint8", "min": -0.052938539534807205, "scale": 1.0, "original_dtype": "float32"}}, {"name": "StatefulPartitionedCall/UnetppAttention_32_64_128_256/att_0_0_j1_theta_x/Conv2D/ReadVariableOp", "shape": [1, 1, 32, 16], "dtype": "float32", "quantization": {"dtype": "uint8", "min": -0.7660900503981347, "scale": 0.005395000354916441, "original_dtype": "float32"}}, {"name": "StatefulPartitionedCall/UnetppAttention_32_64_128_256/att_0_0_j1_phi_g/Conv2D/ReadVariableOp", "shape": [1, 1, 32, 16], "dtype": "float32", "quantization": {"dtype": "uint8", "min": -0.5985154656802907, "scale": 0.004534208073335535, "original_dtype": "float32"}}, {"name": "StatefulPartitionedCall/UnetppAttention_32_64_128_256/att_0_0_j1_phi_g/BiasAdd/ReadVariableOp", "shape": [16], "dtype": "float32", "quantization": {"dtype": "uint8", "min": -0.2769603215011896, "scale": 0.002130464011547612, "original_dtype": "float32"}}, {"name": "StatefulPartitionedCall/UnetppAttention_32_64_128_256/att_0_0_j1_psi_f/Conv2D/ReadVariableOp", "shape": [1, 1, 16, 1], "dtype": "float32", "quantization": {"dtype": "uint8", "min": -0.5282341573752609, "scale": 0.004553742735993628, "original_dtype": "float32"}}, {"name": "StatefulPartitionedCall/UnetppAttention_32_64_128_256/att_0_0_j1_psi_f/BiasAdd/ReadVariableOp", "shape": [1], "dtype": "float32", "quantization": {"dtype": "uint8", "min": 0.2652214765548706, "scale": 1.0, "original_dtype": "float32"}}, {"name": "StatefulPartitionedCall/UnetppAttention_32_64_128_256/up_1_0/strided_slice/stack", "shape": [1], "dtype": "int32"}, {"name": "StatefulPartitionedCall/UnetppAttention_32_64_128_256/up_1_0/strided_slice/stack_1", "shape": [1], "dtype": "int32"}, {"name": "StatefulPartitionedCall/UnetppAttention_32_64_128_256/up_1_0/strided_slice/stack_2", "shape": [1], "dtype": "int32"}, {"name": "StatefulPartitionedCall/UnetppAttention_32_64_128_256/up_1_0/stack/1", "shape": [], "dtype": "int32"}, {"name": "StatefulPartitionedCall/UnetppAttention_32_64_128_256/up_1_0/stack/2", "shape": [], "dtype": "int32"}, {"name": "StatefulPartitionedCall/UnetppAttention_32_64_128_256/up_1_0/stack/3", "shape": [], "dtype": "int32"}, {"name": "StatefulPartitionedCall/UnetppAttention_32_64_128_256/up_1_0/conv2d_transpose/ReadVariableOp", "shape": [2, 2, 32, 64], "dtype": "float32", "quantization": {"dtype": "uint8", "min": -0.39853360021815576, "scale": 0.002867148203008315, "original_dtype": "float32"}}, {"name": "StatefulPartitionedCall/UnetppAttention_32_64_128_256/up_1_0/BiasAdd/ReadVariableOp", "shape": [32], "dtype": "float32", "quantization": {"dtype": "uint8", "min": -0.5061791077548382, "scale": 0.003224070750030817, "original_dtype": "float32"}}, {"name": "StatefulPartitionedCall/UnetppAttention_32_64_128_256/merge_0_1/concat/axis", "shape": [], "dtype": "int32"}, {"name": "StatefulPartitionedCall/UnetppAttention_32_64_128_256/att_0_1_j2_theta_x/Conv2D/ReadVariableOp", "shape": [1, 1, 32, 16], "dtype": "float32", "quantization": {"dtype": "uint8", "min": -0.5016254671648437, "scale": 0.003771620053871005, "original_dtype": "float32"}}, {"name": "StatefulPartitionedCall/UnetppAttention_32_64_128_256/att_0_1_j2_phi_g/Conv2D/ReadVariableOp", "shape": [1, 1, 32, 16], "dtype": "float32", "quantization": {"dtype": "uint8", "min": -0.6871598559267381, "scale": 0.005326820588579365, "original_dtype": "float32"}}, {"name": "StatefulPartitionedCall/UnetppAttention_32_64_128_256/att_0_1_j2_phi_g/BiasAdd/ReadVariableOp", "shape": [16], "dtype": "float32", "quantization": {"dtype": "uint8", "min": -0.1803784495183066, "scale": 0.001042649997215645, "original_dtype": "float32"}}, {"name": "StatefulPartitionedCall/UnetppAttention_32_64_128_256/att_0_1_j2_psi_f/Conv2D/ReadVariableOp", "shape": [1, 1, 16, 1], "dtype": "float32", "quantization": {"dtype": "uint8", "min": -0.43062183646594776, "scale": 0.003500990540373559, "original_dtype": "float32"}}, {"name": "StatefulPartitionedCall/UnetppAttention_32_64_128_256/att_0_1_j2_psi_f/BiasAdd/ReadVariableOp", "shape": [1], "dtype": "float32", "quantization": {"dtype": "uint8", "min": -0.0693804994225502, "scale": 1.0, "original_dtype": "float32"}}, {"name": "StatefulPartitionedCall/UnetppAttention_32_64_128_256/up_1_1/strided_slice/stack", "shape": [1], "dtype": "int32"}, {"name": "StatefulPartitionedCall/UnetppAttention_32_64_128_256/up_1_1/strided_slice/stack_1", "shape": [1], "dtype": "int32"}, {"name": "StatefulPartitionedCall/UnetppAttention_32_64_128_256/up_1_1/strided_slice/stack_2", "shape": [1], "dtype": "int32"}, {"name": "StatefulPartitionedCall/UnetppAttention_32_64_128_256/up_1_1/stack/1", "shape": [], "dtype": "int32"}, {"name": "StatefulPartitionedCall/UnetppAttention_32_64_128_256/up_1_1/stack/2", "shape": [], "dtype": "int32"}, {"name": "StatefulPartitionedCall/UnetppAttention_32_64_128_256/up_1_1/stack/3", "shape": [], "dtype": "int32"}, {"name": "StatefulPartitionedCall/UnetppAttention_32_64_128_256/up_1_1/conv2d_transpose/ReadVariableOp", "shape": [2, 2, 32, 64], "dtype": "float32", "quantization": {"dtype": "uint8", "min": -0.3706465382201999, "scale": 0.0032800578603557513, "original_dtype": "float32"}}, {"name": "StatefulPartitionedCall/UnetppAttention_32_64_128_256/up_1_1/BiasAdd/ReadVariableOp", "shape": [32], "dtype": "float32", "quantization": {"dtype": "uint8", "min": -0.20111492416437934, "scale": 0.0019525720792658188, "original_dtype": "float32"}}, {"name": "StatefulPartitionedCall/UnetppAttention_32_64_128_256/merge_0_2/concat/axis", "shape": [], "dtype": "int32"}, {"name": "StatefulPartitionedCall/UnetppAttention_32_64_128_256/att_0_2_j3_theta_x/Conv2D/ReadVariableOp", "shape": [1, 1, 32, 16], "dtype": "float32", "quantization": {"dtype": "uint8", "min": -0.6383013344278522, "scale": 0.004371926948135974, "original_dtype": "float32"}}, {"name": "StatefulPartitionedCall/UnetppAttention_32_64_128_256/att_0_2_j3_phi_g/Conv2D/ReadVariableOp", "shape": [1, 1, 32, 16], "dtype": "float32", "quantization": {"dtype": "uint8", "min": -0.7665402763030108, "scale": 0.005851452490862678, "original_dtype": "float32"}}, {"name": "StatefulPartitionedCall/UnetppAttention_32_64_128_256/att_0_2_j3_phi_g/BiasAdd/ReadVariableOp", "shape": [16], "dtype": "float32", "quantization": {"dtype": "uint8", "min": -0.15582276232102338, "scale": 0.001366866336149328, "original_dtype": "float32"}}, {"name": "StatefulPartitionedCall/UnetppAttention_32_64_128_256/att_0_2_j3_psi_f/Conv2D/ReadVariableOp", "shape": [1, 1, 16, 1], "dtype": "float32", "quantization": {"dtype": "uint8", "min": -0.7334116522003623, "scale": 0.005432678905187869, "original_dtype": "float32"}}, {"name": "StatefulPartitionedCall/UnetppAttention_32_64_128_256/att_0_2_j3_psi_f/BiasAdd/ReadVariableOp", "shape": [1], "dtype": "float32", "quantization": {"dtype": "uint8", "min": -0.21752925217151642, "scale": 1.0, "original_dtype": "float32"}}, {"name": "StatefulPartitionedCall/UnetppAttention_32_64_128_256/up_1_2/strided_slice/stack", "shape": [1], "dtype": "int32"}, {"name": "StatefulPartitionedCall/UnetppAttention_32_64_128_256/up_1_2/strided_slice/stack_1", "shape": [1], "dtype": "int32"}, {"name": "StatefulPartitionedCall/UnetppAttention_32_64_128_256/up_1_2/strided_slice/stack_2", "shape": [1], "dtype": "int32"}, {"name": "StatefulPartitionedCall/UnetppAttention_32_64_128_256/up_1_2/stack/1", "shape": [], "dtype": "int32"}, {"name": "StatefulPartitionedCall/UnetppAttention_32_64_128_256/up_1_2/stack/2", "shape": [], "dtype": "int32"}, {"name": "StatefulPartitionedCall/UnetppAttention_32_64_128_256/up_1_2/stack/3", "shape": [], "dtype": "int32"}, {"name": "StatefulPartitionedCall/UnetppAttention_32_64_128_256/up_1_2/conv2d_transpose/ReadVariableOp", "shape": [2, 2, 32, 64], "dtype": "float32", "quantization": {"dtype": "uint8", "min": -0.6283294006889942, "scale": 0.004724281208187926, "original_dtype": "float32"}}, {"name": "StatefulPartitionedCall/UnetppAttention_32_64_128_256/att_1_0_j2_theta_x/Conv2D/ReadVariableOp", "shape": [1, 1, 64, 32], "dtype": "float32", "quantization": {"dtype": "uint8", "min": -0.6715912192475563, "scale": 0.004537778508429434, "original_dtype": "float32"}}, {"name": "StatefulPartitionedCall/UnetppAttention_32_64_128_256/att_1_0_j2_phi_g/Conv2D/ReadVariableOp", "shape": [1, 1, 64, 32], "dtype": "float32", "quantization": {"dtype": "uint8", "min": -0.5250678967027103, "scale": 0.004268844688639921, "original_dtype": "float32"}}, {"name": "StatefulPartitionedCall/UnetppAttention_32_64_128_256/att_1_0_j2_phi_g/BiasAdd/ReadVariableOp", "shape": [32], "dtype": "float32", "quantization": {"dtype": "uint8", "min": -0.1861674023025176, "scale": 0.001149181495694553, "original_dtype": "float32"}}, {"name": "StatefulPartitionedCall/UnetppAttention_32_64_128_256/att_1_0_j2_psi_f/Conv2D/ReadVariableOp", "shape": [1, 1, 32, 1], "dtype": "float32", "quantization": {"dtype": "uint8", "min": -0.5561149856623481, "scale": 0.004119370264165542, "original_dtype": "float32"}}, {"name": "StatefulPartitionedCall/UnetppAttention_32_64_128_256/att_1_0_j2_psi_f/BiasAdd/ReadVariableOp", "shape": [1], "dtype": "float32", "quantization": {"dtype": "uint8", "min": -0.1017811968922615, "scale": 1.0, "original_dtype": "float32"}}, {"name": "StatefulPartitionedCall/UnetppAttention_32_64_128_256/att_1_0_j1_theta_x/Conv2D/ReadVariableOp", "shape": [1, 1, 64, 32], "dtype": "float32", "quantization": {"dtype": "uint8", "min": -0.6916923453994825, "scale": 0.004642230506036796, "original_dtype": "float32"}}, {"name": "StatefulPartitionedCall/UnetppAttention_32_64_128_256/att_1_0_j1_phi_g/Conv2D/ReadVariableOp", "shape": [1, 1, 64, 32], "dtype": "float32", "quantization": {"dtype": "uint8", "min": -0.4902937056971532, "scale": 0.004018800866370108, "original_dtype": "float32"}}, {"name": "StatefulPartitionedCall/UnetppAttention_32_64_128_256/att_1_0_j1_phi_g/BiasAdd/ReadVariableOp", "shape": [32], "dtype": "float32", "quantization": {"dtype": "uint8", "min": -0.1346889383652631, "scale": 0.0015305561177870806, "original_dtype": "float32"}}, {"name": "StatefulPartitionedCall/UnetppAttention_32_64_128_256/att_1_0_j1_psi_f/Conv2D/ReadVariableOp", "shape": [1, 1, 32, 1], "dtype": "float32", "quantization": {"dtype": "uint8", "min": -0.42276635871214024, "scale": 0.0036445375751046572, "original_dtype": "float32"}}, {"name": "StatefulPartitionedCall/UnetppAttention_32_64_128_256/att_1_0_j1_psi_f/BiasAdd/ReadVariableOp", "shape": [1], "dtype": "float32", "quantization": {"dtype": "uint8", "min": 0.1038132980465889, "scale": 1.0, "original_dtype": "float32"}}, {"name": "StatefulPartitionedCall/UnetppAttention_32_64_128_256/up_2_0/strided_slice/stack", "shape": [1], "dtype": "int32"}, {"name": "StatefulPartitionedCall/UnetppAttention_32_64_128_256/up_2_0/strided_slice/stack_1", "shape": [1], "dtype": "int32"}, {"name": "StatefulPartitionedCall/UnetppAttention_32_64_128_256/up_2_0/strided_slice/stack_2", "shape": [1], "dtype": "int32"}, {"name": "StatefulPartitionedCall/UnetppAttention_32_64_128_256/up_2_0/stack/1", "shape": [], "dtype": "int32"}, {"name": "StatefulPartitionedCall/UnetppAttention_32_64_128_256/up_2_0/stack/2", "shape": [], "dtype": "int32"}, {"name": "StatefulPartitionedCall/UnetppAttention_32_64_128_256/up_2_0/stack/3", "shape": [], "dtype": "int32"}, {"name": "StatefulPartitionedCall/UnetppAttention_32_64_128_256/up_2_0/conv2d_transpose/ReadVariableOp", "shape": [2, 2, 64, 128], "dtype": "float32", "quantization": {"dtype": "uint8", "min": -0.45440643277822756, "scale": 0.0033910927819270713, "original_dtype": "float32"}}, {"name": "StatefulPartitionedCall/UnetppAttention_32_64_128_256/up_2_0/BiasAdd/ReadVariableOp", "shape": [64], "dtype": "float32", "quantization": {"dtype": "uint8", "min": -0.3876335473621593, "scale": 0.002892787666881786, "original_dtype": "float32"}}, {"name": "StatefulPartitionedCall/UnetppAttention_32_64_128_256/merge_1_1/concat/axis", "shape": [], "dtype": "int32"}, {"name": "StatefulPartitionedCall/UnetppAttention_32_64_128_256/att_1_1_j2_theta_x/Conv2D/ReadVariableOp", "shape": [1, 1, 64, 32], "dtype": "float32", "quantization": {"dtype": "uint8", "min": -0.6898950625868404, "scale": 0.0043389626577788705, "original_dtype": "float32"}}, {"name": "StatefulPartitionedCall/UnetppAttention_32_64_128_256/att_1_1_j2_phi_g/Conv2D/ReadVariableOp", "shape": [1, 1, 64, 32], "dtype": "float32", "quantization": {"dtype": "uint8", "min": -0.6460248077616971, "scale": 0.004894127331528009, "original_dtype": "float32"}}, {"name": "StatefulPartitionedCall/UnetppAttention_32_64_128_256/att_1_1_j2_phi_g/BiasAdd/ReadVariableOp", "shape": [32], "dtype": "float32", "quantization": {"dtype": "uint8", "min": -0.17482250490609338, "scale": 0.001398580039248747, "original_dtype": "float32"}}, {"name": "StatefulPartitionedCall/UnetppAttention_32_64_128_256/att_1_1_j2_psi_f/Conv2D/ReadVariableOp", "shape": [1, 1, 32, 1], "dtype": "float32", "quantization": {"dtype": "uint8", "min": -0.4556593824835385, "scale": 0.0041423580225776226, "original_dtype": "float32"}}, {"name": "StatefulPartitionedCall/UnetppAttention_32_64_128_256/att_1_1_j2_psi_f/BiasAdd/ReadVariableOp", "shape": [1], "dtype": "float32", "quantization": {"dtype": "uint8", "min": -0.12241271138191223, "scale": 1.0, "original_dtype": "float32"}}, {"name": "StatefulPartitionedCall/UnetppAttention_32_64_128_256/up_2_1/strided_slice/stack", "shape": [1], "dtype": "int32"}, {"name": "StatefulPartitionedCall/UnetppAttention_32_64_128_256/up_2_1/strided_slice/stack_1", "shape": [1], "dtype": "int32"}, {"name": "StatefulPartitionedCall/UnetppAttention_32_64_128_256/up_2_1/strided_slice/stack_2", "shape": [1], "dtype": "int32"}, {"name": "StatefulPartitionedCall/UnetppAttention_32_64_128_256/up_2_1/stack/1", "shape": [], "dtype": "int32"}, {"name": "StatefulPartitionedCall/UnetppAttention_32_64_128_256/up_2_1/stack/2", "shape": [], "dtype": "int32"}, {"name": "StatefulPartitionedCall/UnetppAttention_32_64_128_256/up_2_1/stack/3", "shape": [], "dtype": "int32"}, {"name": "StatefulPartitionedCall/UnetppAttention_32_64_128_256/up_2_1/conv2d_transpose/ReadVariableOp", "shape": [2, 2, 64, 128], "dtype": "float32", "quantization": {"dtype": "uint8", "min": -0.4532434940338135, "scale": 0.0037770291169484456, "original_dtype": "float32"}}, {"name": "StatefulPartitionedCall/UnetppAttention_32_64_128_256/att_2_0_j1_theta_x/Conv2D/ReadVariableOp", "shape": [1, 1, 128, 64], "dtype": "float32", "quantization": {"dtype": "uint8", "min": -0.6088212132453918, "scale": 0.004058808088302612, "original_dtype": "float32"}}, {"name": "StatefulPartitionedCall/UnetppAttention_32_64_128_256/att_2_0_j1_phi_g/Conv2D/ReadVariableOp", "shape": [1, 1, 128, 64], "dtype": "float32", "quantization": {"dtype": "uint8", "min": -0.4073125254874136, "scale": 0.0032847784313501096, "original_dtype": "float32"}}, {"name": "StatefulPartitionedCall/UnetppAttention_32_64_128_256/att_2_0_j1_phi_g/BiasAdd/ReadVariableOp", "shape": [64], "dtype": "float32", "quantization": {"dtype": "uint8", "min": -0.12375120783553405, "scale": 0.0007194837664856631, "original_dtype": "float32"}}, {"name": "StatefulPartitionedCall/UnetppAttention_32_64_128_256/att_2_0_j1_psi_f/Conv2D/ReadVariableOp", "shape": [1, 1, 64, 1], "dtype": "float32", "quantization": {"dtype": "uint8", "min": -0.42602701642934016, "scale": 0.002898142968907076, "original_dtype": "float32"}}, {"name": "StatefulPartitionedCall/UnetppAttention_32_64_128_256/att_2_0_j1_psi_f/BiasAdd/ReadVariableOp", "shape": [1], "dtype": "float32", "quantization": {"dtype": "uint8", "min": 0.08972948789596558, "scale": 1.0, "original_dtype": "float32"}}, {"name": "StatefulPartitionedCall/UnetppAttention_32_64_128_256/up_3_0/strided_slice/stack", "shape": [1], "dtype": "int32"}, {"name": "StatefulPartitionedCall/UnetppAttention_32_64_128_256/up_3_0/strided_slice/stack_1", "shape": [1], "dtype": "int32"}, {"name": "StatefulPartitionedCall/UnetppAttention_32_64_128_256/up_3_0/strided_slice/stack_2", "shape": [1], "dtype": "int32"}, {"name": "StatefulPartitionedCall/UnetppAttention_32_64_128_256/up_3_0/stack/1", "shape": [], "dtype": "int32"}, {"name": "StatefulPartitionedCall/UnetppAttention_32_64_128_256/up_3_0/stack/2", "shape": [], "dtype": "int32"}, {"name": "StatefulPartitionedCall/UnetppAttention_32_64_128_256/up_3_0/stack/3", "shape": [], "dtype": "int32"}, {"name": "StatefulPartitionedCall/UnetppAttention_32_64_128_256/up_3_0/conv2d_transpose/ReadVariableOp", "shape": [2, 2, 128, 256], "dtype": "float32", "quantization": {"dtype": "uint8", "min": -0.5668121506186092, "scale": 0.004886311643263873, "original_dtype": "float32"}}, {"name": "StatefulPartitionedCall/UnetppAttention_32_64_128_256/up_3_0/BiasAdd/ReadVariableOp", "shape": [128], "dtype": "float32", "quantization": {"dtype": "uint8", "min": -0.22681971998775707, "scale": 0.0014539725640240837, "original_dtype": "float32"}}, {"name": "StatefulPartitionedCall/UnetppAttention_32_64_128_256/merge_2_1/concat/axis", "shape": [], "dtype": "int32"}, {"name": "StatefulPartitionedCall/UnetppAttention_32_64_128_256/up_2_1/BiasAdd/ReadVariableOp", "shape": [64], "dtype": "float32", "quantization": {"dtype": "uint8", "min": -0.17239982392273698, "scale": 0.001706928949730069, "original_dtype": "float32"}}, {"name": "StatefulPartitionedCall/UnetppAttention_32_64_128_256/merge_1_2/concat/axis", "shape": [], "dtype": "int32"}, {"name": "StatefulPartitionedCall/UnetppAttention_32_64_128_256/up_1_2/BiasAdd/ReadVariableOp", "shape": [32], "dtype": "float32", "quantization": {"dtype": "uint8", "min": -0.1789984082474428, "scale": 0.0010467743172365076, "original_dtype": "float32"}}, {"name": "StatefulPartitionedCall/UnetppAttention_32_64_128_256/merge_0_3/concat/axis", "shape": [], "dtype": "int32"}, {"name": "StatefulPartitionedCall/UnetppAttention_32_64_128_256/segmentation/Conv2D/ReadVariableOp", "shape": [1, 1, 32, 1], "dtype": "float32", "quantization": {"dtype": "uint8", "min": -0.974711022423763, "scale": 0.007012309513840021, "original_dtype": "float32"}}, {"name": "StatefulPartitionedCall/UnetppAttention_32_64_128_256/segmentation/BiasAdd/ReadVariableOp", "shape": [1], "dtype": "float32", "quantization": {"dtype": "uint8", "min": -0.07670022547245026, "scale": 1.0, "original_dtype": "float32"}}, {"name": "StatefulPartitionedCall/UnetppAttention_32_64_128_256/x_0_0_a_conv/Conv2D_weights", "shape": [3, 3, 3, 32], "dtype": "float32", "quantization": {"dtype": "uint8", "min": -7.553065546821146, "scale": 0.054338601056267234, "original_dtype": "float32"}}, {"name": "StatefulPartitionedCall/UnetppAttention_32_64_128_256/x_0_0_a_conv/Conv2D_bn_offset", "shape": [32], "dtype": "float32", "quantization": {"dtype": "uint8", "min": -1.4184454854796913, "scale": 0.008596639305937523, "original_dtype": "float32"}}, {"name": "StatefulPartitionedCall/UnetppAttention_32_64_128_256/x_0_0_b_conv/Conv2D_weights", "shape": [3, 3, 32, 32], "dtype": "float32", "quantization": {"dtype": "uint8", "min": -0.3239729372309703, "scale": 0.0018512739270341162, "original_dtype": "float32"}}, {"name": "StatefulPartitionedCall/UnetppAttention_32_64_128_256/x_0_0_b_conv/Conv2D_bn_offset", "shape": [32], "dtype": "float32", "quantization": {"dtype": "uint8", "min": -1.7978468277875115, "scale": 0.014156274234547335, "original_dtype": "float32"}}, {"name": "StatefulPartitionedCall/UnetppAttention_32_64_128_256/x_1_0_a_conv/Conv2D_weights", "shape": [3, 3, 32, 64], "dtype": "float32", "quantization": {"dtype": "uint8", "min": -0.43425137353878396, "scale": 0.004216032752803728, "original_dtype": "float32"}}, {"name": "StatefulPartitionedCall/UnetppAttention_32_64_128_256/x_1_0_a_conv/Conv2D_bn_offset", "shape": [64], "dtype": "float32", "quantization": {"dtype": "uint8", "min": -1.174113556917976, "scale": 0.009318361562841078, "original_dtype": "float32"}}, {"name": "StatefulPartitionedCall/UnetppAttention_32_64_128_256/x_1_0_b_conv/Conv2D_weights", "shape": [3, 3, 64, 64], "dtype": "float32", "quantization": {"dtype": "uint8", "min": -0.3173194552169126, "scale": 0.002008350982385523, "original_dtype": "float32"}}, {"name": "StatefulPartitionedCall/UnetppAttention_32_64_128_256/x_1_0_b_conv/Conv2D_bn_offset", "shape": [64], "dtype": "float32", "quantization": {"dtype": "uint8", "min": -1.6837787113937677, "scale": 0.013801464847489899, "original_dtype": "float32"}}, {"name": "StatefulPartitionedCall/UnetppAttention_32_64_128_256/x_0_2_a_conv/Conv2D_weights", "shape": [3, 3, 96, 32], "dtype": "float32", "quantization": {"dtype": "uint8", "min": -0.32762220046099494, "scale": 0.0026001761941348805, "original_dtype": "float32"}}, {"name": "StatefulPartitionedCall/UnetppAttention_32_64_128_256/x_0_2_a_conv/Conv2D_bn_offset", "shape": [32], "dtype": "float32", "quantization": {"dtype": "uint8", "min": -0.21799212676637314, "scale": 0.006605822023223428, "original_dtype": "float32"}}, {"name": "StatefulPartitionedCall/UnetppAttention_32_64_128_256/x_2_0_a_conv/Conv2D_weights", "shape": [3, 3, 64, 128], "dtype": "float32", "quantization": {"dtype": "uint8", "min": -0.20424668292204537, "scale": 0.001608241597811381, "original_dtype": "float32"}}, {"name": "StatefulPartitionedCall/UnetppAttention_32_64_128_256/x_2_0_a_conv/Conv2D_bn_offset", "shape": [128], "dtype": "float32", "quantization": {"dtype": "uint8", "min": -1.549355126362221, "scale": 0.01114643975800159, "original_dtype": "float32"}}, {"name": "StatefulPartitionedCall/UnetppAttention_32_64_128_256/x_2_0_b_conv/Conv2D_weights", "shape": [3, 3, 128, 128], "dtype": "float32", "quantization": {"dtype": "uint8", "min": -0.1879821027026457, "scale": 0.0014241068386564068, "original_dtype": "float32"}}, {"name": "StatefulPartitionedCall/UnetppAttention_32_64_128_256/x_0_2_b_conv/Conv2D_weights", "shape": [3, 3, 32, 32], "dtype": "float32", "quantization": {"dtype": "uint8", "min": -0.5273594926385318, "scale": 0.00405661148183486, "original_dtype": "float32"}}, {"name": "StatefulPartitionedCall/UnetppAttention_32_64_128_256/x_2_0_b_conv/Conv2D_bn_offset", "shape": [128], "dtype": "float32", "quantization": {"dtype": "uint8", "min": -1.9827403264887191, "scale": 0.015370080050300149, "original_dtype": "float32"}}, {"name": "StatefulPartitionedCall/UnetppAttention_32_64_128_256/x_0_2_b_conv/Conv2D_bn_offset", "shape": [32], "dtype": "float32", "quantization": {"dtype": "uint8", "min": -0.11925022829981412, "scale": 0.007950015219987608, "original_dtype": "float32"}}, {"name": "StatefulPartitionedCall/UnetppAttention_32_64_128_256/x_3_0_a_conv/Conv2D_weights", "shape": [3, 3, 128, 256], "dtype": "float32", "quantization": {"dtype": "uint8", "min": -0.16552497756247428, "scale": 0.001426939461745468, "original_dtype": "float32"}}, {"name": "StatefulPartitionedCall/UnetppAttention_32_64_128_256/x_1_2_a_conv/Conv2D_weights", "shape": [3, 3, 192, 64], "dtype": "float32", "quantization": {"dtype": "uint8", "min": -0.18338290172464708, "scale": 0.0016979898307837693, "original_dtype": "float32"}}, {"name": "StatefulPartitionedCall/UnetppAttention_32_64_128_256/x_3_0_a_conv/Conv2D_bn_offset", "shape": [256], "dtype": "float32", "quantization": {"dtype": "uint8", "min": -1.4719793843288047, "scale": 0.013381630766625498, "original_dtype": "float32"}}, {"name": "StatefulPartitionedCall/UnetppAttention_32_64_128_256/x_3_0_b_conv/Conv2D_weights", "shape": [3, 3, 256, 256], "dtype": "float32", "quantization": {"dtype": "uint8", "min": -0.16029496192932127, "scale": 0.0011786394259508917, "original_dtype": "float32"}}, {"name": "StatefulPartitionedCall/UnetppAttention_32_64_128_256/x_1_2_a_conv/Conv2D_bn_offset", "shape": [64], "dtype": "float32", "quantization": {"dtype": "uint8", "min": -0.5220839423291823, "scale": 0.006780310939340031, "original_dtype": "float32"}}, {"name": "StatefulPartitionedCall/UnetppAttention_32_64_128_256/x_3_0_b_conv/Conv2D_bn_offset", "shape": [256], "dtype": "float32", "quantization": {"dtype": "uint8", "min": -2.3121363097546146, "scale": 0.01628265006869447, "original_dtype": "float32"}}, {"name": "StatefulPartitionedCall/UnetppAttention_32_64_128_256/x_0_3_a_conv/Conv2D_weights", "shape": [3, 3, 128, 32], "dtype": "float32", "quantization": {"dtype": "uint8", "min": -0.18441436658887303, "scale": 0.0016036031877293307, "original_dtype": "float32"}}, {"name": "StatefulPartitionedCall/UnetppAttention_32_64_128_256/x_1_2_b_conv/Conv2D_weights", "shape": [3, 3, 64, 64], "dtype": "float32", "quantization": {"dtype": "uint8", "min": -0.29983792772480083, "scale": 0.0023424838103500065, "original_dtype": "float32"}}, {"name": "StatefulPartitionedCall/UnetppAttention_32_64_128_256/x_0_1_a_conv/Conv2D_weights", "shape": [3, 3, 64, 32], "dtype": "float32", "quantization": {"dtype": "uint8", "min": -0.6274179458618163, "scale": 0.004613367248983944, "original_dtype": "float32"}}, {"name": "StatefulPartitionedCall/UnetppAttention_32_64_128_256/x_1_2_b_conv/Conv2D_bn_offset", "shape": [64], "dtype": "float32", "quantization": {"dtype": "uint8", "min": -2.317439359777114, "scale": 0.019311994664809283, "original_dtype": "float32"}}, {"name": "StatefulPartitionedCall/UnetppAttention_32_64_128_256/x_0_1_a_conv/Conv2D_bn_offset", "shape": [32], "dtype": "float32", "quantization": {"dtype": "uint8", "min": -0.8434213315739351, "scale": 0.012223497559042538, "original_dtype": "float32"}}, {"name": "StatefulPartitionedCall/UnetppAttention_32_64_128_256/x_0_3_a_conv/Conv2D_bn_offset", "shape": [32], "dtype": "float32", "quantization": {"dtype": "uint8", "min": -0.7008365182315602, "scale": 0.007300380398245419, "original_dtype": "float32"}}, {"name": "StatefulPartitionedCall/UnetppAttention_32_64_128_256/x_0_1_b_conv/Conv2D_weights", "shape": [3, 3, 32, 32], "dtype": "float32", "quantization": {"dtype": "uint8", "min": -0.4454600479088578, "scale": 0.003592419741200466, "original_dtype": "float32"}}, {"name": "StatefulPartitionedCall/UnetppAttention_32_64_128_256/x_0_1_b_conv/Conv2D_bn_offset", "shape": [32], "dtype": "float32", "quantization": {"dtype": "uint8", "min": -0.47810672521591185, "scale": 0.009374641670900232, "original_dtype": "float32"}}, {"name": "StatefulPartitionedCall/UnetppAttention_32_64_128_256/x_1_1_a_conv/Conv2D_weights", "shape": [3, 3, 128, 64], "dtype": "float32", "quantization": {"dtype": "uint8", "min": -0.2743668142487021, "scale": 0.002177514398799223, "original_dtype": "float32"}}, {"name": "StatefulPartitionedCall/UnetppAttention_32_64_128_256/x_1_1_a_conv/Conv2D_bn_offset", "shape": [64], "dtype": "float32", "quantization": {"dtype": "uint8", "min": -1.1766689195352442, "scale": 0.006225761479022456, "original_dtype": "float32"}}, {"name": "StatefulPartitionedCall/UnetppAttention_32_64_128_256/x_1_1_b_conv/Conv2D_weights", "shape": [3, 3, 64, 64], "dtype": "float32", "quantization": {"dtype": "uint8", "min": -0.3853502437180164, "scale": 0.0033508716845044905, "original_dtype": "float32"}}, {"name": "StatefulPartitionedCall/UnetppAttention_32_64_128_256/x_1_1_b_conv/Conv2D_bn_offset", "shape": [64], "dtype": "float32", "quantization": {"dtype": "uint8", "min": -1.9689752775080063, "scale": 0.014372082317576688, "original_dtype": "float32"}}, {"name": "StatefulPartitionedCall/UnetppAttention_32_64_128_256/x_0_3_b_conv/Conv2D_weights", "shape": [3, 3, 32, 32], "dtype": "float32", "quantization": {"dtype": "uint8", "min": -0.15739896992842356, "scale": 0.0013226804195665845, "original_dtype": "float32"}}, {"name": "StatefulPartitionedCall/UnetppAttention_32_64_128_256/x_2_1_a_conv/Conv2D_weights", "shape": [3, 3, 256, 128], "dtype": "float32", "quantization": {"dtype": "uint8", "min": -0.08728153214735143, "scale": 0.0007273461012279286, "original_dtype": "float32"}}, {"name": "StatefulPartitionedCall/UnetppAttention_32_64_128_256/x_2_1_a_conv/Conv2D_bn_offset", "shape": [128], "dtype": "float32", "quantization": {"dtype": "uint8", "min": -0.41258385006119225, "scale": 0.002885201748679666, "original_dtype": "float32"}}, {"name": "StatefulPartitionedCall/UnetppAttention_32_64_128_256/x_0_3_b_conv/Conv2D_bn_offset", "shape": [32], "dtype": "float32", "quantization": {"dtype": "uint8", "min": -1.0486294615502452, "scale": 0.00936276304955576, "original_dtype": "float32"}}, {"name": "StatefulPartitionedCall/UnetppAttention_32_64_128_256/x_2_1_b_conv/Conv2D_weights", "shape": [3, 3, 128, 128], "dtype": "float32", "quantization": {"dtype": "uint8", "min": -0.15069432030705843, "scale": 0.001168173025636112, "original_dtype": "float32"}}, {"name": "StatefulPartitionedCall/UnetppAttention_32_64_128_256/x_2_1_b_conv/Conv2D_bn_offset", "shape": [128], "dtype": "float32", "quantization": {"dtype": "uint8", "min": -1.012123566047818, "scale": 0.008096988528382544, "original_dtype": "float32"}}]}]}